trained_models/DDQN_rwd3.pt (torch, 45109 bytes, 16 tensors)

0.0.weight f4 [5, 5]
0	0x3f82e26c	1.0225348
1	0x3f8da21b	1.1065096
2	0x3f806613	1.003115
3	0x3f83ac87	1.0287026
4	0x3f8fc866	1.1233032
5	0x3f9f33af	1.2437648
6	0x3f9e80c8	1.2383051
7	0x3f69db66	0.913504
8	0x3f81ef34	1.0151124
9	0x3f9f264c	1.2433562
10	0x3f8f3a49	1.1189662
11	0x3f8e6276	1.1123798
12	0x3f681338	0.90654325
13	0x3f853399	1.0406371
14	0x3f8b01b1	1.0859891
15	0x3f8750fc	1.057159
16	0x3f898fd7	1.0747021
17	0x3f6e3e6b	0.9306399
18	0x3f879d7a	1.0594933
19	0x3f8e04f9	1.1095268
20	0x3f98a6b3	1.1925873
21	0x3f98cb6c	1.193708
22	0x3f7dd301	0.9915009
23	0x3fb3ff9c	1.4062381
24	0x3f8edb79	1.1160728

0.0.bias f4 [5, 5]
0	0x3d3f2351	0.04666454
1	0x3d4e5cee	0.050381593
2	0x3d142ba3	0.036174428
3	0xbd9ddff6	-0.07708733
4	0xbd8ae524	-0.06781986
5	0xbcad422b	-0.021149715
6	0x3deadacf	0.11467516
7	0x3d7aa0fd	0.061188687
8	0xbd752370	-0.05984825
9	0xbcf28bb2	-0.029607628
10	0xbd878be7	-0.06618481
11	0x3e010ccd	0.1260254
12	0x3d7e5ddb	0.062101226
13	0xbd920456	-0.07129733
14	0xbd9b486d	-0.075821735
15	0xbc6669a4	-0.014063273
16	0x3d03350c	0.03203301
17	0x3d047c46	0.03234508
18	0xbdcaa43f	-0.09894609
19	0xbc87aba3	-0.016561335
20	0xbe1b07ea	-0.15139738
21	0xbd57103b	-0.052505713
22	0x3d654222	0.055971272
23	0x3a735d80	0.0009283647
24	0xb94313c4	-0.00018604012

1.0.weight f4 [64, 25]
0	0x3c4f269d	0.0126434835
1	0x3dfb2a1c	0.12263891
2	0xbe2664d3	-0.16249399
3	0xbe0fb370	-0.14033294
4	0x3d0f66dd	0.035010207
5	0xbe26b657	-0.16280495
6	0x3dd09c5b	0.101860724
7	0x3e2093bc	0.15681356
8	0x3aa21d68	0.0012368383
9	0x3dc24400	0.09485626
10	0xbe33710a	-0.1752359
11	0x3e30e3b1	0.17274357
12	0xbd8e372f	-0.06944119
13	0xbcfbc5f6	-0.030734044
14	0xbd412143	-0.04715086
15	0x3ddf7906	0.10911755
16	0xbd9cc778	-0.07655233
17	0x3d820aa6	0.06349687
18	0xbe48fb2f	-0.19627069
19	0xbe62e6e0	-0.22158384
20	0xbe10a3d2	-0.14124992
21	0x3d053dfe	0.032529823
22	0xbd2054ef	-0.0391435
23	0x3e4a69ae	0.19766876
24	0xbd9c5011	-0.07632459
25	0x3dedba66	0.11607818
26	0x3e0342d0	0.12818456
27	0xbe20c0ea	-0.15698591
28	0xbd083afd	-0.03325938
29	0xbd9ce82c	-0.07661471
30	0x3d61ba32	0.05510921
31	0xbe001866	-0.12509307
32	0x3dbe9ecd	0.093076326
33	0x3c84b76e	0.016200747
34	0x3d7902fb	0.060793858
35	0x3df52e1b	0.119716845
36	0x3e178c7c	0.14799684
37	0xbe3dc161	-0.185308
38	0xbd2383e8	-0.039920717
39	0xbccd9c13	-0.025098836
40	0x3e21aac6	0.15787801
41	0x3e15e52e	0.14638206
42	0x3e3d9eac	0.1851756
43	0x3db83b16	0.08995645
44	0xbdc62deb	-0.09676727
45	0xbd4db9d4	-0.050226048
46	0x3dce868a	0.10084255
47	0x3ddf29ed	0.108966686
48	0x3e039508	0.1284982
49	0x3df1cab6	0.11806242
50	0x3e1201ca	0.14258495
51	0xbe481f56	-0.19543204
52	0xbe49b4fa	-0.19697943
53	0xbdebe741	-0.115187176
54	0x3d0198e0	0.031639934
55	0xbdc01bdc	-0.09380314
56	0xbd951f96	-0.07281415
57	0x3e068412	0.13136318
58	0xbc060185	-0.008179073
59	0x3df7e6f0	0.12104595
60	0x3d2430d6	0.040085636
61	0xbd9781e2	-0.0739782
62	0x3db3ae8e	0.08773528
63	0xbccf4200	-0.025300026
64	0x3e8331e2	0.25623995
65	0xbe52e3cc	-0.2059471
66	0x3c7667db	0.0150394095
67	0x3e296b49	0.16544832
68	0x3d68c9f1	0.05683321
69	0x3e4b8fe1	0.19879104
70	0xbda3a1a0	-0.07989812
71	0xbe0d7768	-0.13815081
72	0x3cb45092	0.022011075
73	0xbe194bb3	-0.14970283
74	0xbd481649	-0.048849378
75	0xbe5bb9fc	-0.21457666
76	0xbc14f236	-0.009090951
77	0x3e355a06	0.17710122
78	0xbd71dfb6	-0.059051238
79	0x3d07c501	0.033146862
80	0x3e51ff65	0.20507582
81	0x3d869679	0.06571669
82	0xbd78c35e	-0.06073319
83	0x3d184937	0.037179198
84	0x3c2a625f	0.01039943
85	0xbdeac2ca	-0.11462934
86	0xbd662f38	-0.056197375
87	0x3e4567ad	0.1927783
88	0x3d553c2c	0.052059337
89	0x3d24eb99	0.040263746
90	0x3db7ba15	0.08971039
91	0x3e65beab	0.22436015
92	0xbe594b70	-0.21220183
93	0x3d0f155d	0.034932483
94	0xbe477f19	-0.19482078
95	0xbe2ab025	-0.16668756
96	0xbc8a8d6f	-0.016913144
97	0xbe24de53	-0.16100435
98	0xbcd023a2	-0.025407616
99	0x3cc6e55b	0.024279287
100	0xbd9d107f	-0.07669162
101	0xbe212fb2	-0.1574085
102	0x3d0da707	0.034583118
103	0xbd6458a3	-0.055748593
104	0x3d8f158a	0.0698653
105	0x3dc1b8ab	0.09459051
106	0x3e2cf33a	0.16889659
107	0x3cd0164f	0.025401263
108	0x3e1a9d01	0.15098955
109	0x3d0962ec	0.033541605
110	0xbcca8800	-0.024723053
111	0xbe8f2b0b	-0.27962527
112	0x3de2c976	0.11073582
113	0xbde8db9e	-0.11370014
114	0x3e4300ce	0.19043276
115	0xbd4e1f6a	-0.050322928
116	0x3e24e16a	0.16101614
117	0x3e25ba32	0.16184309
118	0x3ca5ae9d	0.020224864
119	0xbd348772	-0.044074483
120	0x3e19b45b	0.15010206
121	0x3e13558b	0.14388101
122	0xbdce0489	-0.10059459
123	0xbe6841ce	-0.22681352
124	0x3dd0630b	0.10175141
125	0xbd20f28f	-0.039293822
126	0x3e66a21a	0.22522774
127	0xbd944253	-0.07239213
128	0x3dc5bf31	0.096556075
129	0x3d0ee095	0.034882147
130	0xbd607c0e	-0.054805808
131	0x3e8e0067	0.27734682
132	0x3cdd0c73	0.026983475
133	0xbce70cd8	-0.028204367
134	0xbdc6a461	-0.096993215
135	0xbd3455b9	-0.044027064
136	0xbd4ace4a	-0.04951314
137	0xbe13dd85	-0.14439972
138	0xbe822ec7	-0.25426313
139	0xbe06e037	-0.13171469
140	0xbe312761	-0.17300178
141	0xbe70f898	-0.23532331
142	0xbddbaacd	-0.10725937
143	0x3d9ad5fc	0.075603455
144	0xbe9602d1	-0.29299024
145	0xbe3e51e4	-0.18585926
146	0x3e5cd0af	0.21563981
147	0xbd8890cd	-0.066682436
148	0xbe806a90	-0.250813
149	0x3e26e7f4	0.1629942
150	0x3d9829a5	0.07429818
151	0xbe28c52c	-0.16481465
152	0xbb2e3ceb	-0.0026586603
153	0x3c1fd598	0.009755515
154	0xbda028a1	-0.07820249
155	0x3e3d6986	0.18497285
156	0x3e14f43b	0.14546292
157	0x3df08295	0.117436565
158	0xbc800928	-0.015629366
159	0xbe35a1fd	-0.17737575
160	0xbc79e959	-0.015253388
161	0x3e1506ed	0.14553423
162	0x3e2e5826	0.17025813
163	0xbd2dd4f8	-0.04243943
164	0x3d4a9984	0.04946281
165	0x3d00a4cf	0.031407174
166	0x3e3c851b	0.1841015
167	0xbda76f38	-0.0817551
168	0xbd100d06	-0.03516867
169	0x3c744f30	0.014911458
170	0x3d76c8cd	0.060250092
171	0xbdc72172	-0.09723176
172	0xbdd395b0	-0.10331285
173	0xbceed58e	-0.029154565
174	0x3d4b6ecf	0.049666222
175	0xbd405f57	-0.046965923
176	0x3e176b7a	0.14787093
177	0x3e400845	0.18753155
178	0x3e153540	0.14571095
179	0x3d9da7b6	0.07698004
180	0x3e06ff43	0.13183312
181	0xbd8aad39	-0.06771321
182	0x3e081cfd	0.13292308
183	0x3d9e1d33	0.07720413
184	0x3e04e840	0.12979221
185	0x3d5a711c	0.053330526
186	0x3c681048	0.014164038
187	0x3cce12da	0.025155474
188	0xbd920ace	-0.07130967
189	0xbdfcabe1	-0.12337471
190	0xbdc693ac	-0.09696135
191	0x3e4d970c	0.20077151
192	0xbcc4dd79	-0.024031388
193	0xbd7b6f96	-0.061385714
194	0xbe21bdb2	-0.1579502
195	0x3e0ccc52	0.13749817
196	0x3a214fa1	0.0006153528
197	0xbe1afd7a	-0.15135756
198	0x3dfd7fde	0.12377904
199	0xbc3da512	-0.011575
200	0xbe623fc1	-0.22094633
201	0x3e3c511a	0.18390313
202	0xbd95a74f	-0.07307302
203	0x3d2d3020	0.042282224
204	0xbd3a9b18	-0.045558065
205	0xbe1a2af3	-0.15055446
206	0xbe894057	-0.268069
207	0x3c0f4465	0.008744334
208	0xbe08c35e	-0.13355777
209	0xbafa036e	-0.0019074508
210	0xbd816f0f	-0.06320011
211	0xbd6ecee4	-0.058302775
212	0x3e054473	0.13014393
213	0xbc74e845	-0.0149479555
214	0xbdb55f7c	-0.08856103
215	0xbe0d1f5e	-0.13781497
216	0x3c0e5f6c	0.008689743
217	0x3de3bf18	0.111204326
218	0xbe28347d	-0.16426273
219	0x3d84fcbb	0.06493517
220	0x3cfca83f	0.030841945
221	0x3d9303a8	0.07178432
222	0x3e2eafe0	0.17059278
223	0x3e95947d	0.2921485
224	0xbd977846	-0.07395987
225	0xbda0e873	-0.07856836
226	0xbe16ac2b	-0.14714114
227	0x3e3b62a9	0.18299355
228	0xbdd2b96f	-0.10289275
229	0x3cccb22e	0.024987306
230	0x3e18ef7e	0.14935109
231	0xbe09468f	-0.13405822
232	0xbd509311	-0.050921503
233	0x3bbf6d4a	0.0058418857
234	0x3d84a5d3	0.06476941
235	0x3dc5411a	0.09631558
236	0xbe41e00d	-0.18933125
237	0x3d2158fa	0.039391495
238	0xbde854b8	-0.11344284
239	0x3d4d6989	0.050149474
240	0x3ba152bc	0.004923193
241	0x3b64d1a3	0.0034914992
242	0xbd01899a	-0.031625368
243	0x3e417a22	0.18894246
244	0x3e229d62	0.1588035
245	0x3e0af379	0.1356944
246	0x3dc045db	0.09388324
247	0x3e4dd997	0.20102535
248	0x3d9afb3c	0.075674504
249	0x3e78f300	0.24311447
250	0x3c033850	0.008009031
251	0x3dba6cdf	0.09102797
252	0xbe9171a4	-0.28407013
253	0xbd290ffc	-0.04127501
254	0x3da209f8	0.07912058
255	0xbdcf7649	-0.10129983

1.0.bias f4 [64]
0	0xbe0a1d57	-0.13487755
1	0x3e495f55	0.19665273
2	0x3d86e82d	0.06587253
3	0x3d049cf9	0.032376263
4	0xbce5abcc	-0.02803602
5	0xbde40c03	-0.111351036
6	0x3e0e53c2	0.13899139
7	0x3d2c4dfb	0.042066555
8	0x3e504f65	0.20342787
9	0xbd932ee1	-0.07186676
10	0x3e482841	0.19546606
11	0xbdbc1d88	-0.0918532
12	0x3ae74fa2	0.0017647634
13	0x3d91f532	0.071268454
14	0xbdfcc4b2	-0.12342204
15	0xbe336e39	-0.17522515
16	0xbda9cce0	-0.0829103
17	0xbdeff955	-0.11717478
18	0x3d93169b	0.07182046
19	0xbd2a1816	-0.041526876
20	0x3dffe520	0.12494874
21	0xbe33a79d	-0.17544408
22	0x3d87969f	0.066205256
23	0xbe04891d	-0.1294293
24	0xbe439eae	-0.191035
25	0x3d0cb0bf	0.034348246
26	0x3e3cd278	0.18439662
27	0xbe216f65	-0.1576515
28	0xbe98a440	-0.29812813
29	0x3d579f8c	0.05264239
30	0xbda89f46	-0.08233504
31	0xbdf5c621	-0.12000681
32	0xbd6d1b43	-0.057887327
33	0x3e3b80eb	0.18310897
34	0xbd0e8878	-0.034798115
35	0xbdc7a448	-0.09748131
36	0xbe275ae2	-0.16343263
37	0x3e4c4107	0.19946681
38	0xbc942364	-0.018083282
39	0x3dc2ec23	0.09517696
40	0x3e549bc9	0.20762552
41	0x3e0edc81	0.13951303
42	0x3d12e145	0.035859365
43	0x3bf62de0	0.007512793
44	0xbb2cc71c	-0.0026363796
45	0x3e7ac487	0.24489032
46	0x3d0a135f	0.03370988
47	0x3e029ef0	0.12755942
48	0xbc3bd58c	-0.011464488
49	0xbdad3953	-0.08458199
50	0xbc260cf0	-0.0101349205
51	0xbd12d08e	-0.035843424
52	0x3de88074	0.113526255
53	0xbe4f2aab	-0.2023112
54	0xbdf39b0b	-0.118948065
55	0xbe5765c3	-0.21034913
56	0x3dd8e943	0.10591366
57	0x3e8d8d7a	0.27647
58	0x3e372233	0.1788414
59	0x3ddfdc27	0.109306626
60	0xbd94ea73	-0.0727128
61	0xbdfa3c42	-0.122185245
62	0x3e383a9d	0.17991109
63	0xbe23e038	-0.16003501

1.2.weight f4 [48, 64]
0	0x3d427469	0.0474743
1	0xbd5654a8	-0.05232683
2	0xbd3690d4	-0.044571713
3	0xbe0bfe60	-0.13671255
4	0x3cb2dd16	0.021833938
5	0xbd7ae2cf	-0.061251458
6	0xbd31b4a0	-0.043385148
7	0xbd5def95	-0.05418356
8	0x3d08a784	0.03336288
9	0x3bcbd428	0.0062203594
10	0xbda38f11	-0.07986272
11	0xbdcd1688	-0.10014063
12	0xbc939eb8	-0.018020019
13	0x3d164cb2	0.036694236
14	0x3cc3508d	0.02384212
15	0x3c54305b	0.012950982
16	0x3d60c27f	0.054872986
17	0x3de9ebf7	0.1142196
18	0xbd3ccd3c	-0.046094164
19	0x3db68173	0.08911409
20	0xbda8af86	-0.082366034
21	0xbc94d019	-0.018165635
22	0xbd3e99ab	-0.046533268
23	0xbe16fc25	-0.14744623
24	0x3cc46d3a	0.023977865
25	0xbe19b283	-0.15009503
26	0x3dae6add	0.08516476
27	0xbb490b2a	-0.003067682
28	0x3da5ea2a	0.08101304
29	0xbb8c7a26	-0.004287022
30	0x3dd84483	0.105599426
31	0x3d808c06	0.06276707
32	0x3a9c827b	0.0011940742
33	0x3d7e1d36	0.062039576
34	0x3df00cef	0.11721217
35	0x3d9dd5f9	0.07706828
36	0xbd04d297	-0.032427397
37	0x3da4f4fe	0.08054541
38	0x3d5c1924	0.053734913
39	0x3da09488	0.0784083
40	0xbd1ba655	-0.038000423
41	0xbc3a3f52	-0.011367636
42	0xbdcdf268	-0.10056001
43	0xbb6be52b	-0.003599475
44	0x3de10c6f	0.109887
45	0xbd4901eb	-0.049074095
46	0x3daf9489	0.08573253
47	0xbc295e60	-0.010337442
48	0xbde2572b	-0.11051782
49	0x3d0e3b4a	0.03472451
50	0x3dfcf85d	0.12352059
51	0x3d633d2b	0.055478256
52	0xbde1b365	-0.11020545
53	0x3e03e97c	0.12882036
54	0xbdbba3c9	-0.09162099
55	0x3b4a6e1d	0.0030888387
56	0xbde13c3b	-0.10997816
57	0xbdf02198	-0.117251575
58	0x3e02a45f	0.12758015
59	0xbd539e50	-0.05166465
60	0xbc64deb6	-0.013969114
61	0xbd988953	-0.074480675
62	0x3d85f1e7	0.0654028
63	0xbdae964a	-0.08524759
64	0x3d7acb26	0.061228894
65	0xbda28ee3	-0.0793741
66	0x3dc92bb7	0.09822791
67	0x3ded477b	0.115858994
68	0x3c80f025	0.01573951
69	0x3c4c5294	0.01247086
70	0xbd24acd7	-0.040203895
71	0x3dffb488	0.124856055
72	0x3df58fae	0.11990295
73	0x3d162edc	0.036665782
74	0xbd873c2b	-0.06603273
75	0xbe114587	-0.14186679
76	0x3dc415f0	0.09574497
77	0xbdcba37a	-0.0994329
78	0x3ddb00d0	0.10693514
79	0xbd061720	-0.032736897
80	0x3e08915c	0.133367
81	0xbce0debe	-0.027449962
82	0x3df070ed	0.11740289
83	0xbd45e8a5	-0.04831757
84	0x3dbd2cb7	0.09237044
85	0xbe0212c8	-0.12702477
86	0xbdbfa2e0	-0.09357238
87	0x3dab52e8	0.083654225
88	0xbced73ff	-0.028985975
89	0x3d643d06	0.05572226
90	0xbdb82278	-0.089909494
91	0xbddaa3fa	-0.10675807
92	0x3dbb19fe	0.09135817
93	0x3dfcce20	0.12344003
94	0xbd912d7b	-0.07088753
95	0xbc786190	-0.015159979
96	0xbd1f19dd	-0.038843025
97	0xbc568b02	-0.0130946655
98	0xbb185c5d	-0.0023248412
99	0xbdc4ef20	-0.09615922
100	0xbbeef45c	-0.0072923135
101	0x3da911a4	0.08255318
102	0x3e05e371	0.13075043
103	0x3beff558	0.0073229484
104	0xbdef3ab5	-0.11681119
105	0x3d07434e	0.03302317
106	0xbc9cd0f6	-0.01914261
107	0xbda795be	-0.08182858
108	0x3d9dde01	0.077083595
109	0xbd1c7dc4	-0.038205877
110	0x3c9294ff	0.017893312
111	0xbda2232a	-0.07916863
112	0x3db57b88	0.08861452
113	0xbcc2662e	-0.023730364
114	0x3c3c5e52	0.011497097
115	0xbde872cb	-0.1135002
116	0xbd4ee862	-0.050514586
117	0xbda180c7	-0.078858905
118	0x3be85bb7	0.0070910114
119	0x3da33502	0.07969095
120	0x3d6b928b	0.0575128
121	0x3d980800	0.07423401
122	0x3d75d4cf	0.060017403
123	0x3dbdfcac	0.09276709
124	0x3d837739	0.06419224
125	0x3ceae194	0.028672017
126	0xbd649948	-0.055810243
127	0x3dc2c969	0.09511072
128	0x3cb63fa9	0.022247152
129	0xbd827d80	-0.063715935
130	0xbd96a918	-0.07356471
131	0xbdba794b	-0.09105166
132	0xbe42d61a	-0.19026986
133	0xbd87420b	-0.066043936
134	0xbe05ab50	-0.13053632
135	0xbd140ffd	-0.03614806
136	0x3df85c39	0.12126965
137	0xbda8baee	-0.08238779
138	0xbe1f0697	-0.15529858
139	0x3d82313b	0.06357046
140	0x3d5dbc90	0.054134905
141	0x3dfb802f	0.122803085
142	0x3e5dc652	0.21657684
143	0xbc9c63c4	-0.01909054
144	0x3d771001	0.060317997
145	0x3da42dbd	0.080165364
146	0x3e08d555	0.1336263
147	0xbc969b80	-0.018384695
148	0xbd431289	-0.0476251
149	0x3e18e0b4	0.14929467
150	0x3d829f54	0.06378046
151	0x3da0504c	0.078278154
152	0xbd605a5b	-0.05477367
153	0xbc3e4e08	-0.011615284
154	0xbb577217	-0.00328744
155	0x3cef09cc	0.029179476
156	0x3df2d0eb	0.11856254
157	0x3d6d3d84	0.057919994
158	0x3d786d85	0.06065132
159	0xbd1aa04f	-0.03775054
160	0xbd1211ac	-0.035661384
161	0x3dd3a36e	0.10333906
162	0xbdd1b8e2	-0.10240342
163	0x3aa04608	0.0012227902
164	0x3dfa0920	0.12208772
165	0x3e21ad91	0.15788867
166	0x3d8ac70b	0.06776246
167	0xbc0a27ff	-0.008432387
168	0xbd3c9784	-0.046042934
169	0x3bed7c9b	0.00724752
170	0x3e179719	0.14803733
171	0x3e220e69	0.1582581
172	0x3cb795ca	0.022410292
173	0x3d1d74e6	0.03844156
174	0xbdb9e3cd	-0.09076653
175	0x3d704ad9	0.05866513
176	0x3e28d2af	0.1648662
177	0xbe1fc2c7	-0.15601645
178	0xbddc6606	-0.10761647
179	0x3d0c54a7	0.03426042
180	0x3d91f8bc	0.071275204
181	0xbd09cf34	-0.03364487
182	0x3de04e86	0.10952477
183	0x3e0d0c5c	0.13774246
184	0x3db2b400	0.087257385
185	0x3d968d53	0.07351174
186	0x3d37e7b9	0.044898722
187	0xbd829b2d	-0.06377254
188	0x3b962b18	0.004582774
189	0xbe0149bf	-0.12625788
190	0x3c3f7c93	0.011687416
191	0x3da9a18a	0.08282764
192	0x3e0bbcda	0.1364626
193	0x3dde7f24	0.10864094
194	0xbe0fa69e	-0.14028403
195	0x3d0280ec	0.03186123
196	0xbd35c132	-0.0443737
197	0x3cdbe4cd	0.0268425
198	0x3e0a2797	0.13491665
199	0xbd2ce4b2	-0.04221029
200	0x3dd29fd1	0.10284389
201	0xbd704d55	-0.0586675
202	0x3daf02f2	0.08545484
203	0xbbfc156e	-0.0076929843
204	0xbdce548f	-0.10074722
205	0x3d896b04	0.06709865
206	0xbe15e0a2	-0.14636472
207	0xbcfda26d	-0.03096124
208	0xbd8d95a9	-0.06913311
209	0xbd97c09e	-0.07409786
210	0xbd3756c0	-0.044760466
211	0x3d8dd159	0.069246955
212	0xbda814f8	-0.082071245
213	0x3e072f3a	0.13201609
214	0x3e2aa452	0.16664246
215	0x3e00f8ab	0.1259486
216	0xbcabd53f	-0.020975707
217	0x3d85fe92	0.06542696
218	0xbe03fe16	-0.12889895
219	0xbd1e4d51	-0.038647953
220	0x3cb3e88c	0.021961473
221	0x3d458a2f	0.048227485
222	0x3de70c4b	0.112816416
223	0x3daed07b	0.08535858
224	0x3bf0eda1	0.0073525463
225	0x3db54984	0.088519126
226	0xbe115d93	-0.14195852
227	0xbd913550	-0.07090247
228	0x3dad0dbf	0.084498875
229	0x3d5d3dce	0.05401402
230	0xbd689906	-0.05678656
231	0x3d9e3247	0.077244334
232	0x3b3db870	0.0028949045
233	0x3e0af509	0.13570036
234	0xbdf23f25	-0.1182845
235	0x3c95dd94	0.018294133
236	0x3dac782c	0.084213585
237	0x3cb89020	0.022529662
238	0x3dc1731c	0.094457835
239	0xbdc0b705	-0.09409908
240	0xbd2b2183	-0.041780006
241	0xbc9a0a8e	-0.018803861
242	0x3dc6cd30	0.09707105
243	0xbd4b0413	-0.049564432
244	0xbd8df128	-0.069307625
245	0x3e0f2caf	0.13981889
246	0x3dcdb20e	0.10043727
247	0xbdd44332	-0.10364379
248	0x3d3c5ec2	0.045988806
249	0x3c74894a	0.01492531
250	0xbe0a0c41	-0.13481237
251	0x3e216d1f	0.15764283
252	0x3d86cfee	0.06582628
253	0xbd1aa7bc	-0.03775762
254	0x3df7e141	0.12103511
255	0x3d6be40e	0.057590537

1.2.bias f4 [48]
0	0x3d4ac7e8	0.04950705
1	0x3dc28758	0.09498471
2	0x3cf00d66	0.029303264
3	0x3e4542d9	0.19263782
4	0x3d268a91	0.04065949
5	0x3ba14527	0.0049215737
6	0x3d4c0135	0.04980584
7	0x3b3b18af	0.0028548648
8	0x3d5d374b	0.05400781
9	0xbe16cea8	-0.1472727
10	0x3b5fbba2	0.0034138937
11	0xbe011f51	-0.12609603
12	0x395b8eab	0.00020938615
13	0x3e046c62	0.1293197
14	0xbd8eac52	-0.06966461
15	0xbd4e86a6	-0.05042138
16	0xbe18f9d7	-0.14939056
17	0x3dc64a84	0.096821815
18	0x3db7acb2	0.08968486
19	0x3cf30acb	0.029668232
20	0x3d04e73f	0.032447096
21	0xbde08ced	-0.109643795
22	0xbd9b4f0e	-0.07583438
23	0xbd2d67c5	-0.04233529
24	0xbe8f806c	-0.28027666
25	0x3dbfd744	0.093672305
26	0xbd24285e	-0.04007756
27	0xbd8c02ad	-0.06836448
28	0xbe835242	-0.25648695
29	0x3d39f6e0	0.045401454
30	0x3d5479e6	0.051874064
31	0x3daeedbe	0.085414395
32	0x3d83c2d7	0.06433647
33	0xbc722f39	-0.014781767
34	0xbe3e2b78	-0.1857127
35	0x3dd1e401	0.102485664
36	0x3c61b9d9	0.01377722
37	0x3c2df5f0	0.010617718
38	0xbdc616d2	-0.096723214
39	0xbca090b0	-0.019600242
40	0x3d305117	0.043046083
41	0x3d98f3d6	0.07468383
42	0x3e062b37	0.13102423
43	0x3d14b1cf	0.036302384
44	0xbd5d8965	-0.054086108
45	0x3d042fc9	0.032272134
46	0xbe03068a	-0.12795463
47	0xbdbee0e0	-0.09320235

1.4.weight f4 [48, 48]
0	0xbbfb634e	-0.00767175
1	0x3ddcbad9	0.10777826
2	0x3debeb68	0.115195096
3	0xbd802cce	-0.06258546
4	0xbda8df18	-0.08245677
5	0xbdfaa94f	-0.12239324
6	0x3d943c93	0.07238116
7	0xbd6dc37a	-0.05804775
8	0xbd085c5a	-0.0332912
9	0x3dd83866	0.10557632
10	0x3d7dc0aa	0.061951317
11	0x3e039bdf	0.12852429
12	0xbdf8933f	-0.1213746
13	0xbdb609dc	-0.08888599
14	0x3df914f4	0.121621996
15	0x3e14a946	0.14517698
16	0x3e0a625e	0.13514087
17	0xbe1730b3	-0.14764671
18	0x3dba7bf6	0.09105675
19	0xbdd9537f	-0.10611629
20	0x3ac572b8	0.0015064096
21	0x3c1ecaab	0.0096918745
22	0xbdd6e73d	-0.10493324
23	0x3dd11680	0.1020937
24	0xbc46a537	-0.012124351
25	0xbdc3d9be	-0.095630154
26	0xbde6fad1	-0.11278308
27	0x3e0c59b1	0.1370609
28	0x3ddc7b37	0.10765689
29	0x3dff82c8	0.124761164
30	0x3d53a47c	0.051670536
31	0xbd56ff46	-0.05248954
32	0x3c8b182f	0.016979305
33	0x3d966829	0.07344086
34	0x3d660b5c	0.056163177
35	0x3e1b9eb1	0.15197255
36	0xbcb93888	-0.022609964
37	0xbdb9690f	-0.090532415
38	0xbbbe4da1	-0.005807594
39	0xbd0e792c	-0.034783527
40	0xbd32d6df	-0.04366195
41	0xbd3e6dad	-0.046491314
42	0x3d1395fa	0.0360317
43	0x3d1139d4	0.03545554
44	0xbe01e831	-0.1268623
45	0xbdfa1d4e	-0.12212621
46	0xbcf25abd	-0.029584283
47	0xbd97e942	-0.07417537
48	0xbdf31b37	-0.11870425
49	0x3e22b427	0.15889035
50	0x3e7c3ab5	0.2463177
51	0x3e0073ad	0.12544127
52	0x3d9ecd84	0.07754043
53	0xbe642e6e	-0.22283337
54	0x3e1d5ae9	0.1536671
55	0xbdfc39cd	-0.12315712
56	0xbcb6e4cf	-0.022325901
57	0xbd8e3dce	-0.06945382
58	0x3e317ed1	0.17333533
59	0xbcf9fdb0	-0.030516475
60	0xbd998fb0	-0.07498109
61	0xbe2c5eb2	-0.16832998
62	0x3d85f1cc	0.0654026
63	0xbe067ba8	-0.13133109
64	0x3de3f5c7	0.11130863
65	0x3ac41cfc	0.0014962251
66	0xbe131931	-0.14365079
67	0x3d7a294e	0.061074547
68	0x3dccd725	0.10001973
69	0x3c131ca0	0.008978993
70	0x3d5c923e	0.053850405
71	0x3e1936cf	0.14962314
72	0x3e216215	0.15760072
73	0xbdb013ec	-0.0859755
74	0xbe822e4a	-0.2542594
75	0x3da12fc6	0.0787044
76	0x3e1c6669	0.15273441
77	0x3e07fce9	0.13280071
78	0xbe013048	-0.12616074
79	0xbde5f38c	-0.112280935
80	0x3ca1c1d0	0.019745737
81	0xbd66dafe	-0.05636119
82	0x3dbbbcca	0.09166868
83	0x3db06592	0.08613123
84	0xbe5fd949	-0.21860231
85	0xbe1c114f	-0.15240978
86	0x3d2d8590	0.042363703
87	0xbdde132b	-0.108435
88	0xbda6d9f6	-0.081470415
89	0xbdf54bd3	-0.11977353
90	0x3ca82866	0.020527076
91	0xbe0e5cce	-0.1390259
92	0x3df2968f	0.11845123
93	0x3d1e5d6a	0.038663305
94	0xbd951a6d	-0.07280431
95	0x3a2b472b	0.0006533737
96	0xbca107bd	-0.01965701
97	0xbc76bc01	-0.015059472
98	0xbdbf5282	-0.09341909
99	0xbe2740b6	-0.16333279
100	0x3d886961	0.066607244
101	0xbdf3338d	-0.11875067
102	0x3dfa2cbc	0.12215564
103	0x3e06c668	0.13161623
104	0xbcbadd9e	-0.022810753
105	0x3d09ec87	0.033672836
106	0x3cf033f1	0.029321643
107	0x3d70d365	0.05879535
108	0xbe0153af	-0.12629579
109	0x3d07a15a	0.03311286
110	0xbcc76d80	-0.024344206
111	0xbd8f6d23	-0.07003238
112	0xbde6c15c	-0.11267349
113	0x3d8f32d9	0.0699212
114	0x3dec4688	0.1153689
115	0xbbdf3789	-0.00681204
116	0xbc870e07	-0.016486181
117	0xbe13bd00	-0.14427567
118	0x3da6e30f	0.08148777
119	0x3db0476b	0.08607372
120	0x3e05581b	0.13021891
121	0x3e160e1d	0.14653821
122	0xbe0df25a	-0.13861981
123	0x3ddcdab0	0.10783899
124	0xbd8dee93	-0.0693027
125	0xbdbd471e	-0.0924208
126	0x3cd02726	0.025409292
127	0xbd24984a	-0.040184297
128	0x3d3af1b6	0.04564067
129	0x3de14b93	0.11000743
130	0x3d6d6df8	0.057966202
131	0xbd7fa888	-0.062416583
132	0xbde82e0c	-0.11336908
133	0x3d97d34f	0.07413351
134	0x3cdb3445	0.026758322
135	0x3b226424	0.0024778927
136	0xbe055644	-0.13021189
137	0xbde5a0fc	-0.11212346
138	0x3d8c916c	0.068636745
139	0x3e002b87	0.12516604
140	0x3d2e38d2	0.042534657
141	0x3ded2254	0.11578813
142	0x3d23ba8c	0.039972827
143	0x3da96163	0.08270528
144	0xbe103b9f	-0.14085244
145	0xbdf34945	-0.118792094
146	0xbdcca886	-0.09993081
147	0x3dc3d5b2	0.095622435
148	0x3dfc57dd	0.12321446
149	0xbd959dea	-0.0730551
150	0x3cf5c27c	0.029999964
151	0x3d9f2634	0.077709585
152	0x3da2b419	0.07944507
153	0x3ddead53	0.10872903
154	0xbdcd1959	-0.100146
155	0xbc6337e3	-0.013868305
156	0xbe0ff181	-0.1405697
157	0x3de7635c	0.11298248
158	0x3cabc9d1	0.020970257
159	0xbd6eca7e	-0.05829858
160	0xbe080b01	-0.13285448
161	0xbc9bbed8	-0.0190119
162	0x3dd95fb2	0.106139556
163	0xbd13c738	-0.03607866
164	0x3db6aa86	0.089192435
165	0xbd679cda	-0.05654607
166	0x3bdc98fb	0.006732104
167	0xbd8595a5	-0.06522683
168	0xbe14b9b9	-0.14523973
169	0xbc32ace8	-0.010905482
170	0x3d8e54e4	0.06949785
171	0xbe1a40d9	-0.150638
172	0x3d0daf6a	0.034591116
173	0x3dc390fa	0.095491365
174	0x3dbc53d6	0.09195678
175	0xbd33ad24	-0.04386629
176	0x3de60540	0.1123147
177	0x3d214c5c	0.039379463
178	0xbd387d8b	-0.045041602
179	0xbe11fc5b	-0.14256422
180	0x3df585a4	0.119883806
181	0xbde2f6db	-0.1108224
182	0xbd09aba9	-0.033610974
183	0x3c7ad20b	0.015308867
184	0xbcfff62a	-0.03124531
185	0x3df114b7	0.11771529
186	0x3c5b6e78	0.013393037
187	0x3e1773ab	0.14790218
188	0xbd86b622	-0.06577708
189	0xbd94c63f	-0.07264375
190	0xbc9f0f4a	-0.01941647
191	0xba31356d	-0.0006759975
192	0x3d8ba1d9	0.06817979
193	0xbb1dd67f	-0.0024084148
194	0xbd0d09b8	-0.034433097
195	0x3e2cca3f	0.16874026
196	0x3db28ea1	0.087186106
197	0x3d903358	0.07041043
198	0xbe0e33de	-0.13886973
199	0x3a3e57c4	0.0007261003
200	0x3cd3a543	0.025835639
201	0xbdf97a5c	-0.12181541
202	0x3df060cb	0.11737212
203	0xbe435b88	-0.19077885
204	0x3d861429	0.06546814
205	0x3e01deef	0.12682699
206	0xbe218562	-0.15773538
207	0xbdd7a6cd	-0.105298616
208	0xbde4107e	-0.11135958
209	0xbda549dc	-0.08070728
210	0xbdb65984	-0.089037925
211	0x3e29e4e3	0.1659122
212	0x3e0d2d6c	0.13786858
213	0x3e04dcec	0.129749
214	0x3d05cd1b	0.032666307
215	0xbe2703b0	-0.1631
216	0xbe2bb731	-0.167691
217	0x3d0253b1	0.031818096
218	0x3de6dae9	0.112722225
219	0x3ca83633	0.020533657
220	0xbe65d57e	-0.22444722
221	0xbbdd240c	-0.006748682
222	0x3d57eb13	0.05271442
223	0x3ca2424f	0.019807009
224	0xbd8fdf94	-0.07025066
225	0x3cb8a5d4	0.02254001
226	0x3d4d7ad3	0.050165962
227	0xbd1e5003	-0.038650524
228	0x3db0355f	0.0860393
229	0x3d4c8f5e	0.049941413
230	0x3d63456d	0.05548613
231	0xbd6010c7	-0.0547035
232	0xbe0ec8da	-0.13943806
233	0x3db93dc6	0.090449855
234	0xbde5e5ef	-0.11225497
235	0x3d8d366c	0.06895146
236	0xbd998bd4	-0.07497373
237	0xbd4068c4	-0.046974912
238	0xbe323b35	-0.17405398
239	0xbda95a8f	-0.08269226
240	0x3e0e4c68	0.13896334
241	0x3e21c3dd	0.15797372
242	0x3dee03d2	0.116218224
243	0xbd5f152f	-0.05446356
244	0x3d9a921a	0.07547398
245	0x3d227637	0.03966352
246	0xbd9f7207	-0.07785421
247	0xbba03956	-0.0048896475
248	0xbca4b7ac	-0.020107113
249	0xbd74d6da	-0.05977521
250	0x3d44929f	0.04799139
251	0xbbc3dcfb	-0.0059772707
252	0x3d642553	0.055699658
253	0x3d45c987	0.048287895
254	0xbdb46399	-0.08808059
255	0x3d5dce6d	0.05415194

1.4.bias f4 [48]
0	0xbe011dde	-0.1260905
1	0x3da0402d	0.078247406
2	0xbc82cc35	-0.015966514
3	0x3d240e90	0.04005295
4	0xbcba8b1c	-0.02277141
5	0xbd8f720e	-0.07004176
6	0x3dcd6ea8	0.10030872
7	0x3d8c4a27	0.06850081
8	0x3d14c84a	0.036323823
9	0xbe4a4c10	-0.19755578
10	0xbe00053d	-0.12501998
11	0xbd41dd94	-0.047330454
12	0x3dd21308	0.10257536
13	0xbd5378d9	-0.05162892
14	0x3c733ecc	0.014846515
15	0xbe05aef7	-0.13055025
16	0xbd900335	-0.07031862
17	0xbdc27f5a	-0.09496947
18	0x3d28ff8e	0.04125934
19	0x3dcf8b9a	0.10134049
20	0xbd18293c	-0.0371487
21	0x3cd6e276	0.026231032
22	0x3df15d74	0.11785403
23	0x3dde681a	0.108596995
24	0xbd4f29ee	-0.050577097
25	0x3dedeee8	0.116178334
26	0x391ecec4	0.0001514508
27	0x3c566ea3	0.013087901
28	0x3d086ab7	0.033304896
29	0xbdc2e15d	-0.09515641
30	0xbde94fc8	-0.1139217
31	0x3df31e3b	0.118710004
32	0xbd70b99a	-0.058770753
33	0xbdd64bbc	-0.10463664
34	0xbd42ea15	-0.04758652
35	0x3cf5fab1	0.030026766
36	0xbe4b1219	-0.19831122
37	0x3da49008	0.08035284
38	0x3d850fed	0.06497178
39	0x3d6f2447	0.058384206
40	0xbcb58b3d	-0.02216112
41	0x3e2553e0	0.16145277
42	0x3de97277	0.113987856
43	0xbdf11b5f	-0.11772799
44	0xbe06ed02	-0.13176349
45	0xbd98bd82	-0.07458021
46	0x3e135ffe	0.14392087
47	0xbe0f812a	-0.14014116

1.6.weight f4 [36, 48]
0	0xbe25c175	-0.16187079
1	0xbc3ae0d5	-0.011406143
2	0xbdeb7054	-0.11496034
3	0x3dfcbf3a	0.12341161
4	0xbdb0ade2	-0.086269155
5	0xbd58036e	-0.052737646
6	0x3da18076	0.0788583
7	0xbddb2d1f	-0.107019655
8	0xbe299ba1	-0.16563274
9	0xbe2454c7	-0.16047965
10	0x3e107945	0.1410876
11	0x3dc323f8	0.09528345
12	0x3e042e7c	0.12908357
13	0xbc0afd28	-0.008483209
14	0x3dd8ad46	0.10579924
15	0x3c496352	0.012291746
16	0x3e06b14e	0.13153574
17	0xbdcce8b3	-0.10005321
18	0xbdabef81	-0.08395291
19	0xbd9b5302	-0.07584192
20	0xbd9a5267	-0.07535248
21	0xbd9bd1f9	-0.076084085
22	0x3da659d1	0.081226
23	0x3c9fd8f8	0.019512638
24	0x3d922411	0.07135785
25	0xbdb452f5	-0.08804885
26	0x3e160781	0.146513
27	0x3d04785d	0.03234135
28	0x3dae82fb	0.08521076
29	0xbcd92501	-0.026506903
30	0xbdf9c902	-0.12196542
31	0xbde94aad	-0.113911964
32	0x3dd98329	0.1062072
33	0xbcb595e6	-0.022166204
34	0xbe0554c4	-0.13020617
35	0xbc400aaf	-0.011721297
36	0xbddaa66e	-0.10676275
37	0x3d516995	0.05112608
38	0x3d3af569	0.045644198
39	0x3da90466	0.08252792
40	0x3da3b3d1	0.07993282
41	0xbd9a99a6	-0.07548837
42	0xbd8b2c6e	-0.06795584
43	0xbdc92565	-0.098215856
44	0x3be9459c	0.007118894
45	0x3cb6c78f	0.022311954
46	0x3d993cd3	0.074823044
47	0x3dd5a9f3	0.10432806
48	0xbd45982d	-0.04824083
49	0x3e083d22	0.1330457
50	0x3c2191db	0.009861435
51	0xbbc3f708	-0.005980376
52	0xbdd8ed5c	-0.10592148
53	0x3dfc701c	0.12326071
54	0x3b97696d	0.004620722
55	0xbe136a7f	-0.14396094
56	0x3d8a7d8c	0.067622274
57	0xbd928b5c	-0.07155487
58	0xbcd78a02	-0.026310924
59	0xbddba127	-0.10724097
60	0x3b0b0e84	0.0021218369
61	0xbdea877e	-0.11451624
62	0x3db34b96	0.08754651
63	0x3dcbac85	0.09945015
64	0x3d844f90	0.06460488
65	0xbe030b28	-0.12797225
66	0xbd9d8769	-0.07691843
67	0x3d695050	0.056961358
68	0x3c845714	0.016154803
69	0x3d72e136	0.05929681
70	0xbdec119d	-0.11526797
71	0x3d862166	0.06549339
72	0xbda7862c	-0.08179888
73	0xbdba3eab	-0.09093984
74	0x3da8c3c5	0.08240465
75	0x3dbf8010	0.09350598
76	0xbdded800	-0.108810425
77	0xbdd5f057	-0.10446232
78	0xbdcab63f	-0.09898042
79	0xbde48652	-0.11158432
80	0x3e05a584	0.1305142
81	0x3c959f7a	0.01826452
82	0xbd07d31c	-0.033160314
83	0x3dc5eed2	0.09664692
84	0x3d6508c3	0.05591656
85	0xbdb80b5a	-0.0898654
86	0x3d9c3bd6	0.076286
87	0x3dde6615	0.10859314
88	0xbe00f87e	-0.12594792
89	0x3e09f5b4	0.13472635
90	0xbdba156d	-0.09086118
91	0xbe10f2d8	-0.14155138
92	0xbd2779f1	-0.040887777
93	0x3da659ae	0.08122574
94	0x3d8d25ca	0.06891973
95	0x3d90197d	0.070361115
96	0xbe37594d	-0.1790516
97	0x3d59ab17	0.05314168
98	0x3de9491e	0.11390899
99	0x3e3b860a	0.1831285
100	0x3e0fa14d	0.14026375
101	0xbe23a89c	-0.15982288
102	0xbe22babc	-0.15891546
103	0x3da1063d	0.07862518
104	0x3ceb5ec2	0.028731707
105	0xbe1790fa	-0.14801398
106	0xbdc871ff	-0.09787368
107	0xbe394e9f	-0.18096398
108	0x3d0ef21a	0.034898855
109	0xbe0b1116	-0.13580737
110	0xbdfdbc53	-0.123894356
111	0x3d87ae52	0.06625046
112	0x3a796d3e	0.00095148745
113	0x3bd14e6d	0.006387523
114	0xbd7e4845	-0.06208064
115	0x3e08b3e7	0.13349877
116	0x3d058402	0.032596596
117	0xbcfe0eca	-0.031012911
118	0xbdb06566	-0.0861309
119	0xbd8618dd	-0.06547711
120	0x3c49f5b9	0.012326651
121	0xbd3fabc0	-0.046794653
122	0x3e2dc947	0.16971312
123	0xbe001fc6	-0.1251212
124	0x3dadcb1e	0.08486007
125	0xbdde2170	-0.108462214
126	0x3cb23e82	0.021758322
127	0x3db1e111	0.08685506
128	0xbb8af6c3	-0.004240842
129	0xbdb55a1e	-0.08855079
130	0xbdd12d3e	-0.102137074
131	0x3dbd778f	0.092513196
132	0xbe1a00fe	-0.15039441
133	0xbd249bdd	-0.040187705
134	0xbd87a5d3	-0.06623425
135	0x3d1f3b9d	0.03887521
136	0x3d328202	0.043581016
137	0x3d494e35	0.04914685
138	0xbe0dd66f	-0.13851331
139	0xbd39c08e	-0.04534965
140	0xbcd0b0bb	-0.025474897
141	0x3e02c00e	0.12768576
142	0x3e28aa44	0.16471201
143	0x3d885a42	0.0665784
144	0x3ddbd669	0.10734255
145	0xbd043a2d	-0.032282043
146	0xbe2bd6f8	-0.16781223
147	0xbd8cd6cc	-0.06876907
148	0x3e14ce33	0.14531784
149	0x3bb68f53	0.005571285
150	0xbd928e93	-0.071561
151	0x3d1558ad	0.03646152
152	0x3c01af7c	0.007915374
153	0xbdde1a8d	-0.10844908
154	0x3d0c513f	0.03425717
155	0x3deaeeb2	0.11471309
156	0x3d773741	0.06035543
157	0xbdeb832b	-0.11499628
158	0xbd915ba6	-0.07097559
159	0x3dc0472c	0.09388575
160	0xbd7d51bd	-0.06184553
161	0xbde757d4	-0.11296049
162	0x3c5e8c65	0.013583277
163	0xbdbd3e21	-0.09240366
164	0xbd8616e9	-0.065473385
165	0x3e11300b	0.14178483
166	0xbdb65e27	-0.08904677
167	0xbe1fa331	-0.15589596
168	0xbd9ceeab	-0.0766271
169	0xbe001b6b	-0.12510459
170	0x3b18b796	0.0023302785
171	0xbddc4950	-0.10756171
172	0xbc9a0f1a	-0.01880603
173	0xbe11915a	-0.14215603
174	0xbe0b5a7d	-0.13608737
175	0x3db4f2ad	0.08835349
176	0xbd6b01c4	-0.05737473
177	0xbd52e23d	-0.05148529
178	0x3cd69de5	0.026198337
179	0x3caf3b65	0.021390626
180	0xbddbb9d5	-0.10728804
181	0xbd986691	-0.07441438
182	0xbca2b3e3	-0.019861167
183	0xbdec041e	-0.11524223
184	0x3d921206	0.07132344
185	0x3c77dc79	0.015128248
186	0x3cc83fe1	0.024444522
187	0xbc98ca8c	-0.01865127
188	0x3df511ef	0.11966311
189	0x3e02c667	0.12770997
190	0xbd7b15dc	-0.061300144
191	0xbde6445b	-0.112435065
192	0x3d0516a0	0.03249228
193	0x3e023abf	0.12717722
194	0x3d64a549	0.05582169
195	0xbdb94fdb	-0.09048434
196	0xbe0718de	-0.1319308
197	0xbdd425c9	-0.103587694
198	0x3e1d34bf	0.15352152
199	0x3d597ced	0.053097654
200	0x3d26ed3e	0.040753596
201	0x3dfb30f0	0.122651935
202	0xbd84d485	-0.064858474
203	0xbdcf4cf0	-0.101220965
204	0x3e132f5c	0.14373535
205	0x3dddb150	0.10824835
206	0x3e0eb146	0.13934812
207	0x3c921338	0.01783143
208	0x3c332832	0.010934876
209	0x3c693259	0.014233195
210	0xbb08e814	-0.0020890282
211	0xbdf22a77	-0.11824506
212	0xbe032db9	-0.1281041
213	0x3e010f6e	0.12603542
214	0xbc6125be	-0.013741909
215	0x3cf1faaf	0.02953848
216	0x3df0ea39	0.117634244
217	0xbda60d86	-0.08108048
218	0x3dd493f1	0.1037978
219	0x3d0f18e3	0.034935843
220	0xbe060501	-0.13087846
221	0xbd8af6b1	-0.06785334
222	0x3d6371d1	0.055528466
223	0xbacf969a	-0.001583773
224	0xbde62bdb	-0.112388335
225	0x3bda816f	0.0066682617
226	0x3dd12100	0.102113724
227	0xbda73c0d	-0.08165751
228	0x3e1d54ce	0.15364382
229	0xbd858c72	-0.065209284
230	0xbdae8d2b	-0.085230194
231	0x3d53cb05	0.051707286
232	0x3e15b897	0.14621197
233	0xbdcbfd1c	-0.09960386
234	0x3e205598	0.15657651
235	0x3bdc85cd	0.0067298175
236	0xbd47c791	-0.048774306
237	0x3e210e5e	0.15728137
238	0xbcf21dcd	-0.029555226
239	0x3d2cb59f	0.042165395
240	0x3d49bbce	0.04925137
241	0x3bbf30e9	0.005834688
242	0x3d95a613	0.07307067
243	0xbd5420b3	-0.051788997
244	0xbe14d44d	-0.14534111
245	0x3ded28a0	0.11580014
246	0xbd38d625	-0.0451261
247	0xbc36bd07	-0.011153466
248	0xbdd9d689	-0.106366225
249	0xbe0eeb80	-0.13957024
250	0xbe00dcdd	-0.12584253
251	0xbc8ad5fe	-0.016947743
252	0x3d94be4c	0.07262859
253	0xbdfe1656	-0.12406604
254	0xbce1507d	-0.0275042
255	0x3da2ac7e	0.079430565

1.6.bias f4 [36]
0	0xbdada018	-0.08477801
1	0x3df841b6	0.12121908
2	0x3d6c7ac0	0.05773425
3	0xbdaef63d	-0.0854306
4	0x3deb83af	0.11499726
5	0x3d910f7f	0.07083034
6	0xbe193fd8	-0.1496576
7	0xbc1a539b	-0.009419347
8	0x3e2242cc	0.15845793
9	0xbdb5a17b	-0.088686906
10	0xbd7cfd6d	-0.061765123
11	0x3e0988f6	0.13431153
12	0xbdf0f246	-0.1176496
13	0xbdfc15b3	-0.12308826
14	0x3d9ec24f	0.07751905
15	0xbe135f48	-0.14391816
16	0x3d54d7fc	0.05196379
17	0xbcbd1cc6	-0.02308501
18	0xbd441617	-0.04787263
19	0x3c684c46	0.014178341
20	0x3d5ed4a1	0.054401997
21	0x3c14eb0a	0.009089241
22	0x3e25ff0e	0.16210577
23	0xbd38913c	-0.04506038
24	0x3deeb71e	0.116560206
25	0x3ccfbe24	0.02535922
26	0xbbf68e27	-0.00752427
27	0x3c2da90a	0.010599384
28	0x3d488a8d	0.048960257
29	0xbd49b828	-0.04924789
30	0xbdaba56d	-0.08381162
31	0x3e033249	0.12812151
32	0x3c30be00	0.010787487
33	0x3dd658c1	0.10466147
34	0xbddadeef	-0.106870525
35	0x3d980ee6	0.07424717

1.8.weight f4 [24, 36]
0	0x3e024f92	0.12725666
1	0x3e28bbcb	0.16477887
2	0xbd8a43ff	-0.067512505
3	0x3cd70b86	0.026250612
4	0x3db5a4d1	0.08869327
5	0xbe154e62	-0.14580682
6	0xbd453d7b	-0.048154335
7	0x3d22af17	0.03971776
8	0xbdda122c	-0.10647997
9	0xbb97b8a8	-0.004630167
10	0xbdbcba54	-0.09215227
11	0x3d53aa86	0.051676296
12	0x3c828bc0	0.015935779
13	0x3de2af28	0.11068565
14	0xbe2dc2f7	-0.16968904
15	0xbd1d94a2	-0.038471825
16	0xbdc4c3de	-0.09607671
17	0xbe1fad0a	-0.15593353
18	0xbe367a82	-0.1782017
19	0x3c0d137a	0.008610601
20	0xbdd03e3c	-0.1016812
21	0x3e2041b3	0.15650062
22	0xbe144a12	-0.1448138
23	0x3d60066b	0.05469362
24	0xbde790a8	-0.11306888
25	0xbe193eb7	-0.1496533
26	0xbde3ced3	-0.11123433
27	0xbe19741a	-0.14985695
28	0x3e1a045c	0.15040725
29	0x3db2c0ec	0.08728203
30	0x3dec6a17	0.115436725
31	0xbe4ea15f	-0.20178746
32	0xbe1307b7	-0.14358412
33	0xbd18f8b4	-0.037346557
34	0xbdcad0d0	-0.09903109
35	0x3db42dc5	0.08797792
36	0x3dc38383	0.09546568
37	0x3d314367	0.04327717
38	0x3dee4382	0.1163397
39	0x3e21e08a	0.15808311
40	0xbdd2908d	-0.10281477
41	0x3cb2b37a	0.021814097
42	0x3d19b36f	0.037524637
43	0x3c828fa8	0.015937641
44	0x3ddbc9a8	0.10731822
45	0xbd2085ef	-0.03919023
46	0x3e1f22e7	0.15540658
47	0xbde86a3a	-0.11348386
48	0x3e2f6257	0.17127357
49	0x3e34f103	0.17670064
50	0x3d84368d	0.06455717
51	0x3d8fc9b0	0.07020891
52	0xbdf9e6eb	-0.12202247
53	0x3e3955a6	0.18099079
54	0x3d6370e4	0.055527583
55	0xbe1b618d	-0.15173931
56	0x3e067a75	0.13132651
57	0xbdff6ad2	-0.12471546
58	0x3de41c31	0.111381896
59	0x3e0277c6	0.12741002
60	0x3af42c5c	0.0018628943
61	0x3d951cf8	0.07280916
62	0x3dbbd583	0.091715835
63	0x3d1ca4b5	0.038243014
64	0xbdb015ff	-0.085979454
65	0x3e1026cc	0.140773
66	0x3cc7d59b	0.024393847
67	0x3c9778c9	0.018490212
68	0x3e38be59	0.18041362
69	0x3e4fecd0	0.2030518
70	0xbd0a50b7	-0.033768382
71	0x3e0001ad	0.1250064
72	0x3e207195	0.15668328
73	0x3dd22662	0.10261227
74	0xbd8772d0	-0.066136956
75	0xbdfb0fad	-0.12258849
76	0xbde55a92	-0.111989155
77	0xbd359ad4	-0.04433711
78	0xbe2f902e	-0.17144844
79	0x3df6688d	0.1203166
80	0x3db4ee24	0.08834484
81	0x3e04b2ea	0.12958875
82	0xbd36c67e	-0.04462289
83	0x3cf86bb2	0.03032479
84	0x3da1787d	0.078843094
85	0x3dab1ddf	0.08355307
86	0x3dea1667	0.11430054
87	0xbe1e1740	-0.15438557
88	0x3c1f6df7	0.0097308075
89	0x3bb1e0f5	0.0054284283
90	0x3da027ca	0.07820089
91	0xbe2dcd53	-0.16972856
92	0x3dc3ce5e	0.09560846
93	0x3cec639c	0.028856091
94	0xbe2e5ff4	-0.1702879
95	0x3e0c94f7	0.137287
96	0x3cb197d3	0.02167884
97	0xbdeabb7e	-0.114615425
98	0xbe0f385b	-0.13986342
99	0x3e0ff907	0.1405984
100	0x3d996799	0.07490463
101	0xba79ceae	-0.0009529394
102	0xbcef02b2	-0.02917609
103	0x3e334c3b	0.17509548
104	0x3df4caff	0.11952781
105	0xbcb861cb	-0.022507569
106	0x3d83b83a	0.06431623
107	0xbe0f822a	-0.14014497
108	0xbde068b2	-0.10957469
109	0xbd526eae	-0.051375084
110	0x3c478f87	0.012180216
111	0xbd9b181a	-0.075729564
112	0xbb71b64a	-0.0036882334
113	0xbe351c79	-0.17686643
114	0xbc2989f7	-0.010347835
115	0xbe0927fb	-0.13394158
116	0xbcec7af4	-0.028867222
117	0x3c33eae1	0.010981292
118	0xbddea64b	-0.108715616
119	0x3e28d9b7	0.16489302
120	0x3e38c945	0.18045528
121	0x3def03c9	0.11670644
122	0x3d3ecc78	0.046581715
123	0x3e1111bf	0.14166926
124	0xbcea34a5	-0.028589556
125	0xbdc3e857	-0.095658
126	0x3d312e77	0.043257203
127	0xbd7dc525	-0.06195559
128	0x3dfd0a9d	0.1235554
129	0xbce2b9fe	-0.027676579
130	0xbd0ee378	-0.0348849
131	0xbe34a67d	-0.17641635
132	0xbe027805	-0.12741096
133	0x3d221fd5	0.03958114
134	0x3c2dec4d	0.0106154205
135	0x3df289a7	0.11842661
136	0xbde930b6	-0.11386244
137	0x3e437e8e	0.19091246
138	0x3d071601	0.03297997
139	0x3d7281cc	0.059205815
140	0xbd653b49	-0.05596474
141	0x3e2d0c98	0.16899335
142	0xbd3bd5e3	-0.045858275
143	0x3e063d47	0.13109313
144	0x3d107484	0.035267368
145	0xbd19f5ca	-0.03758792
146	0x3d33af7d	0.04386853
147	0xbe04d977	-0.12973581
148	0x3bbfabe2	0.0058493474
149	0x3aa8eb21	0.0012887457
150	0x3dd533fe	0.10410307
151	0x3e18bf9c	0.14916843
152	0xbc0bf0ea	-0.008541325
153	0x3e1c47f5	0.15261824
154	0x3de3439e	0.11096881
155	0xbdc45f0c	-0.09588441
156	0x3de8d813	0.11369338
157	0xbe0c57fa	-0.13705435
158	0x3dfde5ae	0.123973235
159	0xbe1bd0d1	-0.15216376
160	0xbe41b2e7	-0.18915902
161	0xbdafd9bf	-0.08586454
162	0xbe175c63	-0.14781336
163	0xbe147390	-0.14497209
164	0xbe22e037	-0.15905844
165	0xbe1d0ed5	-0.15337689
166	0xbe37035b	-0.17872374
167	0xbd87c640	-0.0662961
168	0x3bb8e1fb	0.0056421733
169	0x3d9f911d	0.0779135
170	0xbe87b530	-0.26505423
171	0x3dc6a542	0.09699489
172	0x3dd86813	0.105667256
173	0x3d0ef72c	0.03490369
174	0x3e128f61	0.14312507
175	0x3c935f1d	0.01798969
176	0x3d836caf	0.06417214
177	0xbd9e1c46	-0.077202365
178	0x3e0f75fd	0.14009853
179	0xbda9f432	-0.0829853
180	0xbd02477c	-0.031806454
181	0xbd9f1313	-0.0776731
182	0x3e31cbba	0.17362872
183	0xbcac8763	-0.021060651
184	0xbd5056e1	-0.050864104
185	0x3d80b6a9	0.0628484
186	0x3e2113ec	0.15730256
187	0x3e0981e1	0.13428451
188	0xbe0960ba	-0.13415805
189	0xbdfa1346	-0.12210707
190	0xbc679134	-0.01413374
191	0xbddb8e50	-0.10720503
192	0xbd63e321	-0.05563653
193	0xbc8ba294	-0.017045297
194	0xbd845079	-0.064606614
195	0x3e07c26d	0.13257761
196	0x3e206b3c	0.15665907
197	0xbd265897	-0.04061183
198	0x3e08d02d	0.13360663
199	0x3de2bc6f	0.11071097
200	0xbd8d29bb	-0.06892725
201	0xbe25c81a	-0.16189614
202	0xbd524c67	-0.051342394
203	0x3d835059	0.064118095
204	0xbe01212c	-0.1261031
205	0x3e2513ab	0.16120784
206	0x3e13d511	0.14436747
207	0x3cd74aff	0.026280878
208	0xbe2485b8	-0.16066635
209	0x3da176a8	0.0788396
210	0xbe0441de	-0.12915751
211	0xbba31c6a	-0.0049777525
212	0xbcba1980	-0.022717237
213	0x3e1e54ce	0.15462038
214	0x3d1a0144	0.037598863
215	0xbe13aba1	-0.1442094
216	0xbd07553e	-0.033040278
217	0xbd0d6289	-0.0345178
218	0xbd0daf10	-0.03459078
219	0xbde49397	-0.11160963
220	0xbe3aa4ee	-0.18226978
221	0x3e031b62	0.12803414
222	0xbdca9f02	-0.098936096
223	0x3cb84e47	0.022498263
224	0x3de2fc29	0.11083252
225	0x3e2bc694	0.1677497
226	0x3d9101e2	0.07080437
227	0xbe192abb	-0.14957707
228	0xbd9d4d2d	-0.07680736
229	0x3e2b7bfa	0.16746512
230	0x3e2e8875	0.17044242
231	0x3d322b96	0.043498598
232	0x3dca67d7	0.09883087
233	0x3e332c02	0.17497256
234	0x3d529e6c	0.051420614
235	0xbe42f2a3	-0.19037871
236	0x3d8b2129	0.06793434
237	0x3d56a57a	0.052403904
238	0x3d67ad56	0.05656179
239	0xbd0c1569	-0.034200106
240	0xbdf6cbf0	-0.12050617
241	0x3d1201b7	0.035646167
242	0x3d2c880a	0.042121924
243	0x3d8a2f09	0.067472525
244	0xbd9a5894	-0.07536426
245	0xbdf883d4	-0.12134519
246	0x3e0dc12c	0.1384322
247	0x3e1af54d	0.15132637
248	0x3d852e33	0.065029524
249	0xbdec6f31	-0.115446456
250	0xbd65b717	-0.05608281
251	0x3da00b52	0.07814659
252	0xbe1c0279	-0.15235318
253	0xbe2ca122	-0.16858342
254	0xbe162cbf	-0.14665507
255	0x3cb9ed52	0.022696171

1.8.bias f4 [24]
0	0x3d8401d9	0.06445665
1	0x3d006036	0.031341754
2	0x3d2f7d6f	0.042844232
3	0xbe81b539	-0.25333574
4	0x3e2bf4a9	0.16792549
5	0x3de540d9	0.11194009
6	0x3da18fef	0.07888781
7	0x3dbffe78	0.09374708
8	0x3dadfe03	0.084957145
9	0xbdb08819	-0.086197086
10	0x3e322ad9	0.17399158
11	0x3e259f3a	0.16174021
12	0x3da937a3	0.08262565
13	0xbddda089	-0.10821635
14	0x3e24199d	0.16025396
15	0x3d9ce92e	0.07661663
16	0x3e257db7	0.16161238
17	0xbe76f826	-0.24118099
18	0xbddffe74	-0.10937205
19	0x3e7e0753	0.24807481
20	0x3e83ff41	0.2578068
21	0x3d1064be	0.035252325
22	0x3db859b0	0.090014815
23	0x3d8a75df	0.067607634

1.10.weight f4 [12, 24]
0	0xbd952f5b	-0.07284423
1	0xbe10371a	-0.1408352
2	0x3cb14455	0.021639029
3	0xbe61f88e	-0.22067472
4	0x3e16446e	0.14674541
5	0x3d9afb6f	0.075674884
6	0xbd903285	-0.07040886
7	0xbb3af322	-0.0028526266
8	0xbe84c585	-0.25931945
9	0x3df24ba8	0.118308365
10	0xbde608b9	-0.112321325
11	0xbdded1f7	-0.10879891
12	0x3e16e1a8	0.14734519
13	0xbd2e3057	-0.04252657
14	0x3e5abcb7	0.21361051
15	0x3e3e35dd	0.18575235
16	0x3e873d52	0.2641397
17	0xbc4a2d43	-0.012339893
18	0xbdcaa40d	-0.098945715
19	0x3d2fd282	0.042925365
20	0x3e8c9fec	0.2746576
21	0xbe295a0c	-0.16538256
22	0x3e77d51e	0.24202392
23	0xbe6711fc	-0.22565454
24	0x3d80f232	0.06296195
25	0x3da6de71	0.08147896
26	0x3dd2d6a4	0.10294846
27	0xbc42bc79	-0.011885756
28	0x3e803738	0.2504213
29	0xbe0a3be8	-0.13499415
30	0xbe63bed7	-0.22240768
31	0xbd66fe76	-0.056395017
32	0xbe0ce7e7	-0.13760339
33	0xbe56a652	-0.20961884
34	0x3e4c8ba4	0.19975144
35	0x3e3ab020	0.18231249
36	0x3dfc2d67	0.12313347
37	0x3d87ded0	0.06634295
38	0x3e49645a	0.19667187
39	0xbd8b89fa	-0.06813426
40	0x3d2d9a5b	0.042383533
41	0x3e388764	0.18020397
42	0xbe4ff3f4	-0.20307904
43	0xbe0049d9	-0.1252817
44	0xbd5cef15	-0.053938944
45	0xbdf539d4	-0.119739205
46	0xbda7b0ae	-0.08187996
47	0x3db69849	0.08915765
48	0x3e69305a	0.22772351
49	0xbda0997c	-0.07841775
50	0xbd8f8920	-0.070085764
51	0x3e98e923	0.2986537
52	0xbd264790	-0.04059559
53	0x3ddeaf6e	0.10873304
54	0xbe9ee2f4	-0.31032526
55	0x3da7a4f7	0.081857614
56	0x3e826506	0.254677
57	0x3d8d5c64	0.06902388
58	0xbd7ba754	-0.061438873
59	0xbdd0df64	-0.101988584
60	0xbd73edef	-0.059553083
61	0x3e5f7caf	0.21824907
62	0x3e006824	0.12539726
63	0x3ca898ec	0.020580731
64	0xbe89d249	-0.26918247
65	0x3d6a7c4d	0.05724745
66	0x3d3da83e	0.046303026
67	0xbdc3be8d	-0.09557829
68	0xbe41b710	-0.18917489
69	0x3d392bab	0.04520766
70	0xbe82a347	-0.25515196
71	0x3e465f01	0.19372179
72	0xbd630487	-0.05542424
73	0xbc9da420	-0.0192433
74	0xbe5af86e	-0.21383831
75	0x3e91d820	0.28485203
76	0xbe4ea655	-0.20180638
77	0x3dfe3094	0.12411609
78	0x3d87a934	0.0662407
79	0x3df44aac	0.11928305
80	0xbd79a9f9	-0.060953114
81	0xbd6918ea	-0.056908526
82	0x3e1ead7d	0.15495868
83	0xbc582923	-0.0131934015
84	0xbde1ec8d	-0.110314466
85	0xbd3edc3d	-0.046596754
86	0xbc8eb105	-0.017418394
87	0xbdc29482	-0.09500982
88	0xbd78d601	-0.060750965
89	0x3e519484	0.2046681
90	0x3e031bb3	0.12803535
91	0xbe47c856	-0.19510016
92	0xbe8a9a26	-0.2707073
93	0xbe282fea	-0.16424528
94	0xbe642e12	-0.222832
95	0xbe0e82fd	-0.13917156
96	0xbde416a9	-0.111371346
97	0x3e032b03	0.12809376
98	0x3e029f81	0.12756158
99	0x3e1c67a9	0.15273918
100	0x3e0f0473	0.13966541
101	0xbcad5c08	-0.021162048
102	0x3dadba04	0.08482745
103	0x3df96f1b	0.12179395
104	0x3db3bc64	0.08776167
105	0x3df60781	0.1201315
106	0xbe6e014b	-0.2324268
107	0xbe5cbbb7	-0.21555983
108	0xbe09ad99	-0.13445129
109	0x3d6b3c39	0.05743048
110	0xbe040f5d	-0.12896486
111	0x3c98741f	0.018610058
112	0xbe379aaa	-0.17930093
113	0x3e36af77	0.17840372
114	0xbd8755ca	-0.0660816
115	0xbe4e3a65	-0.20139463
116	0xbe57b4a6	-0.21065006
117	0xbd9172ee	-0.07101999
118	0x3d07e7ab	0.03317992
119	0xbd936bda	-0.071983054
120	0x3dd9937f	0.10623836
121	0xbe86f2dd	-0.26357165
122	0xbd48b921	-0.049004678
123	0xbc7575a7	-0.014981664
124	0xbd4f8ff7	-0.050674405
125	0xbd8186b1	-0.063245185
126	0xbe437e3b	-0.19091122
127	0x3e0d24f0	0.13783622
128	0xbe1d85ad	-0.15383025
129	0x3de394f2	0.111123934
130	0x3ce4be44	0.027922757
131	0x3e796334	0.24354249
132	0xbdf464ac	-0.11933264
133	0x3c989ec0	0.018630385
134	0xbe229424	-0.15876824
135	0x3e0507da	0.12991276
136	0xbdf1a619	-0.11799259
137	0xbe8560af	-0.26050326
138	0xbde58555	-0.11207072
139	0x3e64b5dd	0.22335
140	0x3e129f7c	0.14318651
141	0x3db72d79	0.0894422
142	0x3e3b4416	0.18287691
143	0xbdf96edf	-0.1217935
144	0x3e00acd1	0.12565924
145	0xbce85d3f	-0.028364776
146	0x3e6e4868	0.23269808
147	0xbdc17e2f	-0.09447896
148	0x3eaabfd8	0.3334949
149	0xbd76ded8	-0.060271114
150	0x3d962b38	0.07332462
151	0x3ca79a2a	0.020459253
152	0xbdc0b740	-0.09409952
153	0x3e3daab5	0.18522151
154	0x3e480c2e	0.19535896
155	0xbe266313	-0.16248731
156	0xbd76fa17	-0.060297098
157	0x3e48f9f9	0.19626607
158	0x3e3cd6a7	0.18441258
159	0xbe270c2e	-0.1631324
160	0x3e94dc2b	0.29074225
161	0xbe0d8753	-0.13821153
162	0xbea8c9bc	-0.3296641
163	0x3e3ecdc8	0.18633187
164	0x3e15c76f	0.14626859
165	0x3c83f3c7	0.016107453
166	0x3e29eac7	0.16593467
167	0xbe8bb626	-0.27287406
168	0xbd0cc053	-0.034363102
169	0xbe1ca807	-0.15298472
170	0x3dfcb224	0.12338665
171	0x3d666c52	0.056255646
172	0x3e548ca2	0.20756772
173	0x3cb4059a	0.021975327
174	0xbe79f126	-0.24408397
175	0xbe66850d	-0.22511692
176	0x3d7c9f34	0.061675265
177	0x3d9f7e40	0.07787752
178	0xbd9c0d9e	-0.07619785
179	0x3d712a47	0.05887821
180	0x3dceef4f	0.10104238
181	0x3e4ec9a9	0.20194115
182	0xbe31cf37	-0.17364202
183	0xbdb312bd	-0.087438084
184	0xbe56ed6a	-0.20989004
185	0xbd77f3d0	-0.060535252
186	0x3d9f9529	0.07792122
187	0xbe205a6e	-0.15659496
188	0xbe5b2a58	-0.21402872
189	0x3dad43bf	0.08460187
190	0x3d904056	0.07043521
191	0x3dc8c9d5	0.098041214
192	0xbe4faf4c	-0.20281714
193	0x3e8f3ae8	0.2797463
194	0x3e23bf05	0.15990837
195	0x3dae6b58	0.08516568
196	0xbe0119a2	-0.12607434
197	0x3d1a0d86	0.037610553
198	0xbd02f29a	-0.031969644
199	0xbe7688c6	-0.24075612
200	0x3eb93aa2	0.36177546
201	0x3dc93a1b	0.09825536
202	0xbd996a06	-0.074909255
203	0x3df644f6	0.12024872
204	0x3ce4f738	0.027949914
205	0x3e91400a	0.2836917
206	0x3e03bbde	0.12864634
207	0xbe98549f	-0.2975206
208	0xbe951d24	-0.29123795
209	0xbd9289fd	-0.071552254
210	0x3e2d0b94	0.16898948
211	0x3d132327	0.035922196
212	0xbd50b079	-0.050949547
213	0xbe5e0f9b	-0.2168564
214	0x3bac9603	0.005266906
215	0x3e987ca9	0.29782608
216	0x3dcfa4a0	0.101388216
217	0xbdc7b656	-0.09751575
218	0xbe336039	-0.17517175
219	0x3e3a8b21	0.18217136
220	0xbcbbe52d	-0.022936428
221	0xbe59ebe6	-0.21281394
222	0xbe66e7a9	-0.22549309
223	0x3dc4fbf5	0.096183695
224	0xbe421dd3	-0.1895669
225	0xbe1e6b22	-0.15470555
226	0x3e600326	0.21876201
227	0x3deec865	0.11659316
228	0x3e20ba1d	0.15695997
229	0xbd212a19	-0.039346788
230	0x3cc4a630	0.024005026
231	0xbd997bd4	-0.074943215
232	0x3c67f943	0.01415855
233	0xbd6f47b0	-0.058417976
234	0x3dbdc59d	0.09266207
235	0x3e61db40	0.22056293
236	0x3df3efb7	0.11910956
237	0x3c2ae8c0	0.0104314685
238	0xbe2b749f	-0.16743706
239	0xbe292629	-0.16518463
240	0xbd93e2f4	-0.07221022
241	0xbe53e041	-0.20691015
242	0x3cd49d28	0.025953844
243	0xbe2bcb12	-0.16776684
244	0x3e09aa71	0.13443924
245	0xbdf92a1c	-0.12166235
246	0x3da8844a	0.08228357
247	0x3e5d04f8	0.21583927
248	0xbea10e5e	-0.31456274
249	0xbe56f6bf	-0.20992564
250	0x3e73cdae	0.2380893
251	0xbdd2747a	-0.102761224
252	0x3c0b869e	0.008515982
253	0xbd0f797e	-0.035027973
254	0x3dd8836b	0.10571941
255	0x3de7bbee	0.113151416

1.10.bias f4 [12]
0	0x3e0b4421	0.13600208
1	0x3e2569e4	0.16153675
2	0xbe39af7e	-0.18133351
3	0xbf206466	-0.62653196
4	0xbdfa4e08	-0.122219145
5	0x3ebdbb21	0.3705683
6	0x3e531b8c	0.20615977
7	0xbeab438f	-0.3344998
8	0xbd87f3ee	-0.06638323
9	0x3e5034df	0.20332669
10	0x3dbaf7c5	0.091292895
11	0x3e09f91a	0.13473931

1.12.weight f4 [4, 12]
0	0xbea143c2	-0.31497008
1	0xbec76e2e	-0.38951248
2	0x3d5a581b	0.05330668
3	0x3eefd779	0.4684408
4	0x3db95380	0.090491295
5	0xbee849d1	-0.45368817
6	0xbec06bb8	-0.37582183
7	0x3e79c6ed	0.2439229
8	0x3f35c109	0.70997673
9	0xbeff8e75	-0.49913374
10	0xbf05ba1b	-0.522371
11	0x3da4b77d	0.0804281
12	0xbe743bc1	-0.2385092
13	0x3d934ac1	0.071919926
14	0x3f247ad9	0.6424995
15	0x3f29141f	0.6604633
16	0x3ea804e3	0.32816228
17	0xbf14b8ea	-0.58094656
18	0x3deab291	0.1145984
19	0x3ef035b4	0.46915972
20	0x3f0d1b8e	0.5512017
21	0xbde75e5b	-0.11297294
22	0xbee4126d	-0.44545308
23	0xbca2d8b9	-0.019878732
24	0xbebdd236	-0.3707444
25	0xbea4fce4	-0.3222419
26	0x3e8f6bd1	0.28011945
27	0x3f3e6b4b	0.74382466
28	0x3e922451	0.28543332
29	0xbf16b0a8	-0.58863306
30	0xbf01a435	-0.50641185
31	0xbd7fb544	-0.062428728
32	0x3f1ade55	0.604955
33	0xbdbb5b87	-0.09148317
34	0xbf3346e4	-0.70030046
35	0x3d2e6431	0.04257602
36	0xbf1754d6	-0.59113824
37	0x3e3bb958	0.18332422
38	0x3f3c5753	0.73570746
39	0x3f31527d	0.6926649
40	0x3e0d91a8	0.13825095
41	0xbe003e45	-0.12523754
42	0xbf3ba9fd	-0.73306257
43	0x3f0c315a	0.54762805
44	0x3e1b1c09	0.15147413
45	0x3d54aa8a	0.05192045
46	0xbeb508ad	-0.35358182
47	0xbec94f59	-0.3931835

1.12.bias f4 [4]
0	0xbf56b50c	-0.83870006
1	0xbf47c934	-0.78041387
2	0xbf268a0e	-0.65054405
3	0xbf2cf218	-0.67556906
