trained_models/DDQN_rwd4.pt (torch, 45109 bytes, 16 tensors)

0.0.weight f4 [5, 5]
0	0x3f846619	1.0343658
1	0x3f8c9931	1.098425
2	0x3f66da08	0.9017644
3	0x3f7c346b	0.98517483
4	0x3f8f5fcf	1.1201113
5	0x3f8bddcf	1.0927066
6	0x3f8be7af	1.0930079
7	0x3f78f47a	0.9724804
8	0x3f823416	1.0172145
9	0x3f8d1955	1.1023356
10	0x3f87f2aa	1.062093
11	0x3f917e82	1.1366732
12	0x3f841b2b	1.0320791
13	0x3f7c12f5	0.98466426
14	0x3f8fcac1	1.123375
15	0x3f81e3d8	1.0147657
16	0x3f8b22f6	1.0870044
17	0x3f6ee686	0.933205
18	0x3f814d90	1.0101795
19	0x3f8595e3	1.0436367
20	0x3f8ef46f	1.1168345
21	0x3f7a6fa8	0.97826624
22	0x3f738177	0.9511942
23	0x3f8fb4dd	1.122707
24	0x3f84dfc7	1.0380791

0.0.bias f4 [5, 5]
0	0xbb851447	-0.004061255
1	0x3dd34cc5	0.10317377
2	0x3d093848	0.03350094
3	0xbd509afd	-0.05092906
4	0xbe24d28c	-0.16095942
5	0x3c8d9b60	0.017286003
6	0x3df92007	0.12164312
7	0x3d9520bb	0.072816335
8	0xbd45ccb8	-0.04829094
9	0xbd9fc58b	-0.0780135
10	0x3cd5b95c	0.026089363
11	0x3ded7137	0.1159386
12	0xbb4025ab	-0.0029319327
13	0xbccc1a9d	-0.024915034
14	0xbd79bbca	-0.060970105
15	0xbdae4915	-0.08510033
16	0x3d977ca5	0.07396821
17	0xbb851f1d	-0.004062547
18	0xbd196203	-0.037446987
19	0xbd400448	-0.046879083
20	0xbd8f6542	-0.07001735
21	0x3da242e4	0.079229146
22	0xbd199e76	-0.037504636
23	0xbb86cec9	-0.004114006
24	0xbcdb8140	-0.02679503

1.0.weight f4 [64, 25]
0	0xbe2a8d48	-0.16655457
1	0x3e4368d6	0.1908296
2	0x3e65d676	0.22445092
3	0xbe212405	-0.15736397
4	0x3d30d9c9	0.043176446
5	0xbe0d9242	-0.13825324
6	0x3e5cdb0e	0.21567938
7	0xbe0ec5d9	-0.1394266
8	0x3d77cb7b	0.06049679
9	0xbe07d709	-0.13265623
10	0x3e4e01b8	0.20117843
11	0x3e0cab52	0.13737229
12	0x3e34169a	0.17586747
13	0xbe316676	-0.17324242
14	0x3dd87355	0.10568873
15	0x3cd2c9f7	0.02573107
16	0xbe23348a	-0.15938011
17	0x3d26b96c	0.040704176
18	0xbe197d0d	-0.1498911
19	0x3dfb8378	0.12280935
20	0xbe46f0c1	-0.19427778
21	0x3d0e10b0	0.034683883
22	0x3d1bc275	0.038027246
23	0xbe5754e0	-0.21028471
24	0x3d4e51b4	0.050370887
25	0x3ded520b	0.11587914
26	0x3e90daf0	0.28292036
27	0x3e2419ad	0.1602542
28	0xbe0c0581	-0.13673975
29	0x3e174519	0.14772452
30	0xbd6186ff	-0.055060383
31	0x3c82a227	0.01594646
32	0xbaca6dba	-0.0015444078
33	0xbddc8e23	-0.10769298
34	0xbd57b806	-0.052665733
35	0xbe53ef70	-0.20696807
36	0x3c2a4626	0.010392701
37	0x3e2260d9	0.15857257
38	0xbe0c1df1	-0.13683297
39	0x3dca36c0	0.09873724
40	0x3e2f570c	0.1712305
41	0xbddde2d9	-0.108342834
42	0xbdf31317	-0.118688755
43	0xbe339347	-0.1753665
44	0x3cf4bf92	0.029876504
45	0xbad0ec36	-0.0015939537
46	0x3e3a93d5	0.18220456
47	0xbdf8e1e1	-0.12152458
48	0xbbcf432c	-0.006325146
49	0x3df9ed6b	0.12203487
50	0xbe141b04	-0.1446343
51	0xbd217b3d	-0.03942417
52	0x3c947175	0.018120507
53	0xbdd083c9	-0.10181386
54	0xbe5809cd	-0.21097489
55	0xbdce9756	-0.10087459
56	0xbe1877ad	-0.14889403
57	0xbdb07e77	-0.08617871
58	0xbe35f129	-0.17767777
59	0xbe2c34e8	-0.16817057
60	0xbe02a6d3	-0.12758951
61	0xbdc97044	-0.09835866
62	0xbe363021	-0.17791797
63	0xbe424ef6	-0.18975434
64	0xbd8d5154	-0.06900278
65	0xbe2a98c7	-0.16659842
66	0x3de5cf71	0.11221207
67	0xbdc98cff	-0.09841346
68	0x3dd47cd0	0.103753686
69	0x3e324d55	0.17412312
70	0xbda7fbff	-0.08202361
71	0xbd6924ff	-0.056920048
72	0x3dc06c0c	0.09395608
73	0xbd7b000e	-0.06127935
74	0x3e27ef98	0.16399992
75	0x3c60b024	0.01371387
76	0xbdfbc452	-0.122933045
77	0xbc818d00	-0.015814304
78	0xbb416ecc	-0.0029515503
79	0xbd82fe7e	-0.06396197
80	0x3dc159ca	0.09440954
81	0x3dbb804b	0.09155329
82	0x3d59e615	0.05319794
83	0x3d53761c	0.05162631
84	0x3e4c00b3	0.19922142
85	0x3e40fc74	0.18846303
86	0xbe14e223	-0.1453939
87	0x3e1b6737	0.15176092
88	0xbd82c09d	-0.06384394
89	0x3e3b8ff4	0.18316633
90	0xbdfb4594	-0.1226913
91	0x3e12e76f	0.14346097
92	0x3c5552b6	0.013020208
93	0x3d9667f1	0.07344044
94	0x3d62ea11	0.055399004
95	0x3d854a77	0.06508344
96	0xbe3c4dc5	-0.18389042
97	0x3dd04f9b	0.101714335
98	0xbe351068	-0.1768204
99	0x3d6d777e	0.057975285
100	0xbdff8e0a	-0.12478264
101	0xbd8eefeb	-0.069793545
102	0xbdeac044	-0.11462453
103	0x3d1ac96f	0.03778976
104	0x3e7c2511	0.24623515
105	0xbc350df9	-0.011050695
106	0xbe74e168	-0.2391411
107	0xbd6d61a2	-0.057954438
108	0x3d79118c	0.06080775
109	0xbc42e215	-0.0118947225
110	0x3db669db	0.08906909
111	0x3de78150	0.11303961
112	0xbd1c5c0b	-0.038173717
113	0x3cbf6f1c	0.02336841
114	0xbdf75b62	-0.12077977
115	0xbd795108	-0.060868293
116	0x3d2716d8	0.04079327
117	0x3deb2fc9	0.11483724
118	0xbd7f6652	-0.06235344
119	0x3e05c1a2	0.13062146
120	0x3e47dd6b	0.19518058
121	0xbe3d421e	-0.18482253
122	0x3e076db0	0.13225436
123	0x3d5cff19	0.053954218
124	0x3d7a115a	0.061051704
125	0x3d5a420c	0.053285643
126	0x3e0a413f	0.13501452
127	0x3cafe654	0.021472134
128	0xbdd4a022	-0.103821054
129	0xbe2a0f61	-0.16607429
130	0x3be65c0b	0.0070300153
131	0x3c458340	0.012055218
132	0xbe07b1bc	-0.13251394
133	0x3d4e8207	0.050416972
134	0x3e634f48	0.22198212
135	0xbda51cdc	-0.08062145
136	0xbd8c086f	-0.06837546
137	0xbc37c5f3	-0.011216628
138	0x3e0c5c38	0.13707054
139	0x3d9a3ee9	0.075315304
140	0x3e46b392	0.19404438
141	0xbe3d7e9a	-0.18505326
142	0x3de1a561	0.11017872
143	0x3c8c2637	0.017108066
144	0xbcd5d09f	-0.026100455
145	0xbdb7a4b5	-0.08966962
146	0xbe291820	-0.16513109
147	0xbe12b33c	-0.14326185
148	0xbe29ecb4	-0.16594201
149	0x3c01b1b0	0.007915899
150	0x3dbfa114	0.09356895
151	0x3cbd0eae	0.023078289
152	0xbbb31cd5	-0.0054660835
153	0x3e40a4d8	0.18812883
154	0xbe0643d3	-0.1311181
155	0x3e2a3d7b	0.16625015
156	0xbe6c6601	-0.23085786
157	0xbd9dee10	-0.077114224
158	0xbda7acce	-0.08187257
159	0xbe856310	-0.2605214
160	0x3e8389dc	0.25691116
161	0x3e254b47	0.16141997
162	0x3c2d92c2	0.010594072
163	0x3db23312	0.08701147
164	0xbe838ab2	-0.25691754
165	0x3d30a57e	0.043126576
166	0x3e262311	0.16224314
167	0xbc3d6974	-0.0115607865
168	0x3d90f65a	0.07078238
169	0xbe167d9e	-0.14696357
170	0x3e11ee92	0.14251164
171	0x3d56ab71	0.052409593
172	0x3da34a24	0.079731256
173	0xbcaf5dfc	-0.02140712
174	0x3d9b9320	0.07596421
175	0x3d1fc5ff	0.039007183
176	0x3e388f6a	0.18023458
177	0xbdd7e0da	-0.10540934
178	0x3d8b79a0	0.068103075
179	0xbe6d49d9	-0.23172702
180	0xbe162227	-0.14661466
181	0x3d5ca785	0.053870697
182	0x3cc9290a	0.024555702
183	0x3dde948b	0.10868176
184	0x3e3cee0b	0.18450181
185	0x3e043941	0.12912466
186	0x3dca1ef4	0.09869185
187	0x3bc93750	0.006140627
188	0x3d673eeb	0.056456488
189	0xbe3f7de1	-0.18700363
190	0xbe371593	-0.17879324
191	0x3e0e9b79	0.13926496
192	0xbc81a1ff	-0.015824316
193	0x3e110f66	0.1416603
194	0xbe75035f	-0.23927067
195	0x3e1fa6cc	0.15590972
196	0x3da2baf8	0.07945818
197	0x3da17f83	0.07885649
198	0x3dd62204	0.10455707
199	0xbd81313e	-0.0630822
200	0xbc7960a2	-0.015220793
201	0x3d1b3c50	0.037899315
202	0xbe81f00d	-0.25378457
203	0xbb9508fc	-0.00454819
204	0x3db22dbe	0.08700131
205	0x3e2a18b9	0.16610993
206	0xbdc21584	-0.0947676
207	0x3dad78a2	0.084702745
208	0xbe1cdf6e	-0.15319607
209	0x3dbbb823	0.09165981
210	0x3e27c67f	0.16384314
211	0x3e02880f	0.12747215
212	0xbe1bd920	-0.15219545
213	0x3dc57559	0.09641523
214	0xbdcf5bac	-0.10124907
215	0xbe46e042	-0.19421485
216	0x3e138ab8	0.14408386
217	0x3e22c70f	0.15896247
218	0x3d253ece	0.0403431
219	0xbe0bb8af	-0.1364467
220	0xbd1dec1a	-0.038555242
221	0x3e13ebbf	0.14445399
222	0x3d32ba6f	0.04363483
223	0xbdd64899	-0.10463066
224	0x3d06d47e	0.032917492
225	0x3e12c20b	0.14331834
226	0x3e15e6bd	0.14638801
227	0xbe439181	-0.19098474
228	0xbe086b36	-0.13322148
229	0xbe682ecc	-0.22674102
230	0xbce6d023	-0.02817542
231	0x3d9ca815	0.076492466
232	0x3d56b0a2	0.052414544
233	0x3c19e086	0.009391909
234	0xbe16fabf	-0.1474409
235	0x3e2c8d55	0.16850789
236	0xbd876d65	-0.06612662
237	0xbbd5e636	-0.0065276874
238	0xba8af58b	-0.0010601742
239	0xbd791746	-0.06081321
240	0x3da4069d	0.08009074
241	0xbdbcb3b9	-0.09213967
242	0x3dfcb045	0.12338308
243	0x3d74bcab	0.05975024
244	0xbdebef97	-0.115203075
245	0xbdd27cbb	-0.10277697
246	0x3dda9360	0.10672641
247	0xbe4dbca9	-0.200915
248	0xbd9efefd	-0.07763479
249	0xbe31cd16	-0.1736339
250	0x3ddca93d	0.10774467
251	0x3db247d3	0.08705106
252	0x3e42cce5	0.19023474
253	0x3d93c82c	0.07215914
254	0x3e50d0ef	0.20392202
255	0x3d134494	0.035954073

1.0.bias f4 [64]
0	0xbd86dae1	-0.065847166
1	0xbe303ac1	-0.17209913
2	0x3e01f8c5	0.12692554
3	0xbe535207	-0.2063676
4	0xbd7ae1ec	-0.061250612
5	0x3e13f6b9	0.14449586
6	0xbcd62518	-0.026140735
7	0xbc2d4b93	-0.0105771
8	0xbd05a162	-0.03262461
9	0x3dfc6285	0.123234786
10	0xbd1a8751	-0.037726704
11	0x3dfcdf8e	0.12347327
12	0xbe4e12a0	-0.20124292
13	0x3d80aa9c	0.06282541
14	0xbd1745b6	-0.036931716
15	0xbe4d9eeb	-0.20080154
16	0xbd9d74a7	-0.07688265
17	0x3d3da0b6	0.046295844
18	0xbdb13fff	-0.086547844
19	0x3e50745a	0.20356885
20	0xbdc524f5	-0.096261896
21	0xbe011a23	-0.12607627
22	0x3e116ca4	0.142016
23	0x3c2fcbf7	0.010729781
24	0x3e247ec2	0.1606398
25	0x3e01b52c	0.12666768
26	0xbe30b491	-0.1725638
27	0x3e154931	0.14578702
28	0xbd9e2a9b	-0.0772297
29	0x3c557b44	0.013029877
30	0x3dbda82e	0.09260593
31	0x3af216ee	0.0018469968
32	0x3e34b755	0.1764806
33	0x3df9cfc6	0.12197833
34	0xbddadd99	-0.10686798
35	0x3d7e85d6	0.062139355
36	0xbe513b6f	-0.20432828
37	0xbb0b064c	-0.002121347
38	0xbdad84f4	-0.084726244
39	0xbe024961	-0.12723304
40	0x3e02f19c	0.12787479
41	0x3d9a4aa5	0.075337686
42	0xbd919fc3	-0.0711055
43	0x3c5ea5cc	0.013589334
44	0xbe0038d8	-0.12521684
45	0xbd8787a2	-0.06617667
46	0x3cb119f1	0.021618815
47	0xbe25b169	-0.16180958
48	0xbdae52f8	-0.08511919
49	0x3db0d91f	0.086351626
50	0x3d2eeb5a	0.042704917
51	0x3d92e48d	0.07172499
52	0x3e0c60d8	0.13708818
53	0xbd117ca3	-0.035519253
54	0xbdff0242	-0.124516025
55	0x3e218cf4	0.15776426
56	0xbe24d1f3	-0.16095714
57	0xbe3e7a3a	-0.18601313
58	0x3e142d57	0.14470421
59	0xbe36970b	-0.17831056
60	0x3e663699	0.22481765
61	0xbc95a9ab	-0.01826938
62	0xbde718df	-0.11284041
63	0xbd9ba2d4	-0.075994164

1.2.weight f4 [48, 64]
0	0x3d51067e	0.051031582
1	0x3d2010f4	0.039078668
2	0x3d70012a	0.05859486
3	0xbd406f8b	-0.046981376
4	0x3e1f71cf	0.15570758
5	0xbde59fd7	-0.11212128
6	0x3ba14f8f	0.004922814
7	0xbe1b2ccd	-0.15153809
8	0x3d5c6d8f	0.05381542
9	0x3c04ac8d	0.00809778
10	0x3df35169	0.11880762
11	0xbc2bedf3	-0.010493743
12	0x3d2e5007	0.04255679
13	0xbdcdc150	-0.10046637
14	0x3e37a62d	0.17934485
15	0xbcadc3bc	-0.021211497
16	0x3c29bf3a	0.010360533
17	0xbdab56e9	-0.08366186
18	0xbaa22ab2	-0.0012372343
19	0x3bb07ffb	0.00538635
20	0xbdf244da	-0.11829539
21	0x3db05b08	0.08611113
22	0x3d5d712c	0.054063007
23	0x3dad4978	0.08461279
24	0x3cd02711	0.025409253
25	0x3d8338dd	0.0640733
26	0xbe0066f5	-0.12539275
27	0x3d918659	0.07105703
28	0x3e0194bd	0.12654395
29	0xbd17317d	-0.03691243
30	0x3daaeb75	0.08345691
31	0xbd5296b1	-0.05141324
32	0xbe0e4687	-0.13894092
33	0xbddcdca1	-0.10784269
34	0xbd5b8f68	-0.05360356
35	0xbd57d497	-0.052692976
36	0x3df2b17f	0.11850261
37	0xbdd759a1	-0.10515142
38	0xbe239361	-0.1597419
39	0x3df27e98	0.11840552
40	0x3c6494db	0.013951506
41	0x3bdd3d4d	0.0067516924
42	0x3d63d72f	0.055625137
43	0x3dda3f30	0.10656583
44	0x3db27474	0.08713618
45	0x3dcf294a	0.10115297
46	0x3ce4e928	0.027943209
47	0x3d889def	0.066707484
48	0x3db925f9	0.09040446
49	0xbdb8cc71	-0.09023369
50	0xbd1986d9	-0.037482116
51	0xbe312a6b	-0.17301337
52	0x3da9cda0	0.08291173
53	0x3d0f1fc7	0.034942415
54	0x3dac6810	0.08418286
55	0xbd93d3f2	-0.0721816
56	0x3ca92bb2	0.020650718
57	0xbde233bc	-0.11045024
58	0x3d2a1428	0.04152313
59	0x3d1cb9ed	0.03826325
60	0xbe0f33fc	-0.13984674
61	0xbdf9192b	-0.121630035
62	0x3e0e4733	0.13894348
63	0x3dbfa67d	0.09357927
64	0x3e23cff6	0.159973
65	0xbd6739ad	-0.05645149
66	0xbb91d43a	-0.004450348
67	0xbd7faf02	-0.06242276
68	0x3b8c19b7	0.0042755264
69	0xbe11c405	-0.14234932
70	0x3deae949	0.11470277
71	0x3c8c567f	0.017131088
72	0xbd7b4b69	-0.061351214
73	0x3d921d2f	0.071344726
74	0xbddac59a	-0.10682221
75	0x3d865535	0.06559221
76	0xbcc91e11	-0.02455047
77	0x3e10a7fd	0.14126582
78	0xbd69a212	-0.057039328
79	0x3dfcf871	0.12352074
80	0xbc4aecd5	-0.012385567
81	0x3dd18981	0.10231305
82	0x3c79b7a7	0.01524154
83	0x3d6b747d	0.05748414
84	0x3cd0e9b7	0.025502069
85	0xbc517430	-0.012784049
86	0xbdea9d27	-0.11455756
87	0x3d6530c7	0.05595472
88	0x3d8a22da	0.06744929
89	0xbdc86dab	-0.097865425
90	0x3ddf44f9	0.10901827
91	0xbd75f5fd	-0.060049046
92	0xbd786556	-0.060643516
93	0xbdb55bea	-0.08855422
94	0x3d684f59	0.056716297
95	0x3db402af	0.08789574
96	0x3d21ebeb	0.03953163
97	0xbd88a9ae	-0.06672989
98	0xbdbeef01	-0.0932293
99	0x3ca123e9	0.019670444
100	0xbd6d6724	-0.05795969
101	0xbd829ff4	-0.06378165
102	0xbdd0056b	-0.101572834
103	0x3d927aed	0.071523525
104	0x3d80549f	0.0626614
105	0xbdee65ac	-0.11640486
106	0xbe14d509	-0.14534391
107	0x3d52f708	0.05150512
108	0x3d83a01b	0.06427022
109	0xbd97ab85	-0.07405762
110	0x3de25958	0.11052197
111	0xbd903f8a	-0.07043369
112	0x3d25883c	0.040413126
113	0xbdb34ab2	-0.087544814
114	0x3de51f4e	0.111876115
115	0xbc17cc22	-0.009264978
116	0xbd058f87	-0.03260758
117	0x3d8d29d9	0.068927474
118	0xbb7e24cc	-0.0038779257
119	0x3d934534	0.07190934
120	0xbc7bb08d	-0.015361917
121	0x3d408169	0.046998415
122	0x3cd8448d	0.026399875
123	0x3d18d9ab	0.03731696
124	0x3d6129cb	0.054971498
125	0xbc775de0	-0.015098065
126	0xbdad72d9	-0.08469171
127	0x3de657cf	0.11247217
128	0x3e3cfedf	0.184566
129	0x3d01e312	0.03171069
130	0x3c672855	0.014108737
131	0xbe032609	-0.12807478
132	0xbe1d7855	-0.15377934
133	0xbd0e7fe8	-0.03478995
134	0x3e4cef2c	0.20013112
135	0x3e0d6a2c	0.13810033
136	0x3d496851	0.04917175
137	0x3df0a5b6	0.11750357
138	0xbd48650d	-0.048924495
139	0xbe0daf04	-0.13836294
140	0xbe5841c0	-0.21118832
141	0xbd0193ce	-0.0316351
142	0xbe18b86a	-0.14914098
143	0xbdce4d95	-0.10073391
144	0x3e020dc9	0.12700571
145	0xbd944b1c	-0.072408885
146	0x3df5e7d8	0.12007111
147	0x3e5f10af	0.21783708
148	0x3d9fbf12	0.07800116
149	0xbe4ed091	-0.2019675
150	0x3e00521e	0.12531325
151	0x3dfc4178	0.12317175
152	0x3dbb9930	0.091600776
153	0x3dfb87d2	0.12281765
154	0xbe59df69	-0.2127663
155	0x3e25f3dd	0.16206308
156	0xbdce3c4e	-0.10070096
157	0x3d45885d	0.04822575
158	0xbdb79505	-0.0896397
159	0x3cb21060	0.021736324
160	0xbd7c2219	-0.061555956
161	0xbe3a19fe	-0.18173978
162	0xbe47c0b9	-0.19507112
163	0xbe051b1d	-0.12998624
164	0xbe0d9cdb	-0.13829367
165	0x3ca59286	0.02021147
166	0xbd52d5c1	-0.051473383
167	0x3da98d36	0.08278887
168	0xbd64cf7b	-0.05586193
169	0x3b4390d0	0.0029840954
170	0x3ced1d8a	0.02894475
171	0x3e05ea66	0.13077697
172	0xbdded7af	-0.10880982
173	0x3de4675f	0.11152529
174	0x3e6ae615	0.22939332
175	0xbbae23e4	-0.005314337
176	0x3e2133b8	0.15742385
177	0x3daf3dce	0.0855671
178	0xbd85807a	-0.065186456
179	0x3b747638	0.003730191
180	0xbc25c3b2	-0.010117458
181	0x3d5aa916	0.05338391
182	0xbb50e26e	-0.0031873244
183	0x3ddb6c2b	0.10713991
184	0xbc786065	-0.015159701
185	0xbe0809a0	-0.13284922
186	0x3d950783	0.07276823
187	0x3d8dac04	0.06917575
188	0x3d9f1cf1	0.07769192
189	0xbde95751	-0.113936074
190	0x3dd8242e	0.10553776
191	0xbe56dcb0	-0.20982623
192	0xbdb3891a	-0.087663844
193	0x39d82b6f	0.0004123109
194	0xbd7cef32	-0.061751552
195	0xbda4b5cb	-0.08042487
196	0x3bb5fa5f	0.005553528
197	0xbd124c2b	-0.03571717
198	0x3996f495	0.00028792457
199	0x3dda4704	0.106580764
200	0x3db137f9	0.08653254
201	0xbd51201e	-0.05105602
202	0xbdc88041	-0.097900875
203	0x3db263d6	0.087104484
204	0xbc8eb186	-0.017418634
205	0x3dd2d19f	0.10293888
206	0x3d29111a	0.041276075
207	0x3deb687d	0.11494539
208	0x3dad3263	0.08456876
209	0xbd570d60	-0.05250299
210	0x3d5c5dd9	0.053800438
211	0xbdc40fda	-0.09573336
212	0xbe1424aa	-0.14467111
213	0x3cea3c5a	0.028593231
214	0xbd64d273	-0.055864763
215	0x3de01c1a	0.1094286
216	0xbdb73dae	-0.08947311
217	0x3db9e8de	0.09077619
218	0x3d82dff7	0.06390374
219	0x3d158389	0.036502395
220	0xbd002dd1	-0.031293694
221	0xbe03269c	-0.12807697
222	0xbda25c77	-0.079277925
223	0x3dc163ec	0.09442887
224	0x3d422b16	0.04740437
225	0xbd9abbb1	-0.075553305
226	0x3d0f9dbd	0.03506254
227	0x3da82cd5	0.08211676
228	0x3df3a481	0.11896611
229	0x3d1c4bca	0.038158216
230	0x3d12633f	0.03573918
231	0xbdc6fa55	-0.09715716
232	0x3de41f3f	0.11138772
233	0x3adc1d37	0.0016793375
234	0xbdf3b18d	-0.118990995
235	0x3c00721a	0.007839704
236	0x3d479677	0.04872748
237	0xbe0d7d78	-0.13817394
238	0xbd851b4a	-0.064993456
239	0x3dcb6ec6	0.09933238
240	0xbe066053	-0.13122682
241	0xbccfd103	-0.02536822
242	0xbdc52c83	-0.096276306
243	0xbbf80d1c	-0.007569922
244	0x3da70a48	0.08156258
245	0x3d191ade	0.03737914
246	0xbd16df86	-0.036834262
247	0x3cbb97d8	0.022899553
248	0xbd88c27b	-0.06677719
249	0xbdb1ad8c	-0.086756796
250	0xbd9b8cfd	-0.07595251
251	0x3dd6b84b	0.1048437
252	0x3c2b833e	0.010468302
253	0x3e07aa59	0.13248576
254	0x3dcab5ef	0.09897982
255	0xbd98bda0	-0.07458043

1.2.bias f4 [48]
0	0xbd2e8986	-0.04261162
1	0xbcdd9b05	-0.027051458
2	0x3ee7c963	0.45270833
3	0xbdb0ff87	-0.08642488
4	0xbcaaee53	-0.020865595
5	0xbdc6e9a5	-0.09712533
6	0x3cece2d3	0.028916752
7	0xbc742194	-0.014900584
8	0x3e0fd445	0.14045818
9	0x3db35e23	0.087581895
10	0x3defc60e	0.11707698
11	0xbd87f6df	-0.06638884
12	0x3d932bf4	0.07186118
13	0xbb332c65	-0.0027339694
14	0xbd2d6816	-0.042335592
15	0xbd0f05fd	-0.03491782
16	0x3ddf357b	0.108988725
17	0xbce821a5	-0.028336355
18	0x3d252783	0.040320884
19	0x3ce25215	0.02762703
20	0x3d868cb0	0.06569803
21	0x3e32a65c	0.17446274
22	0xbdd7c8ac	-0.10536322
23	0x3db7f9cf	0.08983194
24	0x3d8787f4	0.06617728
25	0xbdffd645	-0.124920405
26	0xbc6faf6c	-0.014629226
27	0xbd72f41d	-0.059314836
28	0xbda16b30	-0.078817725
29	0xbd0813e3	-0.03322209
30	0xbe137f1a	-0.14403954
31	0x3db4a07d	0.08819673
32	0x3d5823b9	0.052768443
33	0x3e429d01	0.19005205
34	0xbdad4428	-0.084602654
35	0xbce0ceee	-0.027442422
36	0x3da06117	0.078310184
37	0x3ca4e756	0.02012984
38	0xbdec2c7d	-0.11531923
39	0x3d556b3f	0.05210423
40	0xbe0b0be8	-0.1357876
41	0xbde8b51b	-0.11362668
42	0xbd054ffb	-0.03254698
43	0x3d4fc5df	0.050725814
44	0x3db19667	0.08671265
45	0xbd83edcf	-0.06441843
46	0xbd4db38c	-0.050220057
47	0xbd92e7ee	-0.07173143

1.4.weight f4 [48, 48]
0	0xbb1aea6d	-0.0023638264
1	0xbe004edb	-0.12530081
2	0x3d81698a	0.06318958
3	0x3cfe2a08	0.031025901
4	0x3e067c0d	0.13133259
5	0x3c8dbe80	0.017302752
6	0xbd495e51	-0.049162213
7	0x3d6fe527	0.058568146
8	0xbd7876a3	-0.060660016
9	0xbdeeaefa	-0.11654468
10	0x3cf93762	0.030421916
11	0x3e0a97a9	0.13534416
12	0xbd5933a3	-0.05302776
13	0x3e1273e4	0.14302021
14	0x3d99dc88	0.07512766
15	0xbdacf160	-0.08444476
16	0xbdff2ace	-0.12459336
17	0x3d4337a8	0.0476605
18	0xbd5f94cb	-0.05458526
19	0xbd9122a4	-0.07086685
20	0xbcc97747	-0.024593009
21	0xbdd44ebe	-0.103665814
22	0x3dc43f30	0.095823646
23	0x3dbdbe17	0.092647724
24	0x3d2a7a51	0.041620556
25	0x3de09486	0.109658286
26	0x3d847765	0.06468085
27	0x3d15a66f	0.036535677
28	0x3dc6c275	0.097050585
29	0xbe1c49e8	-0.15262568
30	0xbd65a6c0	-0.05606723
31	0xbd1ac28b	-0.037783187
32	0x3def11be	0.11673306
33	0x3d392a90	0.045206606
34	0x3dbe9719	0.09306163
35	0xbd4e43be	-0.050357573
36	0x3d19a769	0.03751317
37	0xbd9d736e	-0.07688032
38	0x3e0647e1	0.13113357
39	0xbdd76ede	-0.10519193
40	0x3e0806ae	0.13283798
41	0xbd21dc12	-0.039516516
42	0x3d06ffba	0.032958724
43	0x3db76a4d	0.08955822
44	0xbdc091b2	-0.09402789
45	0x3db0be59	0.08630056
46	0x3d22c07f	0.03973436
47	0x3d387c22	0.045040257
48	0x3d9feb7f	0.07808589
49	0x3d4ec885	0.0504842
50	0xbd35a96e	-0.044351034
51	0x3ddd7dca	0.10815008
52	0x3d0f662b	0.035009544
53	0x3dd3407f	0.10315036
54	0x3da2cd2a	0.07949288
55	0x3cc8abef	0.024496047
56	0xbcb2b1d5	-0.021813313
57	0x3d658f07	0.056044605
58	0xbde1caaf	-0.11024987
59	0x3c15d576	0.009145131
60	0x3d03b49a	0.032154657
61	0x3b46a36e	0.0030309814
62	0xbd50e194	-0.050996378
63	0x3e04aa6c	0.12955636
64	0x3dafbe8f	0.08581268
65	0xbdf9bbb4	-0.12194005
66	0x3e06c853	0.13162355
67	0x3de6cceb	0.11269554
68	0x3ccca252	0.024979744
69	0xbdc44905	-0.0958424
70	0x3d9df221	0.07712198
71	0xbded93b8	-0.11600441
72	0xbe1359b7	-0.14389692
73	0xbdbe2c69	-0.09285814
74	0x3df6d168	0.1205166
75	0xbde7132c	-0.112829536
76	0x3deec1e9	0.11658079
77	0x3e072994	0.13199455
78	0x3e0f3a99	0.13987197
79	0xbd5ec975	-0.054391343
80	0xbc99fbb1	-0.018796774
81	0xbe17a6b8	-0.14809692
82	0x3bb9bf08	0.0056685247
83	0x3e0f45c8	0.13991463
84	0xbdc508c8	-0.096208155
85	0x3db67e72	0.08910836
86	0xbbb82b48	-0.005620394
87	0x3d9a972a	0.075483635
88	0xbd76bf51	-0.060241047
89	0xbe0b3123	-0.13592963
90	0xbdb7d2ff	-0.08975791
91	0x3dbb9438	0.0915913
92	0x3dc65b25	0.09685353
93	0x3d70a871	0.05875439
94	0x3c599c21	0.013281853
95	0xbdcc0386	-0.099616095
96	0x3de06226	0.1095622
97	0x3d7f255a	0.06229148
98	0x3e4cd3a4	0.2000261
99	0xbccd4b49	-0.025060313
100	0x3dc5ce7e	0.09658526
101	0x3e19ddf4	0.15026075
102	0xbde668d6	-0.112504646
103	0xbd16bcd4	-0.036801174
104	0x3cef4122	0.029205862
105	0x3cc62575	0.024187783
106	0x3dd2d49d	0.10294459
107	0xbe10b640	-0.14132023
108	0xbc68a99c	-0.014200594
109	0xbd93dbad	-0.07219634
110	0x3d8b2db6	0.06795828
111	0xbe07c8bf	-0.13260172
112	0xbde43250	-0.11142409
113	0xbdfeae00	-0.124355316
114	0x3d59581f	0.053062554
115	0x3d179318	0.037005514
116	0xbcdc1359	-0.026864694
117	0x3e085e6e	0.13317272
118	0xbb4372ad	-0.002982299
119	0x3de04533	0.10950699
120	0xbda25562	-0.07926442
121	0xbdcef3e2	-0.10105111
122	0xbccd8255	-0.025086561
123	0x3d1a2495	0.037632544
124	0x3dc2b40c	0.095069975
125	0xbbe8f71f	-0.0071095373
126	0x3ddf99c3	0.109179996
127	0x3d17cfcc	0.037063405
128	0xbd086d0a	-0.033307113
129	0xba019acf	-0.0004944028
130	0xbd7710f0	-0.060318887
131	0xbdf546a1	-0.11976362
132	0xbdc642fc	-0.09680745
133	0xbdb1d80c	-0.08683786
134	0xbdb72c04	-0.08943942
135	0x3db2dde1	0.08733726
136	0x3d208035	0.039184768
137	0xbd5c217e	-0.05374288
138	0xbd3d0c0a	-0.04615406
139	0x3d0e9fe5	0.034820456
140	0x3e0965db	0.13417761
141	0x3dd3ff1c	0.103513926
142	0xbe01c4a0	-0.12672663
143	0xbe141d96	-0.14464411
144	0x3bb0ae34	0.0053918604
145	0x3dbf3a69	0.09337313
146	0xbe008541	-0.12550832
147	0xbe0079b2	-0.12546423
148	0x3d5bcb6b	0.05366079
149	0xbd8ff5f4	-0.07029334
150	0x3e190567	0.14943467
151	0xbd790edb	-0.060805183
152	0xb9ee0175	-0.00045395983
153	0x3d24ee07	0.040266063
154	0xbdef23fe	-0.11676787
155	0xbd7dec64	-0.061993018
156	0xbdd399ef	-0.10332095
157	0x3de7ab9a	0.11312027
158	0x3e0336ee	0.12813923
159	0xbe177620	-0.14791155
160	0x3c1dca8f	0.009630813
161	0xbe20aa9c	-0.15690082
162	0x3d9c77fa	0.07640071
163	0x3de3b841	0.11119128
164	0xbdf7dc4c	-0.12102565
165	0xbe0b5a5e	-0.13608691
166	0xbcdbcd73	-0.026831364
167	0x3de0545b	0.109535895
168	0xbdb26290	-0.087102056
169	0xbcb42319	-0.021989392
170	0xbc19e1fb	-0.009392257
171	0x3da7d045	0.08194021
172	0xbd445a9b	-0.04793797
173	0x3d573005	0.05253603
174	0x3db92fc3	0.09042313
175	0x3da17ecc	0.07885513
176	0x3d513949	0.051080022
177	0x3d9230ae	0.07138191
178	0xbde8348a	-0.11338146
179	0x3df17bc8	0.117911875
180	0x3c862484	0.016374834
181	0xbdec4ba1	-0.115378626
182	0xbe1356e6	-0.14388618
183	0x3d4af0b5	0.049545962
184	0x3ac438d3	0.0014970548
185	0xbd163e18	-0.03668031
186	0x3d204d26	0.039136074
187	0x3d95adf0	0.073085666
188	0xbd8fb9cc	-0.0701786
189	0x3dd493c1	0.10379744
190	0xbe0ad78e	-0.1355879
191	0x3d5e41a4	0.05426182
192	0xbddbbca3	-0.10729339
193	0xbdc86a39	-0.09785885
194	0xbd23a210	-0.039949477
195	0xbe10e20c	-0.1414873
196	0x3daa0f99	0.08303756
197	0x3dc29504	0.09501079
198	0xbe05ad46	-0.1305438
199	0x3c92cbfd	0.017919535
200	0x3dcdd669	0.10050661
201	0x3e1040de	0.14087245
202	0xbca5b5a4	-0.020228215
203	0xbac0145b	-0.0014654504
204	0xbcf0b637	-0.029383762
205	0x3e110771	0.14162995
206	0x3dfaf89c	0.1225445
207	0x3cd81e8f	0.026381759
208	0xbcd33a17	-0.025784535
209	0x3d9a766c	0.075421184
210	0x3dcd1894	0.100144535
211	0xbe060672	-0.13088396
212	0x3ca8047a	0.020509947
213	0xbdbc7d7e	-0.09203623
214	0xbd9f1516	-0.07767694
215	0x3d70630f	0.05868822
216	0x3de01c96	0.10942952
217	0x3d43742d	0.047718216
218	0x3dd1b1e6	0.102390096
219	0xb9f08372	-0.00045874302
220	0x3e0da402	0.13832095
221	0x3d4f9af2	0.050684877
222	0xbdb06eb8	-0.08614868
223	0xbde117a0	-0.10990834
224	0x3d1790c8	0.03700331
225	0xbe0a151f	-0.1348462
226	0x3d175018	0.036941618
227	0x3d3b90a5	0.04579224
228	0xbbaecca9	-0.005334456
229	0x3b61cef5	0.0034455631
230	0xbdda4d83	-0.106593154
231	0xbd2d1b2c	-0.04226224
232	0xbce096e5	-0.027415702
233	0xbd99f3ba	-0.0751719
234	0x3d9ff4cf	0.078103654
235	0x3dacd090	0.08438218
236	0xbd30ae3e	-0.04313492
237	0x3e08d705	0.13363273
238	0x3dbc2948	0.09187561
239	0xbcc561f9	-0.024094569
240	0xbc87a825	-0.01655967
241	0x3de4e3d8	0.1117627
242	0xbcf2324d	-0.029565
243	0xbe118302	-0.14210132
244	0xbd299d79	-0.041409943
245	0x3cb8e591	0.022570403
246	0x3e1e4dda	0.15459386
247	0xbdf41628	-0.119182885
248	0xbe048859	-0.12942638
249	0xbbd01f62	-0.0063513974
250	0xbd7bd205	-0.061479587
251	0xbd97457a	-0.073862985
252	0xbe2b8d78	-0.16753185
253	0x3d648acb	0.055796426
254	0xbdac7b0e	-0.08421908
255	0x3cb858eb	0.022503337

1.4.bias f4 [48]
0	0x3dd00eb3	0.10159054
1	0xbe2679a1	-0.16257335
2	0xbd6c44ca	-0.05768279
3	0x3cdbc1fc	0.026825897
4	0xbd0f148b	-0.0349317
5	0xbddf5192	-0.1090423
6	0x3c49516e	0.012287481
7	0x3df79548	0.1208902
8	0x3dc58d8d	0.09646139
9	0x38fafad4	0.00011967649
10	0x3d22d2ed	0.039751936
11	0x3d01a33f	0.031649824
12	0x3d82c673	0.063855074
13	0xbbb633f6	-0.0055603934
14	0x3d4555be	0.048177473
15	0xbafe2156	-0.0019388597
16	0x3ca5b76b	0.020229062
17	0xbcd2416b	-0.02566596
18	0xbe0f45eb	-0.13991515
19	0x3da282f3	0.07935133
20	0x3e2b6e5d	0.16741319
21	0xbe05a141	-0.13049795
22	0xbd1244b4	-0.03571005
23	0x3e02a614	0.12758666
24	0x3d07fabf	0.033198114
25	0xbdcd0599	-0.10010833
26	0xbdce8acc	-0.10085067
27	0x3e0b3df7	0.13597856
28	0x3ba45540	0.0050150454
29	0xbd7a7ad3	-0.06115229
30	0xbda236d9	-0.079206176
31	0xbdac0eb4	-0.08401242
32	0x3db7724b	0.089573465
33	0x3d58cb51	0.052928273
34	0x3ac9cd5e	0.0015396287
35	0x3df0b62f	0.11753499
36	0xbcb58f3b	-0.022163024
37	0x3dde03bb	0.10840555
38	0x3c6587dc	0.014009442
39	0x3e2af314	0.1669429
40	0xbd7880fa	-0.060669877
41	0xbd94a8d2	-0.072587624
42	0xbdd66150	-0.1046778
43	0x3d8ac60a	0.06776054
44	0x3d73d021	0.05952466
45	0x3dc8351e	0.09775756
46	0xbe1edb90	-0.15513444
47	0xbd4d1d7f	-0.050076958

1.6.weight f4 [36, 48]
0	0x3cdbb750	0.026820809
1	0x3d4e734e	0.050402932
2	0x3c8724b1	0.016496988
3	0x3db9bbf1	0.0906905
4	0x3b92e2e7	0.0044826153
5	0x3d40e85e	0.047096603
6	0xbe018463	-0.12648158
7	0xbdf0d9d7	-0.117603
8	0x3ddb789f	0.10716366
9	0x3d857a3d	0.06517456
10	0x3d3917de	0.045188777
11	0x3e1115d7	0.14168487
12	0xbd9da7fd	-0.07698057
13	0x3d2d48fa	0.042305924
14	0xbdefb5fc	-0.11704633
15	0xbd38640b	-0.045017283
16	0xbcdff166	-0.027336787
17	0xbdbbf09c	-0.09176752
18	0x3d69e850	0.057106316
19	0x3d6366df	0.055518027
20	0x3db86a23	0.09004619
21	0x3dc70857	0.097183876
22	0xbd16e89e	-0.036842935
23	0x3cfae259	0.03062551
24	0xbd15d4a9	-0.03657976
25	0x3cf064f1	0.029345008
26	0xbb0f6d9b	-0.0021885398
27	0x3dce33b7	0.100684576
28	0x3a6fd268	0.00091484794
29	0x3de979a2	0.11400153
30	0x3dd2209e	0.102601275
31	0xbde6478e	-0.11244117
32	0x3bd8a284	0.0066111702
33	0xbdb61f0f	-0.08892643
34	0x3de3a290	0.11114991
35	0xbd452951	-0.048135106
36	0xbd7513dd	-0.059833396
37	0x3c5afedd	0.013366428
38	0x3d14863b	0.036260825
39	0xbd4bb52c	-0.049733326
40	0x3e0991f7	0.13434587
41	0x3b9b6a20	0.0047428757
42	0xbe164921	-0.14676334
43	0xbbf6f2b3	-0.007536256
44	0xbc5c308a	-0.013439307
45	0xbe114ca3	-0.14189391
46	0xbe13036b	-0.14356773
47	0xbdbac98c	-0.09120473
48	0x3d8d42e9	0.06897528
49	0xbdcaaff2	-0.0989684
50	0xbdc0096e	-0.093767986
51	0xbd7066da	-0.058691837
52	0x3d3d1697	0.04616412
53	0x3e0d62fa	0.13807288
54	0x3dd5683d	0.104202725
55	0xbafc720a	-0.001926006
56	0x3d7e1200	0.062028885
57	0x3e010b3e	0.12601945
58	0x3d5f104d	0.054458905
59	0xbc260a4a	-0.010134289
60	0xbe0725d6	-0.13198027
61	0xbddccaef	-0.10780894
62	0x3e22ee8a	0.15911308
63	0x3d8fa816	0.07014482
64	0xbccef817	-0.025264783
65	0xbcd70781	-0.026248695
66	0xbdf426bb	-0.1192145
67	0xbe048ea7	-0.12945043
68	0xbdd8bd2f	-0.10582959
69	0xbdd49cd3	-0.10381474
70	0x3db0b45b	0.0862815
71	0x3e118f7f	0.14214896
72	0xbdad6766	-0.08466987
73	0x3cf9a13d	0.030472392
74	0x3d3fc818	0.046821684
75	0x3d4b8189	0.04968408
76	0xbd2529ac	-0.040322945
77	0xbdf8ee9a	-0.12154885
78	0xbcfec4ae	-0.031099644
79	0xbcf19aa7	-0.02949269
80	0x3d5d424f	0.054018315
81	0xbd8dbaa3	-0.06920364
82	0x3dcbe637	0.09956019
83	0xbe090141	-0.13379385
84	0xbd5b9931	-0.05361289
85	0xbc87bde2	-0.016570035
86	0xbc8c8f72	-0.017158244
87	0xbb3d7243	-0.0028907217
88	0x3dbffa19	0.09373874
89	0xbd94e5f5	-0.07270423
90	0xbceec914	-0.029148616
91	0xbd408a6d	-0.047007013
92	0x3dadeb72	0.08492173
93	0x3e127b96	0.14304957
94	0xbda0c922	-0.07850863
95	0xbdccdf91	-0.100035794
96	0x3e07090f	0.1318705
97	0xbd526008	-0.051361114
98	0xbdd6ceab	-0.104886375
99	0xbd138c17	-0.036022272
100	0x3dbef7cb	0.093246065
101	0x3d09e0fc	0.033661827
102	0xbdbc8cd4	-0.09206548
103	0x3de56cfd	0.112024285
104	0x3e161704	0.14657217
105	0x3de38f57	0.11111324
106	0xbe0a75f3	-0.13521557
107	0x3c1272f1	0.008938537
108	0x3d2d27df	0.042274352
109	0x3e245ca4	0.16050965
110	0xbc7fb4ed	-0.015607101
111	0xbd60870f	-0.054816302
112	0xbdfaa93f	-0.122393124
113	0x3d02cdab	0.03193442
114	0xbd2bcfe1	-0.041946296
115	0x3e02179d	0.1270432
116	0x3e019a92	0.1265662
117	0xbc478a91	-0.012179033
118	0xbde13e91	-0.10998262
119	0xbdfaba3b	-0.12242552
120	0xbdcda76a	-0.10041697
121	0xbd37989e	-0.04482328
122	0xbdc5a06b	-0.09649738
123	0x3d94499e	0.07240604
124	0xbd11358b	-0.035451453
125	0xbda6e5bb	-0.08149286
126	0x3da51230	0.080601096
127	0x3b93563e	0.004496365
128	0x3d881ad2	0.066457406
129	0x3e29cc87	0.16581927
130	0xbdee43ae	-0.116340026
131	0x3cf6b5f8	0.030116066
132	0x3dc11ca8	0.09429294
133	0x3dd14551	0.10218299
134	0xbe017edd	-0.12646051
135	0x3d284a09	0.04108623
136	0xbde3bcd3	-0.1112
137	0xbdc84e4d	-0.0978056
138	0xbcc6a30c	-0.024247669
139	0xbd02361f	-0.031789895
140	0xbdb9ba10	-0.09068692
141	0x3def6d8d	0.11690817
142	0xbe350dd8	-0.17681062
143	0x3c9b5ba1	0.01896459
144	0x3dff45d8	0.124644935
145	0xbcd1b4f8	-0.025598988
146	0x3e1abb7d	0.15110584
147	0x3d93352f	0.07187878
148	0x3c02a6a1	0.007974298
149	0x3dd3c30d	0.10339937
150	0xbd266a60	-0.04062879
151	0x3e0da434	0.1383217
152	0x3d5d7ce6	0.05407419
153	0x3c464910	0.01210238
154	0x3de532f2	0.11191358
155	0xbd9c1eac	-0.07623038
156	0x3e3404a1	0.17579891
157	0xbda8fcd2	-0.08251347
158	0x3d288a15	0.04114731
159	0xbe298d3c	-0.16557783
160	0xbc2b57df	-0.010457962
161	0x3dbce1d6	0.09222762
162	0xbdc14271	-0.09436501
163	0xbdf61abc	-0.12016818
164	0x3dc21d48	0.09478241
165	0xbdc2a478	-0.09504026
166	0xbddc6e79	-0.107632585
167	0x3bb400c2	0.0054932544
168	0x3d28ed74	0.041242078
169	0xbbc56c69	-0.0060248864
170	0xbd30b146	-0.04313781
171	0x3d2a3d5a	0.041562416
172	0xbd99d66a	-0.07511599
173	0x3c2bbd2d	0.010482115
174	0xba6d402f	-0.00090503966
175	0x3dba8bbf	0.09108686
176	0x3d70cad4	0.058787182
177	0xbdea0802	-0.114273086
178	0x3d38df82	0.04513503
179	0x3d81aaca	0.063314036
180	0x3dccd04e	0.100006685
181	0xbe2dee90	-0.16985536
182	0x3def93a6	0.116980836
183	0x3dfa3aa0	0.12218213
184	0xbdf41e9f	-0.11919903
185	0xbd91bf66	-0.071165845
186	0x3c523a0b	0.012831221
187	0xbdb1e7fc	-0.08686826
188	0x3d562079	0.052277062
189	0x3e272509	0.16322722
190	0xbdf04598	-0.11732024
191	0x3dca8e34	0.09890404
192	0x3d651d59	0.05593619
193	0x3de73e6c	0.11291203
194	0x3db1d0b8	0.08682388
195	0xbdcd4bfe	-0.1002426
196	0x3dbb59a2	0.091479555
197	0xbe1580f9	-0.1459998
198	0x3e052009	0.13000502
199	0x3d56e2b3	0.05246229
200	0xbe23b215	-0.15985902
201	0xbdfac807	-0.122451834
202	0xbd852863	-0.06501844
203	0x3dbf2863	0.09333875
204	0xbddcb85d	-0.10777352
205	0x3cc425c9	0.023943799
206	0x3dc1f861	0.09471203
207	0xbd6de326	-0.058077954
208	0x3c8399e5	0.016064594
209	0xbde636fa	-0.11240955
210	0xbde7cb01	-0.11318017
211	0x3dc8be29	0.09801895
212	0x3da3e4d7	0.08002632
213	0xbdedcc86	-0.116112754
214	0x3dc7492c	0.09730753
215	0x3dfc282b	0.12312349
216	0xbd8ec5d2	-0.06971325
217	0xbd4658e7	-0.048424628
218	0xbccc5c83	-0.024946457
219	0xbdaba3cd	-0.08380852
220	0x3d251990	0.04030758
221	0xbda50864	-0.08058241
222	0x3d2513d0	0.040302098
223	0xbdc11e42	-0.09429599
224	0x3d713781	0.058890823
225	0x3d6cd21f	0.057817575
226	0x3dd9eeca	0.106412485
227	0x3d950798	0.07276839
228	0x3de8fc12	0.113762036
229	0xbdec1380	-0.11527157
230	0x3dbf51a2	0.09341742
231	0xbd895f5b	-0.06707641
232	0x3e065fe6	0.1312252
233	0xbe09d92a	-0.13461748
234	0x3d6f510d	0.058426905
235	0xbcddc060	-0.02706927
236	0x3de236f7	0.1104564
237	0xbd0e5ee0	-0.03475845
238	0xbbd1063e	-0.006378918
239	0xbccd1a33	-0.025036907
240	0xbd06dec5	-0.032927293
241	0x3d754334	0.059878543
242	0xbd077591	-0.033071104
243	0xba87517d	-0.0010323968
244	0x3d29f456	0.041492783
245	0x3d011a19	0.03151903
246	0xbb9e47eb	-0.0048303506
247	0xbdeea412	-0.11652388
248	0x3a607785	0.00085627317
249	0xbd31407a	-0.04327438
250	0x3e0f884e	0.1401684
251	0x3dc00880	0.09376621
252	0x3cdaa8bd	0.026691789
253	0x3e10fa29	0.14157929
254	0xbce7714d	-0.028252268
255	0xbd31636d	-0.04330771

1.6.bias f4 [36]
0	0x3d97d469	0.07413561
1	0x3e13a7c7	0.1441947
2	0x3de7c02b	0.1131595
3	0x3decd722	0.11564471
4	0x3e12593f	0.14291857
5	0xbde94770	-0.11390579
6	0xbe26301c	-0.1622929
7	0xbe1b78eb	-0.15182845
8	0x3db73a17	0.08946627
9	0x3d80ba33	0.06285515
10	0x3da286a8	0.0793584
11	0x3ca8105a	0.02051561
12	0x3d09c7d8	0.03363785
13	0xbcc086bc	-0.023501746
14	0xbe13643b	-0.14393704
15	0xbd035a9e	-0.03206884
16	0x3defb00a	0.11703499
17	0x3df3b4b4	0.11899701
18	0x3d3cbfcd	0.046081353
19	0xbce49a64	-0.02790565
20	0xbe1e0170	-0.15430236
21	0x3d3f2127	0.046662476
22	0x3d950cba	0.07277818
23	0x3dcef8c0	0.10106039
24	0xbda7ce7f	-0.08193683
25	0x3d692411	0.05691916
26	0x3e042d26	0.12907848
27	0xbd15aae0	-0.036539912
28	0xbd7f19be	-0.06228041
29	0xbe193321	-0.1496091
30	0x3dcf33fa	0.101173356
31	0x3d0c1e91	0.034208838
32	0x3d57a470	0.052647054
33	0xbe2beca1	-0.16789486
34	0xbd8e0adf	-0.06935667
35	0x3d1826db	0.03714643

1.8.weight f4 [24, 36]
0	0x3d69f632	0.057119556
1	0x3db03ad6	0.08604972
2	0xbde41f3d	-0.11138771
3	0x3d304c17	0.043041315
4	0x3d1898ff	0.037255283
5	0x3df3d9ed	0.119068004
6	0x3e4eea5c	0.20206589
7	0xbd1d19a8	-0.038354546
8	0x3d35aab8	0.044352263
9	0xbe0d6420	-0.13807726
10	0xbe04bd88	-0.12962925
11	0x3d826fba	0.063689664
12	0x3e204f8e	0.15655348
13	0x3bfb5de1	0.0076711033
14	0x3d7aae42	0.06120134
15	0x3d034cc5	0.032055635
16	0x3de604f6	0.11231415
17	0xbded6845	-0.115921535
18	0x3d759186	0.059953235
19	0x3df5edb4	0.12008229
20	0xbd7552c4	-0.059893385
21	0xbe1ab87b	-0.15109436
22	0xbdd7c1cf	-0.10535013
23	0x3db4b02c	0.088226646
24	0xbe00ef37	-0.12591253
25	0xbb3e60b1	-0.0029049332
26	0x3b8f885f	0.0043802704
27	0x3d8e59bc	0.06950709
28	0xbd26f40b	-0.04076008
29	0xbd89c019	-0.06726093
30	0x3e14499c	0.14481205
31	0x3dafa5dc	0.08576557
32	0x3d5d8117	0.054078188
33	0x3cb09c01	0.021558763
34	0xbddb4d6a	-0.10708125
35	0xbe1a6fd4	-0.15081722
36	0x3e075c00	0.13218689
37	0xbdf5d272	-0.1200303
38	0x3e4ab9d8	0.19797456
39	0x3d767209	0.060167346
40	0x3dcf10b7	0.1011061
41	0x3d7d62d4	0.061861828
42	0xbe090ac0	-0.13383007
43	0x3b927b49	0.004470263
44	0xbe040ac2	-0.12894729
45	0xbdcf2786	-0.1011496
46	0x3e24aa05	0.16080482
47	0x3be9e354	0.0071376953
48	0xbe0a3a1e	-0.13498732
49	0x3e110fa5	0.14166124
50	0xbde59427	-0.112098984
51	0xbcb1a457	-0.021684809
52	0x3de676d3	0.11253133
53	0x3dd70550	0.1049906
54	0xbd239eb5	-0.039946277
55	0x3bf5a426	0.0074963747
56	0xbcc4cc7b	-0.024023285
57	0xbd6cf195	-0.057847578
58	0x3cfca8c4	0.030842192
59	0x3d96cbd6	0.07363097
60	0x3dd175a0	0.10227513
61	0x3df4ed8e	0.119593725
62	0x3d811478	0.06302732
63	0x3dc6d659	0.09708852
64	0xbd056f8f	-0.032577094
65	0xbd14d1c7	-0.03633287
66	0xbd8fd937	-0.07023852
67	0xbcd97b06	-0.02654792
68	0x3c8bcfdc	0.017066889
69	0x3d99efd5	0.075164475
70	0x3e1a3150	0.15057874
71	0xbdaf4e62	-0.08559872
72	0xbb1fc55a	-0.0024379105
73	0xbdf24db5	-0.11831228
74	0xbd0df863	-0.03466071
75	0x3e5be0b8	0.21472442
76	0xbd4cc1d4	-0.049989536
77	0xbdf1a7e0	-0.11799598
78	0xbe0c767d	-0.13717075
79	0x3dde4f16	0.10854928
80	0xbe2309ad	-0.1592166
81	0xbe01bc13	-0.12669401
82	0x3d820c92	0.06350054
83	0x3dda1e87	0.10650354
84	0x3de2011a	0.11035366
85	0xbcade6dd	-0.021228248
86	0x3d67a992	0.0565582
87	0xbd956abd	-0.07295749
88	0xbdeb36ac	-0.11485037
89	0x3bf89047	0.0075855586
90	0x3ca24b5b	0.019811323
91	0xbce77c48	-0.028257504
92	0xbd861aaa	-0.065480545
93	0x3e2c5dc2	0.16832641
94	0x3dda7e25	0.106685914
95	0xbdf8af63	-0.12142827
96	0x3d610283	0.054934036
97	0xbd022757	-0.0317758
98	0xbdc447f1	-0.09584034
99	0xbdcc38ba	-0.09971757
100	0xbe055faf	-0.13024782
101	0xbdc7851f	-0.09742188
102	0x3df393d9	0.11893434
103	0xbe14220c	-0.14466113
104	0x3dc4ce22	0.09609629
105	0xbe0c3f3d	-0.13695998
106	0xbdf5e0f5	-0.12005798
107	0x3dcd69fe	0.10029982
108	0x3e105380	0.14094353
109	0xbc7a696c	-0.015283924
110	0xbd099334	-0.03358765
111	0xbcec89e3	-0.028874343
112	0x3d8a0c50	0.0674063
113	0xbbe9a395	-0.007130096
114	0xbe27f472	-0.16401842
115	0xbc80a018	-0.015701339
116	0x3dd90a6f	0.10597693
117	0x3df222b1	0.11823023
118	0xbe1be1e4	-0.15222889
119	0xbd72e558	-0.05930075
120	0xbdf4458b	-0.11927327
121	0x3d36bc95	0.04461344
122	0x3d995a70	0.07487953
123	0xbd5b67f4	-0.053565934
124	0x3c98049d	0.018556887
125	0xbdb00ba1	-0.08595968
126	0xbdbcfbf7	-0.09227746
127	0xbe1050b5	-0.14093287
128	0x3db85a43	0.09001591
129	0x3de02257	0.1094405
130	0x3d3b357e	0.04570531
131	0xbdb98cf3	-0.09060087
132	0xbd437391	-0.047717635
133	0xbe0fd37a	-0.14045516
134	0x3e1c99b6	0.15293011
135	0xbe21e6bc	-0.15810674
136	0x3d2f3fcc	0.04278545
137	0x3bd87d52	0.006606736
138	0xbd77cce8	-0.06049815
139	0xbba58563	-0.0050513013
140	0x3dafb292	0.085789815
141	0xbc5e839e	-0.013581185
142	0x3c9edf56	0.019393604
143	0x3cd44db0	0.02591595
144	0x3dbe6be8	0.09297925
145	0xbdac680d	-0.084182836
146	0xbdc2d8f9	-0.095140405
147	0xbe0e71e5	-0.13910635
148	0xbd99218b	-0.07477101
149	0xbdaec2e4	-0.08533266
150	0x3d27999f	0.04091799
151	0x3ddeb5b5	0.108745016
152	0x3e005289	0.12531485
153	0x3de1d201	0.11026383
154	0x3ab689f2	0.0013926609
155	0xbddd0efe	-0.10793875
156	0x3c7aafbe	0.015300689
157	0x3dd2e02c	0.10296664
158	0x3e107737	0.14107977
159	0x3e23cf0c	0.15996951
160	0xbdf77bbf	-0.120841496
161	0x3e12da34	0.1434105
162	0x3c52588f	0.012838497
163	0x3e137c9d	0.14403005
164	0xbe1c9913	-0.15292768
165	0xbd14b86e	-0.0363087
166	0x3df8b660	0.1214416
167	0x3e17f2b7	0.14838682
168	0x3d594fc3	0.053054582
169	0xbd9a2271	-0.075261004
170	0x3e33fbc4	0.1757651
171	0xbe0df8ec	-0.13864487
172	0xbd777fb1	-0.06042451
173	0x3dd8c014	0.10583511
174	0xbc34190a	-0.010992298
175	0x3e2258de	0.15854213
176	0x3d848bd0	0.064719796
177	0xbe28f219	-0.16498603
178	0x3b91c2c6	0.0044482676
179	0x3dbc806f	0.09204184
180	0x3ddc322d	0.10751758
181	0xbbd79fca	-0.0065803276
182	0x3e2bf635	0.1679314
183	0xbe2458b3	-0.16049461
184	0x3dbab127	0.091158204
185	0xbe0c3402	-0.13691714
186	0x3dfc5891	0.1232158
187	0xbd997dba	-0.074946836
188	0x3d45960b	0.048238795
189	0xbdd83c17	-0.10558336
190	0x3ded78a2	0.115952745
191	0x3c92bb65	0.017911622
192	0xbda904e2	-0.082528844
193	0x3d75d291	0.060015265
194	0xbcc91c25	-0.024549553
195	0xbe0d7b07	-0.13816462
196	0x3ce368e5	0.027759979
197	0xbe0d629c	-0.13807148
198	0xbe10a34c	-0.14124793
199	0xbe399467	-0.18123017
200	0xbce285c1	-0.02765167
201	0x3cbbdb1b	0.022931626
202	0x3d6dc671	0.058050577
203	0xbda88786	-0.08228974
204	0xbe2e474e	-0.17019388
205	0xbd8d6766	-0.06904487
206	0x3bed002d	0.007232687
207	0xbe25a877	-0.16177545
208	0xbdbba2a0	-0.09161878
209	0x3e1d64f9	0.1537055
210	0x3e3098d6	0.17245802
211	0x3e254d2e	0.16142723
212	0x3d1a3337	0.0376465
213	0x3e072cb7	0.13200651
214	0xbe033f1f	-0.12817048
215	0xbcbc6ee2	-0.023002092
216	0x3dba840d	0.09107218
217	0xbdf44783	-0.11927702
218	0xbdf783af	-0.120856635
219	0xbd38c5dd	-0.045110572
220	0x3d40fbad	0.047115017
221	0xbd0026dd	-0.031287063
222	0x3dcc1100	0.0996418
223	0x3dc3d124	0.09561375
224	0xbdd80e39	-0.10549588
225	0x3e02efbd	0.12786765
226	0x3cc935cf	0.02456179
227	0xbd1d1138	-0.0383465
228	0x3e23d15e	0.15997836
229	0x3df7ed2d	0.121057846
230	0x3e2add89	0.16686071
231	0x3b54f3a2	0.003249385
232	0x3dd6f89b	0.104966365
233	0x3c52ba85	0.0128618525
234	0xbe2f23ad	-0.17103453
235	0xbdf5b9d2	-0.11998333
236	0x3e12b02a	0.14325014
237	0xbe243086	-0.16034135
238	0x3ccc4c37	0.024938686
239	0xbdf4a753	-0.11945977
240	0xbe19166c	-0.1494996
241	0x3d9814d3	0.07425847
242	0x3e19f843	0.1503611
243	0x3d852dc6	0.06502871
244	0x3ace3f62	0.0015735442
245	0x3c0f3425	0.00874046
246	0xbd085b59	-0.03329024
247	0x3e33ab13	0.17545728
248	0x3ce29ebd	0.027663583
249	0x3d9c08d2	0.0761887
250	0xbd8b3893	-0.067979
251	0x3bb2cac0	0.0054562986
252	0xbd18e543	-0.037328016
253	0xbc11df2a	-0.008903304
254	0xbcc45acf	-0.023969082
255	0x3d9e6d6d	0.07735715

1.8.bias f4 [24]
0	0x3c51ed4f	0.012812926
1	0x3dddc880	0.10829258
2	0x3e1a6912	0.15079144
3	0x3d587c45	0.052852888
4	0xbd1df726	-0.038565777
5	0x3e2f3942	0.17111686
6	0x3dc2c0da	0.0950944
7	0xbd0d4da5	-0.034497876
8	0x3e080706	0.13283929
9	0x3d2adf40	0.041716814
10	0x3d8c5ca9	0.06853611
11	0xbcbcfb0c	-0.023068927
12	0x3d8e28a2	0.06941344
13	0x3e4a983d	0.19784637
14	0xbddc52b5	-0.107579626
15	0x3c8535c4	0.016260989
16	0xbe422e8f	-0.18963073
17	0xbe101be8	-0.14073145
18	0xbda18b8e	-0.07887946
19	0xbd4c4acc	-0.04987602
20	0xbd59eb25	-0.053202767
21	0x3d99c555	0.07508341
22	0xbe2a4552	-0.16628006
23	0xbe1e32fb	-0.15449135

1.10.weight f4 [12, 24]
0	0x3c6830d3	0.014171797
1	0x3e581f9e	0.21105811
2	0xbe1c7c7f	-0.15281866
3	0x3e4dad22	0.20085576
4	0x3d3e327f	0.046434876
5	0x3e584f3e	0.21123978
6	0x3e14ac4b	0.1451885
7	0xbe2cbd86	-0.16869172
8	0xbdc508a2	-0.09620787
9	0xbe566c0c	-0.20939654
10	0x3e1f5184	0.1555844
11	0xbbcbbde7	-0.0062177065
12	0xbd38cf92	-0.04511983
13	0x3e8c63ad	0.27419797
14	0x3de44c60	0.1114738
15	0xbe1ca43f	-0.1529703
16	0xbd85e61a	-0.06538029
17	0x3e032155	0.12805684
18	0x3df11403	0.11771395
19	0x3e0a7f14	0.13525039
20	0xbdd4fd6b	-0.10399898
21	0xbc8ae1b6	-0.01695333
22	0xbdb14f98	-0.086577594
23	0xbe860ead	-0.26183072
24	0xbd83dbcb	-0.064384066
25	0xbdc79301	-0.09744836
26	0xbe066284	-0.13123518
27	0x3e467347	0.19379912
28	0xbd7d513c	-0.06184505
29	0x3c8cb49a	0.017175961
30	0x3bae84ee	0.005325905
31	0x3db252cd	0.08707199
32	0x3e413d19	0.18870963
33	0x3e5695e0	0.2095561
34	0x3e58c910	0.2117045
35	0x3d53c36e	0.05170005
36	0xbd2e274f	-0.042517956
37	0xbdb4ccd5	-0.08828131
38	0xbddae38d	-0.10687933
39	0x3dd2a2b4	0.102849394
40	0x3e20a256	0.15686926
41	0x3d07dd6b	0.033170145
42	0xbbc2e750	-0.0059479848
43	0x3a84d256	0.0010133486
44	0x3e846f84	0.2586633
45	0xbe85548b	-0.26041064
46	0x3e1d1f28	0.15343916
47	0x3e5a142b	0.21296756
48	0xbe10423f	-0.14087771
49	0x3d1b660f	0.037939128
50	0x3e4296e3	0.19002871
51	0x3ca5da18	0.020245597
52	0xbe7b3176	-0.24530587
53	0xbe7c8f9e	-0.2466416
54	0xbd8e0bbf	-0.06935834
55	0xbe28c0e9	-0.1647984
56	0x3df5f1f0	0.120090365
57	0x3ce96b2d	0.028493488
58	0x3d85f37d	0.06540582
59	0x3e3fb344	0.18720728
60	0x3ce8c35d	0.028413469
61	0xbe11050f	-0.14162086
62	0x3d6fe1d6	0.058564983
63	0x3cd86970	0.026417464
64	0xbdd7eb8a	-0.105429724
65	0x3c259ada	0.01010772
66	0xbda240a2	-0.07922484
67	0xbe097b28	-0.13425887
68	0xbda68cdf	-0.08132338
69	0x3d0ce231	0.0343954
70	0x3e5d6a0f	0.2162249
71	0xbdc50b63	-0.096213125
72	0xbe26eb86	-0.16300783
73	0x3da427db	0.08015414
74	0x3d34e8b4	0.044167235
75	0xbe3d3b45	-0.18479641
76	0x3de2d4e1	0.1107576
77	0xbc8a33fb	-0.01687049
78	0x3e07342c	0.13203496
79	0x3d950b81	0.07277585
80	0xbdc2667a	-0.09492202
81	0xbe32c15f	-0.17456578
82	0x3e5e5a63	0.21714167
83	0x3e323fa1	0.17407085
84	0x3cbd1632	0.023081873
85	0xbe2f6352	-0.17127731
86	0x3e02e230	0.12781596
87	0xbdfb5ca6	-0.12273531
88	0x3da2eca3	0.07955291
89	0xbe1085b4	-0.14113504
90	0xbe428c9e	-0.18998954
91	0x3dd0ccfa	0.10195346
92	0x3e1f3a01	0.1554947
93	0xbdadcaec	-0.0848597
94	0xbe34e71e	-0.17666289
95	0x3d0fe608	0.035131484
96	0x3df4a8f6	0.11946289
97	0xbde79e03	-0.11309435
98	0xbd955de3	-0.07293298
99	0xbd7bc9b5	-0.06147166
100	0xbd6ea21d	-0.058260072
101	0x3e4c5c4b	0.19957082
102	0x3e820e1d	0.25401393
103	0xbdf4095b	-0.11915847
104	0xbe5c4c79	-0.21513547
105	0xbe68444b	-0.22682302
106	0xbe5e218e	-0.21692488
107	0xbdaa722d	-0.083225586
108	0xbe5c3fbe	-0.2150869
109	0x3d787671	0.06065983
110	0xbd8bb507	-0.068216376
111	0xbdc463e4	-0.09589365
112	0x3dac82e7	0.08423405
113	0x3e80ce4b	0.2515739
114	0xbe62f993	-0.22165518
115	0xbd0d78af	-0.03453892
116	0xbeaae635	-0.3337876
117	0x3e26aa07	0.16275798
118	0x3ded2eb4	0.115811735
119	0xbde976f2	-0.1139964
120	0x3a9dd04a	0.0012040224
121	0x3e189244	0.14899546
122	0x3e1710e3	0.14752536
123	0x3d7bbe61	0.061460856
124	0xbe377a64	-0.17917782
125	0x3d6230d9	0.055222366
126	0xbdc40aa2	-0.095723405
127	0x3e0e5904	0.13901144
128	0xbd521ce7	-0.051297095
129	0xbe0dbad3	-0.13840799
130	0x3e398240	0.18116093
131	0xbe70695d	-0.23477693
132	0xbe5607a5	-0.20901354
133	0xbd6baf50	-0.057540238
134	0xbe19a897	-0.15005718
135	0xbdee6ede	-0.1164224
136	0x3d81f6cd	0.06345902
137	0x3dee0fa4	0.11624077
138	0xbe379eeb	-0.17931716
139	0xbe6e58bb	-0.23276035
140	0xbdc39530	-0.0954994
141	0xbe34eb91	-0.17667986
142	0xbe0aec6a	-0.13566747
143	0x3d8fb5d1	0.070171006
144	0xbd22ad38	-0.039715976
145	0x3b291309	0.00257987
146	0x3dc9c0c9	0.09851224
147	0x3bc77cb7	0.006087865
148	0xbd5134b1	-0.05107564
149	0xbe29a7a5	-0.16567858
150	0xbda60ad7	-0.08107536
151	0xbe30cae5	-0.17264898
152	0x3e6bbc84	0.23021132
153	0xbd9e5d06	-0.077325866
154	0x3e014133	0.12622528
155	0x3e663a94	0.22483283
156	0x3b8490ca	0.0040455805
157	0xbe056407	-0.13026439
158	0x3ddfb418	0.10923022
159	0xbe0e0075	-0.13867362
160	0xbe47d8c1	-0.19516279
161	0xbe71983d	-0.2359323
162	0x3e575e57	0.21032082
163	0xbd8aff82	-0.067870155
164	0xbddc7305	-0.10764126
165	0xbcfca481	-0.03084016
166	0x3e335ae2	0.17515138
167	0xbe0ccee1	-0.13750793
168	0xbe126c37	-0.14299093
169	0x3c825e19	0.01591401
170	0xbd1634e5	-0.036671538
171	0x3e05db63	0.1307197
172	0xbe0afee9	-0.13573803
173	0xbe79290e	-0.24332067
174	0x3d6de96e	0.058083944
175	0x3da1710f	0.07882892
176	0x3e7ac450	0.2448895
177	0xbe3b8547	-0.1831256
178	0x3e750abe	0.23929879
179	0xbdb2bb8e	-0.087271795
180	0x3dacf22e	0.084446296
181	0xbe0e5d86	-0.13902864
182	0x3c1ac635	0.00944667
183	0xbd8f0b8b	-0.069846235
184	0xbc52b53c	-0.012860592
185	0x3dc6bbf7	0.0970382
186	0xbc07e1ce	-0.008293582
187	0x3e4208e1	0.189487
188	0x3e165e0a	0.1468431
189	0xbe11e83b	-0.14248745
190	0x3e20a16e	0.1568658
191	0x3db2448c	0.087044805
192	0x3e569a01	0.20957185
193	0x3cd7d0c7	0.02634467
194	0xbd49882a	-0.04920212
195	0x3df47184	0.11935714
196	0xbbb9b3b7	-0.0056671756
197	0x3e7af7bc	0.24508566
198	0x3e63ea99	0.2225746
199	0xbe232f9e	-0.15936133
200	0xbe51be3e	-0.20482728
201	0x3c8da2dd	0.017289573
202	0xbe73132c	-0.23737782
203	0x3d3e333c	0.04643558
204	0xbe03988b	-0.1285116
205	0x3e1f8fed	0.15582247
206	0x3d38123c	0.044939265
207	0xbe5cfa2c	-0.21579808
208	0xbe3661ea	-0.17810789
209	0x3dc192f4	0.09451857
210	0xbdb03da6	-0.086055085
211	0x3d0a1072	0.03370709
212	0xbe6d81ca	-0.23194042
213	0x3e6962f3	0.22791652
214	0xbe8e0193	-0.27735576
215	0xbd625022	-0.0552522
216	0x3e322c36	0.17399678
217	0xbc0472d8	-0.0080840215
218	0x3e887957	0.26655075
219	0x3dafccea	0.08584006
220	0xbe4bb1dd	-0.19892068
221	0xbd847b4e	-0.06468831
222	0xbde61ef1	-0.1123637
223	0xbd8339f7	-0.0640754
224	0x3e73fb1c	0.2382626
225	0x3e5a45db	0.2131571
226	0x395e6a70	0.00021211221
227	0x3e3aa679	0.18227567
228	0x3def96a0	0.11698651
229	0xbe2a4b2f	-0.16630243
230	0x3e3f48ac	0.18680066
231	0x3d4bc737	0.049750533
232	0xbe52632f	-0.20545648
233	0xbe641e26	-0.22277126
234	0x3df3aaff	0.11897849
235	0xbe09168b	-0.13387506
236	0x3dc66fc7	0.096892886
237	0xbe24578b	-0.1604902
238	0x3d274f66	0.040847205
239	0x3ca59430	0.020212263
240	0xbd8d7813	-0.06907668
241	0x3ceecaee	0.029149499
242	0xbd29428d	-0.041323233
243	0xbdd9fd2a	-0.1064399
244	0xbe1268de	-0.14297816
245	0xbe292009	-0.16516127
246	0x39a41f46	0.00031303818
247	0xbd835f49	-0.064146586
248	0x3e059d8c	0.1304838
249	0x3e2272d2	0.15864113
250	0x3db82e54	0.089932114
251	0x3c566140	0.01308471
252	0xbde2c134	-0.11072007
253	0xbe6f7b26	-0.23386821
254	0x3df4b31a	0.119482234
255	0x3d1fac84	0.038982883

1.10.bias f4 [12]
0	0x3d24cabc	0.040232405
1	0xbeaec6fc	-0.34136188
2	0x3dea3a63	0.11436918
3	0xbe4caaa1	-0.19986965
4	0xbb5ec7ad	-0.0033993528
5	0x3e61eb60	0.22062445
6	0xbd694f58	-0.056960434
7	0xb9da8275	-0.00041677398
8	0x3d830b71	0.06398667
9	0xbe67ac58	-0.22624338
10	0xbe4de505	-0.20106895
11	0x3df66ab2	0.12032069

1.12.weight f4 [4, 12]
0	0xbeb1ec0f	-0.3475041
1	0x3f032945	0.5123485
2	0xbe520118	-0.2050823
3	0x3df73421	0.1207049
4	0xbec83c38	-0.39108443
5	0xbd9abfff	-0.075561516
6	0x3e420ac6	0.18949422
7	0x3ec85565	0.3912765
8	0xbf03f2c8	-0.5154233
9	0x3e383ef4	0.17992765
10	0x3e4b9378	0.19880474
11	0xbece896b	-0.40339217
12	0xbe9b1274	-0.30287516
13	0x3ed39604	0.4132539
14	0x3dff1f32	0.12457122
15	0x3e43471e	0.19070098
16	0xbee9ce83	-0.45665368
17	0xbee68e26	-0.45030326
18	0x3e2103a6	0.15724048
19	0x3cc5f819	0.024166154
20	0xbe694198	-0.22778928
21	0x3e9ee2a1	0.3103228
22	0x3ebbeab1	0.36702493
23	0xbdd01a27	-0.10161238
24	0x3e0fab19	0.14030112
25	0x3f074533	0.52839965
26	0x3ec90ff2	0.39269978
27	0x3e4b766c	0.19869393
28	0xbebe16dc	-0.37126815
29	0x3d942621	0.07233835
30	0x3e90db9d	0.28292552
31	0x3e76640e	0.24061605
32	0xbe0e26f7	-0.13882051
33	0x3f085b78	0.5326457
34	0x3edd664f	0.43242118
35	0x3e88178a	0.2658046
36	0xbeeff86b	-0.46869215
37	0x3eab7d43	0.33494005
38	0x3e01a6fe	0.12661359
39	0xbe37d9cb	-0.17954175
40	0xbeb10e78	-0.3458135
41	0x3c4446c8	0.011979766
42	0x3dceb3a7	0.1009286
43	0xbc64b486	-0.013959056
44	0xbf14a706	-0.5806736
45	0x3f0a4f63	0.54027385
46	0x3df62e92	0.12020601
47	0x3ddc41dc	0.10754749

1.12.bias f4 [4]
0	0xbe8e02f6	-0.27736634
1	0xbeb2eb29	-0.34945038
2	0xbef3aaa7	-0.47591135
3	0xbf06c7d5	-0.5264867
