trained_models/DDQN_rwd12.pt (torch, 45109 bytes, 16 tensors)

0.0.weight f4 [5, 5]
000000 d8 02 78 3f 17 e6 ca 3f d4 05 ac 3f 1e d4 ac 3f
       0.9687934 1.5851468 1.3439279 1.3502233
000010 22 8c 9d 3f 2d c9 a1 3f da 28 af 3f ac f3 b2 3f
       1.230839 1.2639519 1.3684342 1.3980613
000020 4d cf a5 3f 26 26 8e 3f da a0 81 3f 29 36 79 3f
       1.2953888 1.1105392 1.0127213 0.97348267
000030 7b 5c 9f 3f 70 65 8b 3f 68 d3 b0 3f f4 ae 8b 3f
       1.2450098 1.0890331 1.3814516 1.0912766
000040 90 15 a0 3f e1 7d 90 3f 7c de 98 3f 6c 5c 95 3f
       1.250658 1.1288415 1.1942897 1.166883
000050 af 08 94 3f 43 4c bb 3f 19 bd ac 3f ac e6 b2 3f
       1.156515 1.4632648 1.3495208 1.3976645
000060 09 10 8a 3f
       1.0786144

0.0.bias f4 [5, 5]
000000 02 28 07 3d 20 d6 f5 3d 3c 14 25 3e 7d 80 af bd
       0.03299714 0.12003732 0.16121 -0.08569429
000010 ff d6 ec 3b 47 22 3d 3e 3b c9 82 3c 2a fa 1c 3e
       0.007227778 0.18470107 0.015965095 0.15329805
000020 2b 00 02 be 93 32 9e 3d e1 4a 0f be 9d b1 46 3d
       -0.12695377 0.0772449 -0.13993408 0.04850923
000030 77 44 02 3e 55 3d b2 bd 99 cd 09 bd ac a9 3b 3d
       0.1272143 -0.087031044 -0.03364334 0.04581611
000040 1d 48 11 be 48 5d 34 bc 4b b5 9f 3d 1d b0 51 3d
       -0.14187665 -0.011008568 0.07798251 0.051193345
000050 29 83 41 be 9b e5 d4 3d 0d 5f af 3d c6 2f af bd
       -0.1889769 0.10395356 0.085630514 -0.08554034
000060 ff b5 18 bd
       -0.03728294

1.0.weight f4 [64, 25]
000000 0d ec 7c bd 13 d8 f0 bd f8 c6 69 bd 65 d5 01 be
       -0.061748553 -0.11759963 -0.057074517 -0.1267906
000010 ce 45 20 3e 1f ef 34 bd 16 e3 80 3d e6 79 21 bb
       0.15651628 -0.044173356 0.06293313 -0.0024639308
000020 65 e1 43 be 79 b8 af bd 0a b1 36 be bf f7 02 be
       -0.1912895 -0.08580107 -0.17840973 -0.1278982
000030 23 c2 e1 bd ba 83 b6 3c b3 d0 2e 3e 3b 22 29 bd
       -0.11023357 0.022279609 0.170718 -0.04129241
000040 b8 f0 5c 3e 48 c6 c0 3e 5a 38 0a be 2a 90 13 be
       0.21576202 0.37651277 -0.13498059 -0.14410463
000050 e0 b6 df 3d 5c 9c 81 bd 83 cb e3 3d 57 69 fa 3d
       0.109235525 -0.06328651 0.11122801 0.12227123
000060 b4 41 b1 ba f4 9a 8b bc 21 cb 10 bf 2f dd 54 3e
       -0.0013523609 -0.01704166 -0.5655995 0.207875
000070 e3 bd 26 be f0 98 8b 3e 17 f3 82 3c 80 d0 57 3e
       -0.16283374 0.2726512 0.015985055 0.2107563
000080 c1 d8 b5 3e e9 59 40 3e fc 02 b4 be f7 7d d3 3d
       0.35516933 0.18784298 -0.35158527 0.1032676
000090 c6 35 b9 bd f2 d7 c4 bb 1c de 35 3e 0e 5a fc 3d
       -0.090434596 -0.006007188 0.17760509 0.12321864
0000a0 33 f4 20 3e 1a ee 98 bd 21 b9 eb bd d6 55 95 bd
       0.15718155 -0.07467289 -0.1150992 -0.072917625
0000b0 b6 95 e9 3b 8a 4f 5a 3d c1 f4 cf be e8 f9 4b 3e
       0.0071284426 0.05329851 -0.4061642 0.1991955
0000c0 0c 6e 70 be 78 c8 96 3d a0 15 d1 bd f8 43 91 3a
       -0.2347948 0.07362455 -0.10209203 0.0011082878
0000d0 0e 6c 15 3e 70 75 4f 3e 01 f8 54 3e 5a c4 57 3a
       0.14592001 0.20259643 0.20797731 0.0008230858
0000e0 b2 78 90 3e 03 71 10 3b 58 c8 cc bc 49 ba 09 be
       0.28217083 0.0022040016 -0.024997875 -0.13449968
0000f0 d1 ba 2e 3e 32 9b af 3d a8 fb e8 bc c6 f3 46 bd
       0.17063452 0.08574523 -0.028440312 -0.048572324
000100 47 15 98 3d 28 2c 61 be 57 14 ba 3d b9 05 35 3d
       0.07425933 -0.219895 0.09085911 0.04419491
000110 f5 45 4f 3e e1 20 35 bd 88 24 ff 3d b1 89 7a 3d
       0.2024153 -0.04422081 0.1245814 0.06116647
000120 55 3f 5c 3d ee d8 15 3e c6 76 08 be fc a1 41 3d
       0.053771336 0.14633533 -0.13326558 0.04727362
000130 d0 b4 57 bd e9 55 a8 bd 39 d8 87 3d 50 3d 35 bc
       -0.05266267 -0.08219511 0.06633038 -0.011061981
000140 0f 4c 81 be 7a 7c c9 bc ac db 08 be 2f bd 4a 3e
       -0.2525334 -0.024595488 -0.13365048 0.1979873
000150 66 fd 2a be d2 9c b1 3d 04 0b 20 3e 64 c0 2a be
       -0.16698226 0.08672489 0.15629202 -0.16674954
000160 46 fd bf 3d 48 6b 70 be 58 57 1b be 96 56 ee bc
       0.0937448 -0.23478425 -0.15170038 -0.029094022
000170 96 45 88 3d 0e dc 92 bd 84 21 62 be 37 d4 22 3e
       0.066538975 -0.07170878 -0.22083098 0.15901266
000180 c0 1b 58 bd 4d 21 2b be 33 75 4b be 42 b8 5a be
       -0.05276084 -0.16711922 -0.19868927 -0.21359351
000190 9b 3b 1f be 1b 16 01 3d ec d5 2d be 08 67 5f 3e
       -0.15550081 0.031515222 -0.16976136 0.21816647
0001a0 d1 90 b9 bd c1 55 f6 bc e5 e2 31 3e fa 40 4d 3e
       -0.09060825 -0.030070188 0.1737171 0.20044318
0001b0 9b 02 67 be 35 0b a0 bd 76 91 1e be 6d f6 7e 3e
       -0.22559588 -0.078146376 -0.15485176 0.24898691
0001c0 16 da ef 3d 00 72 c3 3d b6 6b 28 3e 52 22 11 3c
       0.117115185 0.09543228 0.16447338 0.00885828
0001d0 cd e3 0c bd 98 41 12 be 1a 77 e3 3d 1f 26 ba 3c
       -0.034396935 -0.14282835 0.11106701 0.022723256
0001e0 53 6a 27 3e ca c9 25 bc 08 8c 43 bc 9d 6c 0e be
       0.16349153 -0.010118911 -0.0119352415 -0.1390862
0001f0 97 d6 29 be bd 4d 83 bd 0e d5 30 3e 0b c8 18 bc
       -0.16585766 -0.06411312 0.17268774 -0.009325038
000200 ec c3 3e bd db ee 0d be cc c3 ab bd 57 bb 1c 3d
       -0.046573564 -0.13860647 -0.08386955 0.0382646
000210 45 a9 93 bd da cf 4d 3e 35 91 ad 3d 87 a9 4e 3e
       -0.0721002 0.2009882 0.08474962 0.20181857
000220 85 f0 ae bd c7 0e 62 3e 89 7c 8e 3e b5 4b 0a be
       -0.08541969 0.2207595 0.27829388 -0.13505442
000230 35 da 5c 3d 88 63 9a 3e 1a 0d af bd 2c a6 02 3e
       0.053919036 0.3015406 -0.08547421 0.12758702
000240 cd a8 f2 bd 88 99 93 3d 33 ef d2 b8 ed 5c e6 bd
       -0.118486024 0.07207018 -0.00010058135 -0.11248193
000250 d9 48 11 be 7e fa 47 be f7 b5 22 bd a6 75 73 bd
       -0.14187945 -0.19529149 -0.039724316 -0.05943837
000260 59 5e a1 3e cb 5b e0 3e 80 9d d7 3c 78 3e 6b be
       0.31517294 0.43820032 0.026320219 -0.22973049
000270 c0 ee 48 be 92 cd f9 3b 78 be 80 bd cd 94 e8 bd
       -0.19622326 0.007623383 -0.06286329 -0.113565065
000280 3b 68 1b be c4 dc e6 3c 1f f2 4a 3e 27 23 92 3c
       -0.1517648 0.028181441 0.19818924 0.017839028
000290 15 2e 53 bd d9 16 92 be 44 78 e2 3c af f0 f6 3d
       -0.05155762 -0.28533056 0.027645238 0.120576255
0002a0 01 96 19 3e f1 2f 93 3e ab 9a a4 bd 17 35 32 ba
       0.14998628 0.28747514 -0.08037313 -0.0006798072
0002b0 08 be 4a bd 48 7d 57 bc 46 59 73 bb 02 7c 2d 3e
       -0.049497634 -0.013152428 -0.0037132069 0.16941836
0002c0 06 44 68 3d 3f 12 bd 3c 0b 7d 0c bd 69 56 03 3d
       0.056705497 0.02307999 -0.034298938 0.03206483
0002d0 ca 2a e8 bd e1 e1 23 3d 3c 42 9a bd 71 4e 6c be
       -0.11336286 0.040010337 -0.075321645 -0.23076798
0002e0 1a 32 8a be 00 ac 1b 3e 9a 7d 0e be 97 03 96 bd
       -0.2699135 0.15202332 -0.139151 -0.073249035
0002f0 fa d0 86 3b ac 91 d4 3d b3 c9 27 be ac bf 20 3e
       0.0041142674 0.10379347 -0.16385536 0.15698117
000300 5b 86 cb bd 3c 2f 3d bd 9c e7 81 be 05 a9 d1 3d
       -0.09937736 -0.046187624 -0.25372016 0.10237316
000310 27 39 34 bd 10 d1 42 be 25 ef 53 be e1 d3 0d be
       -0.043999817 -0.19025064 -0.20696695 -0.13850357
000320 3c e3 ab 3d 5d f1 23 bf ac b3 ab 3e 9f 3c 5a 3e
       0.08392951 -0.64040166 0.33535516 0.21312188
000330 ae 1f be 3e a6 ab ef 3d 99 68 2e bc 74 57 95 be
       0.37133545 0.11702661 -0.010645055 -0.29168284
000340 82 af d9 bc ed 12 5c bd eb 96 1c 3e 9f 59 aa bc
       -0.026572946 -0.053728987 0.15291946 -0.020794688
000350 a2 74 82 bc 7a d8 92 b8 bf c4 42 be 9d b4 1c 3e
       -0.015924755 -7.0021444e-05 -0.19020365 0.15303273
000360 00 db 62 bd 66 ca f5 3c d0 f5 7d 3e 44 bf e7 bd
       -0.055384636 0.030003738 0.24800801 -0.11315778
000370 3b 42 94 3d 23 b3 bf be ca c9 db 3d 69 2c 85 bd
       0.07239195 -0.37441358 0.107318476 -0.06502611
000380 c7 22 a6 bc 3a d4 e1 bd dc 0b f3 3c c2 9d 6d be
       -0.020280255 -0.11026807 0.02966874 -0.23204711
000390 0d f6 78 3c 80 54 c9 bd d4 b1 02 be 5f 8f 74 be
       0.015195382 -0.0983057 -0.12763149 -0.23882817
0003a0 24 b8 1d be f1 52 88 3d 2c e4 7c 3d 53 26 07 3e
       -0.15402275 0.06656445 0.06174104 0.13198213
0003b0 43 2f 8d 3c 65 96 62 3e 02 3f 0f 3e c8 fb 37 be
       0.01723445 0.22127683 0.1398888 -0.1796714
0003c0 99 a9 30 3e 03 a5 3e 3e 5d 4e 8e bd cd 3e 2d 3e
       0.17252196 0.18617634 -0.0694854 0.16918488
0003d0 36 4c eb bd f7 a7 61 bd 6c 1c ff bd b9 8d 74 be
       -0.114891455 -0.055091824 -0.12456593 -0.23882188
0003e0 0f 31 bc bd e8 5a d6 bd 76 e4 01 3e 1a a1 03 bd
       -0.09189045 -0.10466558 0.12684807 -0.03213606
0003f0 94 62 3c 3c 25 b0 a6 bc 38 a9 05 be d8 9e 5b 3d
       0.011498112 -0.020347664 -0.13052833 0.053618282

1.0.bias f4 [64]
000000 7a 3f 0f 3d 6a 2b d6 3d 9b c6 c8 bd b5 cd a4 bd
       0.034972645 0.10457499 -0.09803506 -0.08047048
000010 4e 51 59 bd a4 87 b6 bd d3 a0 15 bd 48 0b 71 bb
       -0.053056054 -0.0891259 -0.036530327 -0.0036780406
000020 5e de 88 be 64 59 da 3d c8 3b 55 3d 65 58 04 bf
       -0.26732153 0.10661581 0.052058965 -0.5169738
000030 a3 19 8a bb 2c 7c 54 3e 3a 8d 84 bc 8a 27 99 bd
       -0.004214482 0.20750493 -0.016180623 -0.074782446
000040 66 d0 65 3e e6 c4 a0 be 23 f7 13 be f2 3f 17 be
       0.22442779 -0.31400222 -0.14449744 -0.14770487
000050 f3 d1 53 be c0 56 83 3d 8e fc 07 bc 4d 2d 0f be
       -0.20685558 0.064130306 -0.00829996 -0.13982125
000060 0d 65 cd 3c 12 85 8d 3c 2f 6c df 3d 81 77 9c 3b
       0.025072599 0.017275367 0.10909306 0.004774988
000070 d0 4a bd bc 3b 3b 22 3e 21 4b 94 bd 17 0e 31 be
       -0.023106962 0.15842907 -0.07240892 -0.17290531
000080 3e 36 9e 3e 8a 15 19 be 56 b2 01 bd 7b bc 38 be
       0.30900759 -0.14949623 -0.031664215 -0.1804065
000090 9d 6d ca 3d ec 9f 26 3d ac 45 90 3d 28 f7 20 3e
       0.09884188 0.040679857 0.07044539 0.15719283
0000a0 7f 53 11 3e 61 19 6a be ad 85 47 bd 51 00 e9 bd
       0.14192007 -0.22861244 -0.048711468 -0.113770135
0000b0 62 c2 ae 39 ec b8 53 be 56 89 f4 3d 88 d4 8d be
       0.00033332693 -0.20676011 0.11940257 -0.2770121
0000c0 1f c0 ba 3d ff e0 ea bd c9 ac f3 3d 4e 85 f9 3d
       0.091186754 -0.11468696 0.118981905 0.12183629
0000d0 b5 6a 17 be 86 43 e9 bd 21 b0 0f bd 12 7e 04 be
       -0.14786799 -0.11389832 -0.03508008 -0.12938717
0000e0 64 d4 4a be db 34 bf bd 9b c3 d7 3d 28 41 72 3e
       -0.19807583 -0.09336253 0.10535356 0.23657668
0000f0 46 d9 2a 3d cd d1 53 3e 0e 1d 16 3e 6a ba 0a 3e
       0.041711114 0.20685501 0.14659521 0.13547674

1.2.weight f4 [48, 64]
000000 c9 57 85 bb fe 26 10 3d 26 08 b9 bc 6d b3 bd bd
       -0.0040693027 0.035193436 -0.022586893 -0.092627384
000010 91 1c 32 bd e2 0d 4f bb 43 1c f5 bc 45 71 e7 bc
       -0.043484274 -0.0031593968 -0.029920703 -0.028252253
000020 f8 3d ed 3d ed f7 ca bc 37 fe 76 3d cd ed 76 bd
       0.11584085 -0.024776423 0.060301032 -0.06028538
000030 d8 3b b1 bb ff 36 a6 bd 41 ce 88 3d 8e a2 82 bd
       -0.0054087453 -0.081159584 0.06679965 -0.06378661
000040 e6 99 5e 3d 46 0a 64 bd e9 f6 88 3d 46 f2 a3 bc
       0.054345988 -0.05567386 0.066877194 -0.020012986
000050 74 3c c6 bd 26 2b 07 bd 0a b7 9b bd 6c 7f 50 3b
       -0.09679499 -0.033000134 -0.07603271 0.003181423
000060 4b ca 02 be b0 2f 42 3b f6 a7 b6 bd a4 9e 7d bd
       -0.12772481 0.0029630475 -0.08918755 -0.06191887
000070 3b de 8b bd d4 0a 01 be 0a 2e 51 bd 59 2a c8 3d
       -0.068294965 -0.12601787 -0.051069297 0.09773702
000080 19 58 bd bd 93 3a e7 3d 35 fb 83 bd 88 c5 8c bd
       -0.09245319 0.11290469 -0.06444398 -0.068736136
000090 3f 09 ab 3d a1 12 97 bd 3c 8e ac bd 7c 37 01 3e
       0.08351373 -0.073766 -0.084255666 0.12618822
0000a0 21 07 47 bd 4f 01 4f 3c 4e f4 ab bd fa 56 b3 bd
       -0.048590783 0.012634589 -0.08396207 -0.08756824
0000b0 75 7f 62 3d 58 5f f0 bd e5 14 f5 bc ce a5 94 bd
       0.055297334 -0.117369354 -0.02991719 -0.07258187
0000c0 0c a8 b5 3d 24 fa 1e bd 4c 29 45 bb e0 78 7c bd
       0.08869943 -0.03881277 -0.003008443 -0.061638713
0000d0 66 70 0c be cf a0 4b 3d 0c a0 4a bd f6 0e 56 3d
       -0.13714752 0.049713906 -0.04946904 0.05226036
0000e0 2d 3a b5 3d 7d ff 7b 3d 26 eb a4 bd d9 3c ef bd
       0.08848987 0.06152295 -0.080526635 -0.11681528
0000f0 0e a9 af 3d e0 b2 9f 3d 99 8f ae bc bf e3 a1 3d
       0.085771665 0.077977896 -0.021308707 0.07904767
000100 2a 96 44 3e 86 6f 1a be 7c 3a e2 3d 04 c9 df bc
       0.19197908 -0.15081605 0.11046311 -0.027317531
000110 16 2a e8 3d 6e 38 99 3c 27 1e 2d bd bd f8 85 bd
       0.11336152 0.018703666 -0.042265084 -0.06541584
000120 e4 b3 26 3c 8f 47 62 3e ba df a6 3d 10 eb 92 3e
       0.010174725 0.2209761 0.08148141 0.28694963
000130 e8 74 3c bd 2c 7c 94 bd 5a 67 0a bd 83 97 56 3e
       -0.046009928 -0.072502464 -0.03378997 0.20956235
000140 37 e5 88 bc f6 43 c7 bd ad 2e 02 3e 67 76 f1 3d
       -0.01671086 -0.097297594 0.12713118 0.117901616
000150 39 15 ac bd cb dd 06 3d af 6b 70 3e 42 ad e6 bd
       -0.084024854 0.032926362 0.23478578 -0.11263515
000160 d0 71 a4 bd 94 85 23 be e8 0e 4d 3e e7 90 10 3e
       -0.080295205 -0.15968925 0.20025218 0.14117776
000170 39 17 15 3e 0a fd ac bc 4e da d0 3d 2a 53 95 bd
       0.1455964 -0.021116752 0.10197888 -0.07291253
000180 83 8d 4f bd 97 49 90 bd 40 5b 40 be e6 b0 b9 bd
       -0.050672065 -0.07045286 -0.18784809 -0.09066944
000190 fe 8a f3 bc ab 8b 93 bc f0 b1 3c 3e 4e ae 95 3b
       -0.029729363 -0.018010935 0.18427253 0.004567898
0001a0 e3 ba 7d 3e 45 dd 3f 3e 93 76 1a 3d 0f fa 09 be
       0.24778323 0.18736751 0.037710737 -0.13474296
0001b0 c0 95 91 3d 76 d1 60 3e ec 65 8c 3e 0e f9 cc 3d
       0.07108641 0.21954903 0.2742151 0.10008441
0001c0 eb ed d1 bd 73 2f 58 be b1 8b 7d be 1e cc ae 3c
       -0.102504574 -0.2111185 -0.2476032 0.021337565
0001d0 72 cc f3 bd f3 37 77 be 83 bb 8a bd 28 96 39 bd
       -0.11904229 -0.24142437 -0.06774046 -0.045309216
0001e0 2e 08 be 3d f7 42 8d 3e df fb 54 3e 88 89 43 3d
       0.09278904 0.27590153 0.20799206 0.047738582
0001f0 1f ef 0a 3e 73 c6 ba bd 5f f0 8f bd f6 e8 d3 bd
       0.1356778 -0.091198824 -0.07028269 -0.10347168
000200 25 64 07 bc 54 74 d0 bc 96 86 c1 3d dc 39 9f bd
       -0.008263622 -0.025446095 0.09449498 -0.07774708
000210 fd d8 8f bc 01 91 a9 3a 9c 79 6c 3d 07 95 e9 3d
       -0.017559523 0.0012936891 0.057733163 0.11405378
000220 b3 2c 44 3d 9c e1 21 bc 1c c3 e7 3d 47 54 a2 bd
       0.04789419 -0.00988045 0.11316511 -0.07926231
000230 ab 8f 5d 3d cf ef d1 bd 50 da 3b 3d 70 02 9e bd
       0.05409209 -0.10250818 0.045862496 -0.07715309
000240 ac 1f c0 bd d2 59 eb bd 70 47 58 bc e1 e6 23 bd
       -0.09381041 -0.11491741 -0.013200626 -0.040015105
000250 c9 23 d7 bd 95 15 57 bd c8 25 53 3d 57 e1 83 bd
       -0.10504872 -0.052510817 0.051549703 -0.064394645
000260 9c 03 f2 3d cb 61 e0 bd e9 59 bf 3d 59 60 cf bd
       0.11817095 -0.109561525 0.09343321 -0.10125799
000270 47 e3 0f 3d 56 e5 f6 3d 9e 30 8f bc 22 3c 9c bd
       0.035128858 0.12055461 -0.017479237 -0.07628657
000280 c9 d6 c0 3c 62 8d c1 3d 46 18 c6 3d a9 0c 3d bd
       0.023539918 0.09450795 0.096725985 -0.04615465
000290 4c e6 ea bc f3 de b6 bd 94 94 cf bd bd b3 c7 bd
       -0.028674267 -0.08929243 -0.10135761 -0.09751079
0002a0 a9 d8 f1 3d 57 54 c9 bd b6 b2 91 bd ba 93 9c 3d
       0.11808903 -0.0983054 -0.071141645 0.07645364
0002b0 fc a2 1b 3c 4f ae 9a bd 09 53 fc bd 6b 43 bb 3d
       0.009499308 -0.07552778 -0.12320525 0.09143718
0002c0 21 2e 65 bd 7d 8a d2 3d 88 ba c4 bd 85 41 36 3d
       -0.055952195 0.10280321 -0.096058905 0.044496078
0002d0 96 bc cc bd 26 b7 cf 3c 6b f4 a9 bd b4 3e 66 bd
       -0.099969074 0.025355887 -0.08298572 -0.056212142
0002e0 47 8d 17 3c c4 66 f0 3c 63 90 bf 3d 26 83 39 bd
       0.009249992 0.029345877 0.093537115 -0.04529109
0002f0 ab a5 9e 3d 92 c4 4d 3d 20 0f 12 bd a2 66 b5 3d
       0.077464424 0.050236292 -0.035658956 0.08857466
000300 67 33 c0 bc 47 87 d2 3d fb 4e 04 bd 8d 28 84 bc
       -0.02346201 0.10279708 -0.032301884 -0.016132617
000310 6d 2d c4 bd 54 fc c1 bd ae 96 9e bd 81 d9 86 3d
       -0.09578977 -0.09471956 -0.077435836 0.06584454
000320 a6 f6 4e bc f5 a2 1e bd 4a 71 5d 3d d9 7e af 3d
       -0.012632048 -0.038729627 0.05406312 0.08569116
000330 52 4e d6 bd 58 8f ef 3d 00 ae 92 bd 3d 66 a7 3d
       -0.10464157 0.116972625 -0.07162094 0.08173797
000340 17 25 c7 3d fc e5 c9 3d a4 37 96 bb c0 da 5d 3c
       0.09723871 0.09858319 -0.0045842696 0.013540924
000350 46 0e 72 bc bd 01 b4 bc 85 c8 19 bd e2 c9 fe 3b
       -0.014773911 -0.021973485 -0.037544746 0.007775531
000360 08 76 a1 3d 8e 2e 51 bc ad a2 44 3c f2 fb b2 bd
       0.07883841 -0.012767447 0.012001676 -0.08739461
000370 b8 61 e7 bd 12 42 63 3c e2 33 a0 bd 70 e3 f5 bd
       -0.11297935 0.013870733 -0.07822396 -0.12006271
000380 ba 35 12 bd 77 d9 f1 bd fc a6 a0 3d eb 6e 99 bd
       -0.03569577 -0.11809056 0.0784435 -0.07491859
000390 74 c2 24 bd 2d 6c 27 bc ad 1c 40 bd 67 c8 11 3d
       -0.040224507 -0.010218662 -0.046902347 0.03559151
0003a0 50 b3 fd ba 81 22 29 3c c6 96 a6 bd fa a1 c0 bb
       -0.0019355807 0.010323168 -0.081342265 -0.005878684
0003b0 58 07 a5 bd 4c e1 06 be e8 f9 cd 3d 9a 92 04 be
       -0.08058041 -0.13171881 0.100574315 -0.12946549
0003c0 5c 93 64 bd 98 f9 19 3c d6 f0 9b bc 60 63 c0 3d
       -0.055804595 0.009397887 -0.019035738 0.09393954
0003d0 7b 5b fc 3c 6c e3 9a bd 6d 06 99 3d 38 a1 b6 bd
       0.03080534 -0.075629085 0.07471929 -0.08917469
0003e0 1c cd e4 3d 97 d3 b2 bc c2 5a 3b 3d 80 45 0c 3d
       0.11171934 -0.02182941 0.04574085 0.034245968
0003f0 82 20 1e bd 4e 6a 85 bd b7 65 f0 bd b6 7a ec 3c
       -0.03860522 -0.06514417 -0.117381506 0.028867107

1.2.bias f4 [48]
000000 3f 7c db bd f2 b4 45 bd 08 90 ca 3d 20 2e 06 3d
       -0.107170574 -0.048268266 0.09890753 0.032758832
000010 bf 83 fd 3d b5 e7 07 be 02 56 89 bd 60 55 f4 bd
       0.12378644 -0.13271983 -0.06705858 -0.119303465
000020 2a 8a be bc 73 90 ad 3d bb 8e 09 bd b1 2d 68 bc
       -0.023259241 0.08474817 -0.033583384 -0.01417105
000030 7b 5f 78 bd 6d 79 02 3d 34 e6 92 bd 51 c7 6d bd
       -0.060637932 0.031854082 -0.07172814 -0.05805141
000040 06 e7 1f bd 41 d9 00 3d b8 fc 64 bd fc ba bb be
       -0.03903868 0.03145719 -0.055905074 -0.36666095
000050 22 e9 d5 bd 0a 8c f7 3c 10 9b 2f be 45 39 36 bd
       -0.10444857 0.030218143 -0.17148995 -0.04448821
000060 34 1c d1 3b c6 25 1e 3e 08 83 be bc 5d 5b 82 3d
       0.006381536 0.15444097 -0.02325584 0.063650824
000070 e1 ef aa 3d 0c e9 4f 3d 1d ec 9b 3d 83 51 b5 3d
       0.083465345 0.05075936 0.076133944 0.08853438
000080 43 2b ee bb ef 05 df bd 0d 73 3f 3d ed 2a 2f be
       -0.007268341 -0.108898036 0.04674058 -0.17106219
000090 8c 85 1e be 40 71 75 b8 b8 2f 35 3d d9 20 16 bc
       -0.15480632 -5.8518024e-05 0.04423496 -0.009163105
0000a0 1e af fb 3d e6 5a da bb 66 fe 09 be ab 7f f2 bd
       0.1228926 -0.006663668 -0.13475952 -0.11840757
0000b0 bb 09 bd 3d d2 31 52 bd a3 47 8c bd 6f 09 cd 3d
       0.092303716 -0.051317044 -0.06849601 0.10011565

1.4.weight f4 [48, 48]
000000 38 99 12 bc d1 39 7e bd 6b fa 38 3d d6 37 15 3e
       -0.008947663 -0.062066857 0.045160692 0.14572081
000010 5c ab 04 be 7c df ea 3d a5 92 80 bd 4b a4 80 bd
       -0.12955993 0.114684075 -0.0627797 -0.062813364
000020 b6 48 0d bb 9b 71 94 3d 75 2d f9 bd 60 35 0a be
       -0.0021558232 0.07248231 -0.12166873 -0.13496923
000030 21 96 e5 bd eb cb be 3d 33 96 83 bd f0 ed bd bd
       -0.112102754 0.09316238 -0.064251326 -0.092738986
000040 44 a4 ea 3c 96 cf 06 be f8 ce a9 bd c0 97 b8 bd
       0.028642781 -0.13165125 -0.08291429 -0.09013319
000050 ce 0f a2 3d 73 40 aa bd 5b ca e1 3d 85 72 a9 bc
       0.07913171 -0.08313074 0.11024924 -0.02068449
000060 15 a2 ec bd 84 41 82 bd a4 03 dc 3d b4 16 9d 3d
       -0.11554352 -0.06360152 0.10742882 0.07670346
000070 a7 3e 0a 3e 73 2c 5b bd 7f cb c0 3d ee 39 2b 3d
       0.13500462 -0.053509187 0.09413814 0.041803293
000080 f0 17 64 3d 1a 2f 74 3c cd 0e 90 bd d7 dc 27 3d
       0.05568689 0.014903808 -0.07034073 0.040982094
000090 4e b0 87 bd 7b 12 ad bc 1e a1 c3 3d 82 c8 f7 bd
       -0.06625424 -0.021126976 0.09552215 -0.12098791
0000a0 fc e7 9a 3d 06 7a 35 bc b4 b0 c7 bd 3c 66 14 bd
       0.07563779 -0.011076456 -0.097505 -0.03623031
0000b0 c8 6a 03 3c 19 ed 8b 3d a7 20 0e be 31 43 85 3d
       0.008021064 0.06832332 -0.13879643 0.06506956
0000c0 84 cb cb bd d8 10 a4 3d ea 78 a0 bd 7d 19 08 be
       -0.09950927 0.08011025 -0.078355625 -0.13290973
0000d0 65 c6 06 3e 18 d5 9a bd 9f fa de 3d 87 19 f1 3c
       0.13161619 -0.07560176 0.10887646 0.029431118
0000e0 a1 d5 c1 3b d9 d6 e1 3d 45 7b 64 bd 6b cf cc 3d
       0.005915359 0.11027307 -0.05578162 0.10000499
0000f0 ad 55 04 3e 7a 19 2a bc d8 69 80 bd ea 81 8a 3d
       0.12923308 -0.010382051 -0.06270188 0.067630604
000100 67 3d 82 3d cf 03 0b be 2c 55 0c be 37 60 22 3e
       0.06359368 -0.13575672 -0.13704365 0.15857016
000110 0b d1 8c 3c fa a3 bc bd 0c 37 dc 3c a1 9d 66 bd
       0.017189523 -0.092109635 0.026881717 -0.05630267
000120 90 78 dd 3d 9c 08 39 3d 42 32 fc bd c7 7f a0 bc
       0.10814011 0.045174226 -0.123142734 -0.019592179
000130 8b 1d b4 3d 93 7b 9a bd e4 fd b3 3d 5a 30 50 bd
       0.087946974 -0.07543101 0.0878866 -0.05082736
000140 04 b7 f3 bd 36 ba e9 3c 66 a4 f6 bc 32 42 cb 3d
       -0.11900142 0.028531175 -0.030107688 0.09924735
000150 48 6a e4 3d e8 ed 05 3e 87 1f f9 bc e8 aa 65 3d
       0.11153084 0.13079035 -0.030410541 0.056071192
000160 8d b2 cc bd 6d fe 43 bd 88 fc 0d 3e af 14 cb 3d
       -0.09994993 -0.04785006 0.13865864 0.099160545
000170 40 7d 1c bc c7 af 94 3d 8b 82 f1 3d 99 a0 aa bd
       -0.009551346 0.07260089 0.11792477 -0.08331413
000180 e0 15 c7 3d 31 ee 15 bd fb 97 04 be a7 f9 55 bd
       0.09720969 -0.03660411 -0.12948601 -0.05224004
000190 f7 08 80 bd 2c 47 3c bd db c8 de 3d 2a 1a f3 3d
       -0.0625171 -0.045966312 0.10878154 0.11870225
0001a0 93 38 1a be 19 35 d3 3c 24 45 c1 3d d0 b4 c9 3d
       -0.15060644 0.025782155 0.09437016 0.0984894
0001b0 3a f0 d7 bd 45 b1 00 be 8a 6f 75 bd bc 6b 15 bd
       -0.105438665 -0.12567623 -0.059920825 -0.036479697
0001c0 a1 fc 23 be d2 40 f5 3c 32 ab c3 bd 9c e4 fc bd
       -0.16014339 0.029938135 -0.09554137 -0.12348291
0001d0 25 17 f9 bd cd ff 16 3d 23 58 27 bd c9 ec e3 3d
       -0.121626176 0.036865044 -0.040855538 0.111291476
0001e0 81 2a ab 3d 90 00 03 3e b9 04 a8 3d d1 1d 28 bd
       0.08357716 0.12793183 0.08204026 -0.04104406
0001f0 97 70 31 bd 7b 47 3e 3d 7f 65 8f bd 84 54 76 3c
       -0.043320265 0.046454888 -0.07001781 0.0150347985
000200 c6 76 8c bd 09 ca 82 3c bb e1 24 bd d3 dc ad bd
       -0.06858592 0.015965478 -0.040254336 -0.084893845
000210 5d b1 e5 bd 7d c3 0b be b9 90 7c bd a5 e5 a7 3d
       -0.1121547 -0.13648792 -0.061661456 0.08198098
000220 05 19 a4 3d 2e 3b 12 be 30 7c 09 be 8b 6a 60 bc
       0.080125846 -0.14280388 -0.1342628 -0.013697277
000230 21 2c b4 3d 56 88 c9 bd 18 ac 1b bd ee 59 01 3e
       0.087974794 -0.09840457 -0.03800592 0.12631962
000240 59 c4 d9 3d c3 18 a8 bc 32 4b f4 bd 27 2f b3 3c
       0.106331535 -0.02051962 -0.11928405 0.02187307
000250 9d 08 98 bd 2b 85 8e 3d 68 23 67 bc 9e 7b 32 bd
       -0.07423518 0.069589935 -0.014107563 -0.04357492
000260 fd 7f 5e bd dd 80 8f 3d c8 a0 68 bd 92 c4 0b 3d
       -0.054321278 0.070070006 -0.056793958 0.03412301
000270 d3 bc 57 3d 40 19 04 be d6 a4 11 3e 19 d3 00 3e
       0.05267031 -0.12900257 0.14223036 0.12580527
000280 08 25 2e be 91 60 ad bd cd 58 a6 bd 35 4d 4d be
       -0.17006314 -0.08465684 -0.08122406 -0.20048983
000290 2f 05 0c be f0 b6 e0 bc af 0c 3c be 07 c4 d1 3d
       -0.13673852 -0.027430981 -0.18364213 0.102424674
0002a0 a9 23 c1 3d d8 ff 96 3d fb 39 6b bd aa 09 68 3d
       0.0943063 0.07373017 -0.05742834 0.05664984
0002b0 39 93 e1 3d 72 4b 7c 3d e5 3e 12 3e c7 42 a6 bd
       0.110144086 0.061595388 0.14281805 -0.081182055
0002c0 5b f3 ad bd c0 f5 55 bd c4 b8 90 3d 3e 2d 0c 3e
       -0.08493682 -0.05223632 0.07066491 0.13689134
0002d0 21 47 04 be 1a 3a 1a 3e 70 11 4c 3d 60 63 f7 3d
       -0.12917759 0.15061226 0.049821317 0.12079501
0002e0 d0 52 0a bd 26 7f e5 3d 47 c7 5b 3d ac 57 06 3d
       -0.033770382 0.11205892 0.053656843 0.032798454
0002f0 87 60 dc 3d 88 55 eb bd 0e b6 f2 3d ba 35 96 3d
       0.10760599 -0.11490923 0.118511304 0.07334466
000300 dd 75 48 bd d9 37 04 be 42 7f 9b 3c 01 9d 84 3d
       -0.04894053 -0.12911929 0.01898158 0.064752586
000310 50 b0 f1 bd b7 8a a1 3d 70 e9 12 3e 26 9f eb bd
       -0.11801207 0.07887786 0.14346862 -0.115049645
000320 8f a3 08 3b 15 4a f3 3d 1b d5 f0 bd 4f e0 10 3e
       0.0020849442 0.118793644 -0.11759397 0.14148067
000330 b4 f9 03 3e f3 6b 1e be 0a 3f a8 bd 85 5d e2 3c
       0.12888223 -0.15470867 -0.08215149 0.027632484
000340 8a 79 a8 bd 38 75 2d 3d 37 03 c8 3a 4a 95 13 be
       -0.08226307 0.042348117 0.0015259747 -0.14412418
000350 96 52 81 3d 1b 92 82 bd be d4 d7 3c c3 ee 3f bd
       0.0631458 -0.06375524 0.02634656 -0.04685856
000360 f3 b3 11 3e 75 54 89 bd 01 62 52 bd 34 c6 df bd
       0.14228801 -0.06705562 -0.051362995 -0.10926476
000370 82 53 29 3d 5e 61 db 3c 97 b0 0e bd 13 da e8 bd
       0.041339405 0.026779827 -0.034836378 -0.11369719
000380 34 e4 08 3e ed 95 fc bd cb bd c4 3d 25 81 17 3e
       0.13368303 -0.123332836 0.09606513 0.14795358
000390 fc b9 f8 3d e8 23 83 3d f7 e4 01 be 6a cf 9d 3d
       0.12144849 0.06403333 -0.12685 0.07705577
0003a0 65 fa 03 be ff 31 99 3d 94 78 bc 3d ef 30 14 be
       -0.12888487 0.07480239 0.09202686 -0.14471792
0003b0 52 bf 99 bd 50 7b 0b bc 34 c2 ac bd 7d 18 c2 3d
       -0.075071946 -0.008513287 -0.08435479 0.09477327
0003c0 e4 7b b6 bd 35 44 9b 3c 15 88 36 3d 1d 23 91 3d
       -0.08910349 0.018953422 0.04456337 0.070867755
0003d0 e8 fb cf 3c 41 9a 3f be 65 09 c1 3d 94 bc 0b be
       0.025388673 -0.18711187 0.0942562 -0.13646156
0003e0 fa ee 06 be 96 71 10 bd 9a 3f 5e bc 4d c4 82 3d
       -0.131771 -0.035264574 -0.0135649685 0.06385098
0003f0 7c 79 b2 bd d4 9a dd bd 75 43 b2 3d a6 22 4d 3c
       -0.087145776 -0.10820547 0.08704273 0.012520468

1.4.bias f4 [48]
000000 1a 43 d2 3d bf 08 e6 bd 2b 26 33 bc cc da 05 3e
       0.10266705 -0.11232137 -0.010934393 0.13071746
000010 f5 03 65 3d ec c2 ce 3d 45 47 aa bd 44 91 a8 3d
       0.055911977 0.10095772 -0.08314375 0.08230832
000020 31 b8 34 bd c5 60 39 bc 4e 32 0b be a3 7e 08 3c
       -0.04412097 -0.011314576 -0.13593408 0.008330974
000030 9b 97 98 bd 7c 2b 89 3d a8 85 c5 bd 71 fc 4a be
       -0.074507914 0.06697747 -0.096446335 -0.19822861
000040 5f 9d 0b be 0d 39 09 bd 75 4a 27 3e 15 9d 06 be
       -0.13634251 -0.033501673 0.16336997 -0.1314586
000050 7a 25 05 be 40 e5 60 bd 5c cc c5 bb d9 e7 b0 3d
       -0.13002577 -0.05490613 -0.0060363244 0.086379714
000060 fe 81 bd 3d 89 21 54 3d 48 ec 71 3d f6 0f de 3d
       0.0925331 0.051789794 0.059063226 0.10842888
000070 81 35 29 3e c3 34 f7 3c cf 02 b6 3d c0 70 79 3d
       0.16524316 0.030176526 0.088872544 0.060898542
000080 91 93 48 3d 80 2f ec 3c 9a 0b 1f bd 3f b7 f2 3c
       0.048968855 0.028831244 -0.038829423 0.029628394
000090 b5 c3 de 3d 2d 0f 5d bc 4a 38 c1 3c 86 c5 84 bd
       0.10877172 -0.013492388 0.023586411 -0.06482987
0000a0 d4 ec 07 3e 64 3f 69 3d da a1 e6 3c 97 c7 9a bd
       0.13273937 0.05694522 0.028153349 -0.075576
0000b0 67 17 d1 3d b6 7e 3f bc 23 52 ba bd b0 23 b0 bd
       0.10209542 -0.011687925 -0.090976976 -0.08600557

1.6.weight f4 [36, 48]
000000 7e 20 52 bd b3 f3 60 bd 0d bf dc bc 24 0f 1c 3d
       -0.05130052 -0.05491991 -0.026946569 0.038100377
000010 35 e5 1c bd 74 f1 e1 bd 67 2e 80 bd 17 c5 a1 bd
       -0.038304526 -0.11032382 -0.062588505 -0.0789892
000020 44 c5 07 3e 49 bc a2 bc 1d 95 2e 3d 86 25 6a bd
       0.13258845 -0.019865172 0.042622674 -0.05716469
000030 17 aa 50 bd 0d ab ba 3c 9a 40 cb bd bd 5c e9 bd
       -0.05094346 0.022786641 -0.09924431 -0.113946415
000040 6d c0 73 3c c0 57 7c bc 1d 19 b2 bd c2 c1 0d be
       0.014877421 -0.015401781 -0.08696196 -0.13843444
000050 a7 80 07 be 92 a7 e0 3d e3 de bc bd 2f 23 b0 3a
       -0.1323267 0.109694615 -0.092222 0.001343822
000060 9b f2 1d 3e 64 b1 f6 3d 14 b4 b9 3d 9a 5f ac 3d
       0.15424578 0.12045553 0.0906755 0.08416672
000070 db 0d 15 be 8d b0 1a be 33 18 30 3c ae 97 b7 bd
       -0.14556067 -0.15106411 0.010747957 -0.089644775
000080 36 a2 ec bd 20 51 c2 3d 45 c6 ee bd 0b 33 9a 3d
       -0.11554377 0.094881296 -0.11658911 0.07529267
000090 55 36 41 3d 15 1b fb 3d 64 69 d3 bb 93 6c da bd
       0.047170956 0.12261025 -0.0064517725 -0.1066524
0000a0 1c d7 0c bd 46 b4 d8 3c 59 ba 32 bc 73 b0 11 be
       -0.03438483 0.026453149 -0.010908687 -0.14227466
0000b0 99 bb b4 bd ef 8a 40 3d 46 c2 34 3d 2f 6c f7 bd
       -0.08824844 0.047007497 0.044130586 -0.12081181
0000c0 b4 bd 9f 3d 6c e0 91 bc 02 d2 ea bb 2d 3f 0c be
       0.07799855 -0.017807208 -0.007166148 -0.13695975
0000d0 e6 ec 6b bd ed 5e 92 3d 94 1c f4 3c 76 0d 9f 3d
       -0.05759897 0.07147012 0.029798783 0.07766239
0000e0 63 85 ff bc 49 22 bd 3d bd b3 43 bd 97 20 b0 bd
       -0.031191533 0.09235055 -0.047778834 -0.08599966
0000f0 61 45 73 bd 9b dc 0c be 3c 99 5f bd 03 27 26 3e
       -0.059392337 -0.1375603 -0.054589495 0.1622582
000100 8d c9 49 bd b7 5d 5c bd c9 4c d5 3b 6b 47 72 bd
       -0.04926448 -0.05380031 0.0065093976 -0.05915014
000110 f0 f5 88 bd 44 b5 06 3e 1c c0 9d bd 17 6b e9 3d
       -0.06687534 0.13155085 -0.077026576 0.11397379
000120 66 fd 9b 3d b3 56 3d 3d 59 23 02 be bb 75 cd 3d
       0.07616691 0.04622526 -0.12708797 0.10032221
000130 74 d2 e7 3d b7 2b 8e bd d2 ba 08 bc 94 06 aa bd
       0.113194376 -0.06941932 -0.008345323 -0.08302036
000140 1e 77 ff 3d f2 ee d1 bd 19 20 7b 3d 11 2f 0b 3e
       0.12473892 -0.10250653 0.061309908 0.13592173
000150 9d e1 8f bc a9 ef c9 bd d4 e0 f3 bd 8d 4d b0 bd
       -0.017563635 -0.09860165 -0.11908117 -0.08608542
000160 7f 9e 0d be 23 81 f4 3d ee 17 db bd 62 f5 f2 bd
       -0.13829993 0.119386934 -0.106979236 -0.11863209
000170 a7 6f 0e 3e 22 2a 14 3e 1c d9 a6 bd b3 46 54 bc
       0.1390978 0.14469197 -0.08146879 -0.012956309
000180 37 15 fa 3d 59 e9 88 bd 54 2d f6 3d d1 30 0e bd
       0.12211078 -0.066851325 0.120203644 -0.034714524
000190 28 30 04 be 81 b6 53 bc 2e 37 00 3e 8a 50 19 be
       -0.12908995 -0.01292193 0.1252105 -0.1497213
0001a0 2d 68 b0 3d ed bf c7 bd 3d 49 87 bc cc 04 cf 3d
       0.0861362 -0.09753404 -0.016514415 0.10108337
0001b0 9a e3 c9 3d 68 05 22 bd 0c b7 06 be 30 2e 42 3d
       0.09857865 -0.039555937 -0.13155764 0.04740733
0001c0 4e 0d 2c bc 30 60 a5 3c cc 64 1b be 40 d1 02 3c
       -0.010501219 0.020187467 -0.1517517 0.007984459
0001d0 80 44 9b bc 86 18 b9 3d 29 1c 0e be bd 85 0f bd
       -0.018953562 0.090378806 -0.1387793 -0.035039652
0001e0 57 a9 c8 bd f9 f5 55 3d 20 c7 1b 3d 0f 4c 85 3d
       -0.09797924 0.05223653 0.038031697 0.06508648
0001f0 6f 09 28 3e 98 e6 e6 3d ce cc 69 3d c4 f3 20 3e
       0.16409849 0.11274451 0.057080083 0.15717989
000200 42 52 d3 3d f0 89 4a bd 2c 2f 05 bb fc 07 1d bc
       0.10318424 -0.049447954 -0.0020322306 -0.009584423
000210 d1 05 36 3d 90 51 29 bc bd 25 32 bd dc 0f 59 bd
       0.04443914 -0.010334387 -0.04349302 -0.05299364
000220 31 be f6 bd d5 d4 27 3d f7 2c 76 bd d0 08 af bd
       -0.12047995 0.040974457 -0.060101476 -0.08546603
000230 1b cd 13 3d 21 e6 11 bd d6 4e 96 3c e1 b5 6d 3d
       0.036084276 -0.03561986 0.018348139 0.05803478
000240 bc b5 39 bd 06 85 4e 3d fe 8d f8 bc 41 23 d5 3c
       -0.04533933 0.05041983 -0.030341145 0.026017787
000250 f0 9c 57 bb 7c 85 d6 3d 0a 70 ba 3d c9 94 31 bd
       -0.0032899939 0.10474679 0.09103401 -0.043354783
000260 d9 eb 01 3e fb f9 f5 3a dc 12 87 bd c5 ff ef 3d
       0.12687625 0.0018766517 -0.06595394 0.11718706
000270 38 0e e8 3d 30 bd e8 3d 54 67 8d bb a3 34 cf bd
       0.11330837 0.1136421 -0.004315296 -0.101174615
000280 92 75 c0 bd d1 46 75 bd 9c 9d 92 bd 68 c1 cf 3c
       -0.09397425 -0.05988199 -0.07158968 0.025360778
000290 9c 26 a2 bd e6 74 9d 3c fe 0e 92 bd c5 19 7c b8
       -0.079175204 0.01922078 -0.07131766 -6.010548e-05
0002a0 9e 4a bb 3d 2e d3 07 bd e9 97 bf 3b 57 c8 2c 3d
       0.091450915 -0.03316038 0.0058469665 0.042183246
0002b0 a7 ea 0d bd 90 37 e4 3d b0 e8 df 3d f6 50 6e 3d
       -0.03464761 0.1114341 0.109330535 0.05818268
0002c0 2a cb 22 3d 3c d5 a4 3c 06 9c 59 3d d5 2b 50 bb
       0.039744534 0.02012121 0.05312731 -0.0031764407
0002d0 11 ef 86 bd 0b 18 87 bd 3d 5c 24 bd 33 2e fa bc
       -0.06588567 -0.06596383 -0.040127028 -0.030539608
0002e0 fd 41 bd bc ee 9a 97 3c 27 b6 e1 bd c4 ed ad 3d
       -0.023102755 0.018506493 -0.11021071 0.08492616
0002f0 b4 96 09 3d c0 95 87 bd 25 72 31 bd 91 7f 03 bd
       0.033590987 -0.066203594 -0.043321747 -0.03210408
000300 e8 7b ab bd 46 49 85 3d dc 60 2f 3d 67 08 3e 3d
       -0.083732426 0.065081164 0.04281698 0.04639473
000310 5f 37 d0 3d bd 6b e2 3c 27 db 00 be 69 ed aa 3d
       0.10166811 0.027639264 -0.125836 0.08346064
000320 b0 cb 77 3c 06 95 ad bd b9 8a 86 bd ab f3 cb 3c
       0.0151242465 -0.084756896 -0.06569428 0.024896463
000330 2d 6b 9d 3d 40 32 80 3c 54 77 d6 bd f6 f6 02 3e
       0.07686458 0.015648961 -0.10471979 0.1278952
000340 f2 be 4e bd 3c 16 bb bd 63 b9 06 bd f7 04 10 bd
       -0.05047507 -0.091351 -0.032891642 -0.035160985
000350 bd f7 c6 bd bb 59 e8 bd 3e 6b 65 bc b5 8f 2c 3d
       -0.09715221 -0.1134524 -0.014002619 0.042129237
000360 11 99 3c 3b f7 93 37 3d 16 94 bc 3c 16 2e b5 bd
       0.0028777758 0.044818845 0.023019832 -0.08846681
000370 75 53 ec 3b ce 13 04 bd 86 24 86 3d 6d 2a 9f 3d
       0.0072120973 -0.03224545 0.06549935 0.07771764
000380 69 a5 e7 bd 6f 79 1e 3e 9d 6f b0 bb 9d fd e4 bd
       -0.11310846 0.1547601 -0.005384399 -0.111811854
000390 2c b6 2f bd a9 8f 19 3e 0d 55 48 bd 8d 5d db 3d
       -0.042898342 0.14996208 -0.048909236 0.10711203
0003a0 e3 73 5a bd b7 63 99 3c fa f8 53 3c 01 a1 e5 bd
       -0.053333174 0.018724306 0.012937779 -0.1121235
0003b0 d5 34 e7 3d 2e be 3a 3d 1a c6 0e 3e f9 4d bb 3d
       0.11289374 0.045591526 0.13942757 0.091457315
0003c0 17 a5 55 bd da 9c 3b 3d 98 e8 d3 bd bd a0 00 be
       -0.052159395 0.045803882 -0.10347098 -0.12561317
0003d0 11 58 fb 3d 51 64 a6 3d b4 bd d0 3c 20 4d 11 3e
       0.12272657 0.081246026 0.025481082 0.14189577
0003e0 6f 60 c0 3c d8 7c ac 3d 37 8a 99 3d 9b 0d 04 be
       0.023483483 0.084222496 0.074970655 -0.12895815
0003f0 9d c2 21 bd 26 5a 0c 3e a0 f0 96 3c 77 eb 4f bd
       -0.03949224 0.13706264 0.018425286 -0.050761666

1.6.bias f4 [36]
000000 4a 7d 91 bd 45 d8 ff 3d 38 ee 08 3e 28 31 26 3c
       -0.07103975 0.12492422 0.13372123 0.010143556
000010 fe ff 9a 3d dd bf f5 3d 96 bc c5 3d 39 f1 2b 3d
       0.07568358 0.11999486 0.096551105 0.041978095
000020 15 7b 13 bd ce a1 d2 3c 43 24 fe 3d 8e ac db bc
       -0.036006052 0.02571192 0.1240926 -0.026815679
000030 da de b7 3b 85 ec 85 bd 18 84 96 3d bc 5b 4c 3d
       0.005611283 -0.06539253 0.07349414 0.049892172
000040 24 dc fe bd 2b 33 75 3d 14 a2 d5 3d 02 52 ba bc
       -0.12444332 0.05986325 0.104313046 -0.022744182
000050 9e 41 83 3c a6 48 b7 bc 74 bd 37 3e 04 38 f0 bd
       0.0160225 -0.022373509 0.17943364 -0.11729434
000060 2a 07 8c bc be 21 25 be 0e 2f b0 bd 6b 93 ce 3d
       -0.01709326 -0.16126153 -0.08602725 0.100867115
000070 7a e8 31 3e 3e c6 f0 bc c3 64 50 3d 7a 81 d1 3d
       0.17373839 -0.029391404 0.050877344 0.10229774
000080 ac c1 16 bd 9a 0b 54 bd 89 93 b1 3d d2 64 ca 3c
       -0.036805794 -0.051768877 0.08670718 0.024706278

1.8.weight f4 [24, 36]
000000 ef f8 3f be 22 92 94 3c 86 9f 7b 3c 5e b5 0c bc
       -0.18747304 0.018136088 0.015357858 -0.008588163
000010 3f e6 6d bd 4d 6c 1b bd 58 3a e4 bd 78 d8 b5 bd
       -0.058080908 -0.03794508 -0.11143941 -0.08879179
000020 89 d8 52 3d ec e4 fb bc 04 63 a5 3c 1a 17 23 be
       0.051476035 -0.030748807 0.020188816 -0.15926781
000030 8b ec 43 3e 08 12 ec bd 19 1b 9a 3d 82 e6 07 3e
       0.19133203 -0.11526877 0.075247 0.13271526
000040 0f 74 69 3d d7 49 88 bd 7d 01 a7 3d 81 d5 04 3e
       0.056995448 -0.06654709 0.08154581 0.1297207
000050 ad a9 bf 3d 8f da dc bd 41 95 fa bd 50 89 4b 3c
       0.09358535 -0.10783874 -0.12235499 0.012422875
000060 3b 84 ce bd d4 5d 85 3d ff e1 2c 3e 91 c8 a7 3d
       -0.10083815 0.06512037 0.16883086 0.08192552
000070 c1 3e 00 be 9a 92 86 3d 9f 90 4d 3d d1 d5 09 3e
       -0.12523939 0.06570931 0.05018675 0.1346047
000080 13 4d da bd b0 4c d7 bd a0 21 b1 bd c1 36 22 be
       -0.10659232 -0.10512674 -0.086489916 -0.158412
000090 24 3c b2 bd 05 91 8b 3d d0 58 f6 3d 21 35 37 3d
       -0.08702877 0.0681477 0.120286584 0.044728402
0000a0 69 66 17 3e 43 2a 9a 3d 75 52 86 3d d6 a1 f9 bd
       0.1478516 0.07527592 0.06558696 -0.12189071
0000b0 3a 92 18 3d bf 8f 28 bc eb f3 29 3e 46 0e db 3d
       0.037248828 -0.010288178 0.16596954 0.10696082
0000c0 50 c5 b6 3d f8 3c 08 be 5e 1c 69 3d 74 9f 3e be
       0.08924353 -0.13304508 0.05691182 -0.18615514
0000d0 af 7f 9b bc a4 ac 40 3d 9b 07 30 3e e6 82 b7 bd
       -0.018981783 0.047039643 0.17190401 -0.08960514
0000e0 2a ed 4c 3d f9 79 25 3e f5 13 15 3e 9d d8 6e bd
       0.050030865 0.1615981 0.14558394 -0.058312047
0000f0 f9 f1 17 be 35 7d 20 be 56 77 23 be 09 06 ce 3c
       -0.14838399 -0.15672763 -0.15963492 0.025149362
000100 7a 27 74 3e bc cb 2b bd 73 c8 8b 3d 39 63 5e 3e
       0.23843184 -0.041942343 0.06825342 0.21717538
000110 1c 32 3f be c5 3b ee bd bb a9 c0 bd c3 59 b2 bd
       -0.18671459 -0.11632494 -0.094073735 -0.08708527
000120 56 80 4b 3d 80 09 47 3c 55 a4 3a 3e 02 b6 de 3d
       0.049682938 0.012148261 0.1822675 0.10874559
000130 13 13 a9 3c 26 81 f3 3d cd 76 b6 3d 1a 50 1b be
       0.020638978 0.118898675 0.08909378 -0.15167275
000140 17 5f c4 bd bc e7 30 be c0 f9 5e bd 8d a7 1f 3d
       -0.095884494 -0.172759 -0.0544374 0.03897815
000150 51 be 0f 3d d7 ea 38 be 14 de ad 3b 0b 17 df 3d
       0.03509361 -0.18058334 0.005306015 0.10893067
000160 6b 74 b7 bd 8a 41 d4 3d 52 89 d7 3d c4 15 02 3e
       -0.08957752 0.10364063 0.10524239 0.12703615
000170 1c a1 4d 3e b3 38 42 bd ac 52 38 3e be 0b b2 bd
       0.2008099 -0.047417354 0.18000287 -0.08693646
000180 58 17 03 be fe f6 02 be be 1d 37 be 33 bb ad 3d
       -0.12801874 -0.12789533 -0.1788244 0.08482971
000190 df e0 3f 3e e4 af 3a 3d f5 58 18 3e a2 66 11 bd
       0.18738125 0.0455779 0.14877684 -0.03549827
0001a0 bc 0b a2 3c 68 e8 32 3d 9e 16 bb 3d fb 36 00 3e
       0.019780986 0.04367867 0.09135173 0.12520973
0001b0 fd a6 0e 3e 41 6c cb bd a4 52 0a 3e f9 6e 14 3e
       0.13930888 -0.09932757 0.13508087 0.14495458
0001c0 80 91 2a 3d a3 ed 80 3d 40 9d 5e bd c0 21 10 3e
       0.041642666 0.062953256 -0.054349184 0.14075375
0001d0 e3 f7 ca bd 85 a7 2c bd e1 cb e2 3d ef 93 c8 bb
       -0.09910562 -0.042151947 0.11074043 -0.0061211507
0001e0 65 38 0b 3e 48 73 ea bd e4 75 e1 3d 89 2f 24 3e
       0.13595732 -0.114477694 0.11008814 0.16033758
0001f0 a8 15 e6 bd ec 38 4b bd f7 80 c8 3d ea 30 85 3d
       -0.11234599 -0.04961483 0.09790223 0.0650347
000200 ae 21 91 bd 72 22 20 be 22 a3 fc 3d 3c 6c 02 ba
       -0.07086502 -0.1563814 0.123358026 -0.00049752346
000210 76 28 f9 3d 76 75 eb bc 52 6e 0b bd 60 d0 9c bd
       0.121659204 -0.028742533 -0.034040757 -0.07656932
000220 d8 31 bd 3b f4 74 15 be 58 59 5e 3d c3 65 15 bb
       0.005773764 -0.14595395 0.054284424 -0.002279625
000230 7b 83 1b be 72 69 a6 bc a2 fd 15 3e 63 dc 0c be
       -0.15186875 -0.020313952 0.14647534 -0.13755946
000240 48 4a 87 bd 3f b5 f7 bd 39 12 fe 3d bc e9 38 3d
       -0.06605965 -0.12095117 0.124058194 0.04514478
000250 18 5d b9 3d 9e 8a 86 bd 2d a1 37 be d9 1a 90 3d
       0.09050959 -0.06569408 -0.17932577 0.07036371
000260 f9 bc 5f bd 1b 7b ff bd e5 c5 f2 3d ec a5 7e bc
       -0.054623578 -0.124746524 0.11854152 -0.015542489
000270 c0 eb 37 3e 68 19 06 bd 60 45 7e 3d 92 b0 c6 bd
       0.17961025 -0.032739073 0.06207788 -0.09701647
000280 87 76 41 3d 9e 8a 04 3d 01 71 2d be 1b 7b 25 be
       0.047232177 0.03235876 -0.16937639 -0.16160242
000290 35 8d fa b8 0e 40 22 3e e2 8e e5 3d 90 c2 96 bd
       -0.00011947231 0.15844747 0.11208893 -0.073613286
0002a0 41 79 75 bd da 8f 1a be d7 86 0e be 03 20 fc bd
       -0.05993009 -0.15093938 -0.13918625 -0.12310793
0002b0 c3 d1 8a bb c6 f7 c6 bc 8f 2b 29 3e 02 73 6a bc
       -0.0042364313 -0.02428807 0.16520523 -0.014309647
0002c0 4f 86 00 be 0a 9c 03 bc 4c ea 2e 3e 8f c9 cf 3d
       -0.12551235 -0.008032808 0.17081565 0.10145866
0002d0 20 bf 4c be 46 36 73 3c c0 d0 0a 3e f9 a5 5e 3d
       -0.19994783 0.014844483 0.13556194 0.054357503
0002e0 35 e4 2b bd 25 44 e5 bd 9e bf 05 be 3a 5c 3c be
       -0.041965682 -0.11194638 -0.13061377 -0.18394557
0002f0 ba cb 37 bd 5b 54 0b be 94 33 0a be ae c6 f9 3d
       -0.044872023 -0.13606398 -0.13496238 0.12196098
000300 07 11 b1 3d 86 98 c1 3d a0 e9 2f 3e a2 5a 79 3d
       0.08645826 0.0945292 0.17178965 0.06087745
000310 6d 67 96 3b 00 98 dc 3d ae 33 3f be 7a f8 49 3e
       0.004589966 0.10771179 -0.18672058 0.19723693
000320 ed 17 d0 bd 57 c9 19 3e 59 74 2e 3d e2 59 c8 3d
       -0.101608135 0.15018211 0.042591427 0.09782769
000330 d2 4e 45 be 0f f4 a1 3d 61 5f 30 3e 1b 41 0f be
       -0.19268349 0.079078786 0.17223884 -0.1398968
000340 6f 0c bf bd 36 d2 84 3d 52 27 87 3b 6f 27 8a bd
       -0.093285434 0.06485407 0.0041245604 -0.067458026
000350 8e 82 36 bd ad 67 05 be 65 e8 2e be c4 67 12 be
       -0.0445581 -0.1302783 -0.17080839 -0.14297396
000360 8a 1d a9 3d 9c c4 2d 3e 54 2a ad bd 4a 9d 75 3d
       0.08257587 0.16969532 -0.08455339 0.059964456
000370 cf cc af bd bb a1 21 be 7b d1 ce 3c 8a 9f 3f 3e
       -0.08583986 -0.15784352 0.025246372 0.18713203
000380 17 03 d3 ba c1 e1 ba 3b bf fb e7 bd c5 e3 ce bc
       -0.0016098943 0.0057031815 -0.11327314 -0.025255093
000390 e1 8a e6 bb cb c8 0e 3e 8b 39 f3 bc c8 23 0b 3e
       -0.0070355986 0.13943784 -0.029690525 0.13587868
0003a0 85 1c 2b bd af 03 00 3e 0c 4d 84 bc 8a 62 05 bd
       -0.041775245 0.12501405 -0.01615002 -0.032564677
0003b0 34 cf 21 bd 40 39 09 be 28 de 12 3e e1 c5 f5 3c
       -0.039504245 -0.13400745 0.14342558 0.030001583
0003c0 6f 15 ad 3d f2 df 0e 3e 08 59 9c 37 18 37 2c 3d
       0.08451354 0.13952616 1.8638108e-05 0.04204473
0003d0 d4 fb 30 3e ae 36 38 3d 2f ca f6 bd 1b b9 1e 3e
       0.17283565 0.04497402 -0.12050282 0.155003
0003e0 bd 6d d6 bd ce 30 1f bc 2e 26 26 3e ef 2a 30 be
       -0.1047015 -0.009716226 0.16225502 -0.17203878
0003f0 7c 0e 07 3d 20 e6 5e bd c6 58 d8 bd e3 61 3c bd
       0.032972798 -0.054418683 -0.10563807 -0.04599179

1.8.bias f4 [24]
000000 88 6f 22 3d 76 ab 1c 3e 4c 37 82 3e 4a e3 b2 3d
       0.039657146 0.15299782 0.25432813 0.08734758
000010 ac fa 9d 3d 4e 6f 80 bd f6 b8 2c 3e 0f d3 08 3e
       0.077138275 -0.0627123 0.16867432 0.13361762
000020 8f 23 9c bc 26 2c f4 3d 87 d3 19 3e a1 7c d3 bd
       -0.019059924 0.11922483 0.15022098 -0.103265055
000030 a5 9c 5c 3d 7b c3 9d bd a8 ab d5 bd 15 89 07 be
       0.053860325 -0.077033006 -0.104331315 -0.13235886
000040 0d d4 cc 3d 36 e3 3a 3c 16 76 50 3e de 63 a6 3d
       0.10001383 0.01140671 0.20357546 0.08124517
000050 86 a8 f6 bd f9 67 fd 3d f6 b2 70 3a 8f 9f b5 bd
       -0.12043862 0.12373347 0.00091819407 -0.08868324

1.10.weight f4 [12, 24]
000000 61 70 78 be 54 9b ee 3d 0d d2 68 be c8 b3 42 3e
       -0.24261619 0.1165072 -0.22736378 0.19013894
000010 4d 10 12 3b e5 7a 4d be ee 6b 9b 3d fb be 78 3c
       0.0022287548 -0.20066412 0.07588945 0.015182252
000020 f7 70 d4 3d 7e ff 19 bc 30 f2 47 be 61 95 a5 3e
       0.10373109 -0.009399293 -0.19525981 0.3234053
000030 cd 3d 7c 3e f6 bc 06 3e 87 49 4b be eb 3d c9 3d
       0.2463295 0.1315802 -0.19852267 0.09826263
000040 29 20 a1 3c 4a d7 9a bc c4 67 e1 bd f5 21 15 bd
       0.019668655 -0.018901486 -0.1100612 -0.036409337
000050 24 b5 6a be 44 15 bb 3d c2 ec 38 bc a4 ef 43 3e
       -0.22920662 0.091349155 -0.011286916 0.19134384
000060 ce 95 2f 3e eb a3 94 3e 6b 8e 98 3e c4 8f 1f 3e
       0.1714699 0.2903131 0.29796156 0.15582186
000070 57 c9 1c 3e f0 af 24 bd f3 5d 19 3c 33 09 98 bd
       0.1531118 -0.04020685 0.009360778 -0.074236296
000080 40 fd 7e 3d 7f 4b 1c 3e d9 d2 4d 3e 4e 2f 9f be
       0.062253237 0.15263174 0.20099963 -0.31090778
000090 a7 af 3a be 9f 1c 7c bd b9 45 92 bc d2 09 b6 bb
       -0.18231069 -0.061550733 -0.017855512 -0.00555537
0000a0 11 b1 6b 3d cb e7 72 be 9f 6a 52 3e 07 9e 02 be
       0.05754191 -0.23721235 0.20548485 -0.12755595
0000b0 0a 78 4c 3e ed 01 4b 3e c1 d5 0d be c7 22 84 3c
       0.19967666 0.19824953 -0.13851072 0.016129864
0000c0 c0 96 62 bd 75 89 8f 3e 3c 79 91 3e a4 41 d3 bd
       -0.055319548 0.2803456 0.28412807 -0.10315254
0000d0 0b 52 81 3e 1a 25 0d be 6d ec ce 3d 06 34 3e 3e
       0.25257906 -0.13783684 0.101036884 0.18574533
0000e0 ea cc 46 be 36 c5 1c 3e a0 59 ab 3d 09 65 91 be
       -0.19414106 0.15309605 0.08366704 -0.28397396
0000f0 6e bd 59 be ae e2 10 be 36 c3 80 3d ff bb fd 3d
       -0.21263668 -0.14148971 0.062872335 0.12389373
000100 85 4e 1a 3e f8 45 ab bd af 6c 43 3e 44 b6 77 bb
       0.15069015 -0.08362955 0.19084428 -0.0037797848
000110 f5 fa 0b 3e 2b 49 5e bd ef b9 45 be 45 de 1d 3e
       0.13669951 -0.054268997 -0.1930921 0.1541682
000120 22 70 a1 3c b1 48 9a bd 99 12 c5 bd 5e 5a b0 3b
       0.01970679 -0.07533396 -0.09622688 0.0053818664
000130 52 be ce 3b 12 91 af 3d c0 1b c6 bc a4 f4 d0 3c
       0.006309309 0.08572592 -0.024183154 0.025507279
000140 0e a8 46 3e 86 67 48 bd 02 79 f0 bc 3c be 7e 3c
       0.19400045 -0.048926853 -0.029354576 0.015548285
000150 b6 fd be bd ed 77 81 be fb 7a 93 3e 33 0b 38 bc
       -0.09325735 -0.2528681 0.28804764 -0.011233139
000160 50 1d 41 be cc bd 2c be 3d 11 92 3e 7c d7 d5 3c
       -0.18858838 -0.16869277 0.28528777 0.026103728
000170 22 e1 53 3e 42 49 b2 3d ae cf 83 be cc 4a ee 3d
       0.2069135 0.08705379 -0.25744385 0.1163536
000180 b3 cd e6 ba 53 87 73 3d eb d4 49 bd 66 b8 04 3e
       -0.001760891 0.059455227 -0.04927532 0.12960967
000190 25 c7 93 bd 1e e4 9e be 0e 8d b6 3c 94 38 5d be
       -0.07215718 -0.31033415 0.022284057 -0.21603614
0001a0 9e cb 94 bd f9 14 47 3e 15 49 22 3e fe 6f 82 3e
       -0.072653994 0.19441594 0.15848191 0.25476068
0001b0 37 8c 4a 3e d5 26 18 3e 5a 96 4f be f5 73 10 3d
       0.1978005 0.14858563 -0.20272198 0.035266835
0001c0 57 ed 53 3e 0f 64 29 be 00 e3 60 bd 68 ad 93 3e
       0.20696007 -0.16542076 -0.054903984 0.28843236
0001d0 2d df d4 bd 0a 94 03 3e 0b b2 69 3e 14 4f df 3d
       -0.1039413 0.12849441 0.22821824 0.10903755
0001e0 94 d4 88 3d 33 f4 db bd 84 74 4f 3e 36 6b c8 3d
       0.06681171 -0.10739937 0.20259291 0.09786074
0001f0 aa f2 79 3e 0a 38 0f bd 3e 04 18 3e 39 ab 50 3d
       0.24408975 -0.034965552 0.14845368 0.05094454
000200 43 26 7b be d7 f3 30 3e 05 b0 22 3d a8 fb 3b be
       -0.24526314 0.17280518 0.039718647 -0.18357718
000210 75 9b 36 be 0c bf e0 bd 30 a5 82 3e 21 e7 ec 3d
       -0.1783274 -0.10973939 0.25516653 0.11567522
000220 c1 c2 85 3c da 9d 22 be 02 11 da 3d 10 04 43 3d
       0.016328217 -0.15880528 0.10647775 0.047611296
000230 93 0c f6 3d aa 50 02 3e 8e fa 43 be 3e 91 ce 3d
       0.12014117 0.12726083 -0.19138548 0.100862965
000240 5d b7 37 3d f0 d6 8f bd 03 b8 bb 3d 0a 22 4f bb
       0.044852603 -0.07023418 0.09165957 -0.0031605982
000250 94 d9 67 3e 31 a8 37 3e b7 b3 74 3d 9f 2c fa 3d
       0.22641593 0.17935254 0.059741702 0.12215542
000260 8f b7 0e be b2 80 dd bd cc 3b 86 3d 58 78 b2 bd
       -0.1393721 -0.10815562 0.06554374 -0.0871436
000270 2a 11 14 be 5b 94 9c bc 7b 62 3b bd 44 82 df bd
       -0.14459673 -0.01911371 -0.045748215 -0.10913518
000280 db 37 de bd ce 56 af bd b2 d7 24 3e c9 6c 15 be
       -0.10850497 -0.085614786 0.16097906 -0.1459228
000290 48 72 11 3e c9 7d 0b be 29 64 fd bd 17 29 0d be
       0.14203751 -0.13622202 -0.1237262 -0.13785206
0002a0 8d 73 40 be 32 44 88 3e f1 46 25 3e 6a cb f3 bd
       -0.18794079 0.2661453 0.16140343 -0.119040325
0002b0 81 33 b6 ba f4 19 51 be ad b5 fb 3d b9 96 09 3d
       -0.0013900847 -0.20420057 0.12290511 0.033591006
0002c0 e1 90 81 3e 45 0c 15 be af 1b e0 3d fd 8e 7f 3d
       0.25305846 -0.14555462 0.1094278 0.062392224
0002d0 2c 6c 66 3e 52 98 89 3d 86 e5 88 be a2 e7 92 bd
       0.22502202 0.06718506 -0.26737612 -0.07173087
0002e0 9e 62 9a 3d 04 f8 0f 3e 02 69 9e 3d bd d8 3f 3e
       0.07538341 0.14059454 0.077348724 0.18735023
0002f0 40 ec d0 bd 70 9a c5 bc 5a e5 db 3d 43 26 15 be
       -0.10201311 -0.024121493 0.10737105 -0.14565377
000300 0a c8 84 bc 3c d5 aa bd 74 0d bf bd ef 5d 02 be
       -0.016208667 -0.083414525 -0.09328738 -0.12731145
000310 fb e1 70 be 5b 50 d8 bc 29 45 9c be 82 d7 2a be
       -0.23523705 -0.026405504 -0.30521515 -0.16683772
000320 62 be 68 3d 1f 72 18 3e c5 b5 39 3c b1 86 c0 3d
       0.05682219 0.14887284 0.011334841 0.0940069
000330 dd 11 80 3d fa c9 67 3e 5f ec ad bd d7 a3 6d 3e
       0.06253407 0.22635642 -0.0849235 0.23207031
000340 84 a2 26 3e d0 34 b1 3d eb 59 2b be 02 05 27 3e
       0.16272932 0.08652651 -0.1673352 0.16310504
000350 c9 f1 b0 bd 7f 76 eb bb 1b d0 4b 3e dd ed 18 be
       -0.08639867 -0.0071857567 0.19903605 -0.14934488
000360 af be 8c 3c 88 4e f0 3a 20 7a 2a be 3f 8a df 3c
       0.017180769 0.0018333951 -0.1664815 0.0272876
000370 13 02 74 be c8 6d 4c be f2 87 52 3d 36 f3 19 3e
       -0.23828916 -0.19963753 0.05139918 0.15034184
000380 36 03 80 bc 96 f8 30 3e 66 dd bd 3c 04 45 5c bd
       -0.015626531 0.17282328 0.02317686 -0.053776756
000390 89 78 4c 3e 49 bf 17 be 06 fb 57 be 0f 4b 09 be
       0.19967856 -0.14819063 -0.21091852 -0.13407539
0003a0 09 1c 32 3e 02 da 50 3e 16 5d 2b 3a 14 a8 07 3e
       0.17393507 0.20395663 0.0006537003 0.1324771
0003b0 fe 36 e7 bd f3 cc 09 3e e9 af 53 3e 2c 80 37 be
       -0.11289786 0.13457088 0.20672573 -0.17919987
0003c0 83 26 bb bd e0 25 b3 be f4 7e 87 3c 04 03 3a be
       -0.09138205 -0.34989834 0.016540028 -0.18165213
0003d0 7b 13 46 3d f6 e6 c7 3d 43 92 45 be bf 2c 7d 3c
       0.04835842 0.09760849 -0.19294076 0.015452563
0003e0 b6 e6 c6 3d 1f 69 49 be 6a f6 7c 3d c9 7f d1 3d
       0.09711973 -0.19669007 0.061758436 0.10229451
0003f0 52 a5 86 3e 29 f9 05 bb 08 83 6b be 28 f5 8e 3e
       0.26298004 -0.00204427 -0.22999203 0.27921414

1.10.bias f4 [12]
000000 66 fb 80 bd d9 c7 b1 3e 4f 30 4a 3e d1 92 a0 3e
       -0.062979504 0.34722784 0.19744991 0.31362012
000010 35 6c 5b bd 22 b5 e1 3d ad a2 b9 3e 58 89 87 bc
       -0.05356999 0.110208765 0.36256924 -0.016544983
000020 62 4a fe be c4 3d 5b be 18 8d 04 bf 62 cc ee 3c
       -0.49666125 -0.2141028 -0.5177779 0.029150192
