trained_models/DDQN_rwd2.pt (torch, 45109 bytes, 16 tensors)

0.0.weight f4 [5, 5]
0	0x3f99ce35	1.2016054
1	0x3fa5688a	1.2922528
2	0x3f491910	0.7855387
3	0x3f975b0f	1.1824664
4	0x3fbabfc0	1.4589767
5	0x3fe0090b	1.750276
6	0x3f9a7adb	1.2068743
7	0x3f653fd2	0.8955051
8	0x3f8ca48d	1.0987717
9	0x3fc8ea98	1.5696592
10	0x3fc96485	1.5733801
11	0x3fb272ce	1.3941286
12	0x3f375a09	0.7162176
13	0x3f88f109	1.0698558
14	0x3facbbef	1.3494853
15	0x3f9b21d2	1.2119696
16	0x3f9e3a9f	1.236164
17	0x3f3c2313	0.7349102
18	0x3f88ddab	1.0692648
19	0x3f8b0eed	1.086393
20	0x3fc161a6	1.5107925
21	0x3fcaca3f	1.5842971
22	0x3f6dc895	0.9288419
23	0x4005f82c	2.0932722
24	0x3fcd7d4d	1.6053864

0.0.bias f4 [5, 5]
0	0xbe032dea	-0.12810484
1	0x3c6c2d3f	0.014415084
2	0x3e1226e4	0.14272648
3	0xbe1302a0	-0.1435647
4	0xbda82bdf	-0.08211493
5	0xbd07a69f	-0.033117887
6	0x3cc5de57	0.024153871
7	0x3e84a5f9	0.25907877
8	0xbdb28e30	-0.08718526
9	0xbe01a705	-0.12661369
10	0xbda1f076	-0.079071924
11	0x3e735cbc	0.23765844
12	0x3e80163b	0.2501696
13	0xbe87cbfd	-0.26522818
14	0xbdf35f83	-0.11883452
15	0x3d618aaa	0.05506388
16	0x3e016054	0.12634403
17	0x3e4c5e5e	0.19957873
18	0xbd9d8fd7	-0.07693451
19	0xbd199949	-0.0374997
20	0xbe8e6d1d	-0.27817622
21	0xbdc37e0b	-0.09545525
22	0xbc91fab8	-0.017819747
23	0xbeb95ea6	-0.36205024
24	0xbe2332ce	-0.15937349

1.0.weight f4 [64, 25]
0	0xbe319795	-0.1734298
1	0x3dc5ba84	0.09654716
2	0xbe022dcc	-0.12712783
3	0x3e2ce12e	0.16882774
4	0x3e7b204c	0.24524039
5	0xbc55cccb	-0.013049315
6	0xbbb5e001	-0.005550385
7	0xbc1407a0	-0.009035021
8	0xbd8f40ea	-0.06994803
9	0x3e23b52a	0.15987077
10	0xbdb80515	-0.08985344
11	0xbceb47d5	-0.028720776
12	0x3da07918	0.07835597
13	0xbe696217	-0.22791325
14	0xbe631d06	-0.2217904
15	0xbbbb7d13	-0.005721697
16	0x3e23ccad	0.15996046
17	0xbe54e1d4	-0.20789272
18	0x3da6954a	0.081339434
19	0xbddb24fa	-0.10700412
20	0xbdf1e01d	-0.11810324
21	0x3e563343	0.20917992
22	0xbdce5235	-0.100742735
23	0xbead7696	-0.33879536
24	0x3d1145e1	0.035467032
25	0xbd964402	-0.0733719
26	0x3de84eb1	0.11343134
27	0x3e204cc9	0.15654291
28	0x3dfe555e	0.12418626
29	0x3e4e4578	0.20143688
30	0x3e47c084	0.19507033
31	0x3db263c5	0.08710436
32	0x3da68284	0.08130363
33	0xbc9768d7	-0.018482609
34	0xbb7966bb	-0.0038055617
35	0x3dcebf73	0.1009511
36	0xbd14b9d5	-0.036310036
37	0xbc91e148	-0.017807618
38	0x3e2d16bc	0.16903204
39	0x3c9b8447	0.018983973
40	0x3e2a6c0a	0.16642776
41	0x3dffd166	0.124911115
42	0xbd2946ee	-0.04132741
43	0x3c7893a2	0.015171917
44	0x3e05c346	0.13062772
45	0xbe23f16c	-0.16010064
46	0xbe831341	-0.25600627
47	0xbde7127e	-0.11282824
48	0xbe93ba54	-0.28853095
49	0x3b84858d	0.004044241
50	0xbc8707b5	-0.016483167
51	0x3e3dd0eb	0.18536727
52	0x3e0a3d6f	0.13499998
53	0x3ca003f3	0.019533133
54	0xbd7af988	-0.061273128
55	0xbe0520ce	-0.13000795
56	0x3d976fde	0.07394384
57	0x3ce842d2	0.028352175
58	0x3c407818	0.011747383
59	0x3e321e4c	0.1739437
60	0xbe5fb9f2	-0.21848276
61	0xbe340fec	-0.17584199
62	0xbabc01cb	-0.0014343796
63	0x3cc5fd7f	0.024168728
64	0x3d2127ae	0.039344482
65	0x3e0340bb	0.12817661
66	0x3c363938	0.01112204
67	0xbd990174	-0.0747098
68	0xbdf66578	-0.120310724
69	0xbdc19713	-0.09452643
70	0xbe451e2b	-0.1924979
71	0xbd6d04d9	-0.05786595
72	0xbdf8651d	-0.12128661
73	0xbe8b2699	-0.27177885
74	0xbe184dd0	-0.14873433
75	0xbe3dd552	-0.18538406
76	0xbc96a7e7	-0.018390609
77	0x3dfb4ca8	0.122704804
78	0xbdb9f4c4	-0.090798885
79	0xbdaa913d	-0.08328483
80	0xbc9513c8	-0.018197909
81	0x3ddeb564	0.10874441
82	0xbdfa6a36	-0.122272894
83	0xbd5a65e2	-0.05331982
84	0x3e21a768	0.15786517
85	0xbe16cf36	-0.14727482
86	0x3e28d5a8	0.16487753
87	0x3cbb05ae	0.022829857
88	0x3b840be6	0.0040297387
89	0xbe7155b9	-0.23567857
90	0xbd348840	-0.04407525
91	0xbe1ebeb6	-0.15502438
92	0x3b9241ea	0.004463424
93	0xbdd667c0	-0.104690075
94	0xbdd4726b	-0.10373386
95	0xbdace9fa	-0.08443065
96	0x3e677e67	0.22606812
97	0x3dd05f35	0.10174409
98	0xbdbb9191	-0.09158624
99	0xbc1e1c7e	-0.009650348
100	0xbe4c6d2e	-0.19963524
101	0x3e250552	0.16115311
102	0x3e2bb236	0.16767201
103	0xbe26c4d6	-0.16286024
104	0x3c6e0884	0.0145283975
105	0xbe052ecb	-0.13006131
106	0xbd1bd446	-0.038044237
107	0x3e6d67f2	0.23184183
108	0xbe3db9cb	-0.18527906
109	0x3d5811ac	0.05275123
110	0xbe78db7b	-0.24302475
111	0xbca3705c	-0.019951038
112	0xbdcf5d1c	-0.10125181
113	0x3da8f168	0.082491696
114	0xbe3da771	-0.18520905
115	0xbe1de4b2	-0.15419272
116	0x3d9ed73d	0.07755897
117	0xbe312eda	-0.17303029
118	0xbd72cbf9	-0.059276555
119	0x3c48f1e5	0.012264703
120	0x3d2a9c4b	0.04165296
121	0x3e924256	0.28566235
122	0xbdf72ce5	-0.1206911
123	0xbe75612c	-0.2396285
124	0xbd9bde5c	-0.07610771
125	0xbe771352	-0.24128464
126	0x3d8eb45b	0.06967994
127	0x3d00254f	0.03128558
128	0xbd6a9618	-0.057272047
129	0x3d8c5026	0.068512246
130	0x3d794a3d	0.060861815
131	0xbe118c1e	-0.14213607
132	0xbedef4d6	-0.4354617
133	0x3e405d64	0.18785626
134	0x3f1b253f	0.6060371
135	0xbef327fa	-0.47491437
136	0xbe3d36a1	-0.1847787
137	0x3c3903cc	0.011292409
138	0x3dd4e59c	0.10395357
139	0x3c8595d5	0.016306797
140	0x3d98a44e	0.07453214
141	0x3bea95a3	0.0071589514
142	0x3e295f7a	0.16540328
143	0x3eb8d258	0.3609798
144	0x3e6c152b	0.2305495
145	0x3e456057	0.19275032
146	0xbd83c1ca	-0.06433447
147	0x3e60001e	0.21875045
148	0x3e5101e9	0.20410885
149	0xbe20f7ae	-0.15719482
150	0x3e77f7e8	0.24215662
151	0x3d9cf9ba	0.07664819
152	0x3c808d0d	0.015692258
153	0xbe4b11de	-0.19831035
154	0xbee6660d	-0.44999734
155	0x3e3aebba	0.18253985
156	0x3e454159	0.1926321
157	0x3c37b1f9	0.011211866
158	0x3e57a23a	0.21057978
159	0x3ec03e6e	0.3754763
160	0xbc77abe0	-0.015116662
161	0xbc328f4f	-0.010898425
162	0x3c65f112	0.014034526
163	0x3d562b21	0.052287225
164	0xbd8fb05d	-0.070160605
165	0x3c86029a	0.016358662
166	0xbe8605f5	-0.2617642
167	0xbe3b089a	-0.18265
168	0xbcdf2df3	-0.02724359
169	0xbd51d9e8	-0.051233202
170	0xbe5584fb	-0.2085151
171	0x3e3352fd	0.17512126
172	0xba92f45f	-0.0011211744
173	0xbf20c6ff	-0.62803644
174	0x3ebebf56	0.37255353
175	0xbe45319d	-0.19257207
176	0x3d7b2cc3	0.061321985
177	0xbe5546a1	-0.20827724
178	0xbab79bf7	-0.0014008273
179	0x3ea1af47	0.31579039
180	0x3be06219	0.0068476317
181	0xbd4eb8fd	-0.050469387
182	0x3e4927be	0.19644067
183	0x3c9d904f	0.01923385
184	0x3d93a379	0.07208914
185	0xbe680dd5	-0.22661527
186	0xbe8478d4	-0.25873435
187	0xbd39e0d8	-0.045380443
188	0x3c50b3ac	0.01273815
189	0x3d8bd234	0.068272024
190	0xbce4775b	-0.027888944
191	0xbe0f3acd	-0.13987274
192	0x3ea9b2fb	0.33144364
193	0xbe37b163	-0.17938761
194	0xbe8203db	-0.25393566
195	0x3d142c86	0.036175273
196	0x3f0f148c	0.5589073
197	0x3d916c45	0.07100729
198	0x3ccb5c7b	0.024824372
199	0xbe1a1c94	-0.15049964
200	0xbd825c46	-0.06365256
201	0xbbc6375a	-0.006049079
202	0x3e62dde7	0.22154962
203	0xbca62758	-0.020282432
204	0xbe65426c	-0.22388619
205	0x3e32754a	0.17427555
206	0xbda99307	-0.08279996
207	0xbdfc1329	-0.12308342
208	0xbe084f51	-0.13311507
209	0x3d644a65	0.05573501
210	0xbd347180	-0.044053555
211	0x3dcc7ab1	0.09984339
212	0xbe1d3586	-0.15352449
213	0x3e5386b6	0.20656857
214	0x3e5f2bf7	0.21794115
215	0xbe144861	-0.14480735
216	0xbe21546f	-0.15754865
217	0x3cc3d018	0.023902938
218	0xbdb8f061	-0.09030224
219	0xbd9a4559	-0.07532758
220	0xbb99bda4	-0.0046917964
221	0x3c53c433	0.0129251955
222	0xbd0794ea	-0.033101
223	0xbe00a6ae	-0.12563583
224	0xbc18e3f1	-0.009331689
225	0xbe2e368e	-0.17012998
226	0xbe316cd4	-0.17326671
227	0xbe19eca5	-0.15031679
228	0x3e587965	0.21140058
229	0xbe0b677b	-0.13613693
230	0x3ceb76e6	0.028743219
231	0xbe180308	-0.14844906
232	0xbe0fb28d	-0.14032955
233	0xbe50248e	-0.20326445
234	0x3de19296	0.11014287
235	0xbe720e68	-0.23638308
236	0xbd23a1a4	-0.039949074
237	0xbe6bc129	-0.23022904
238	0x3e1806b0	0.14846301
239	0xbe3173ac	-0.17329282
240	0xbdf930c0	-0.121675014
241	0x3ddc4c6c	0.10756764
242	0x3e430eab	0.19048564
243	0x3d6cb312	0.057787962
244	0x3e90dd87	0.28294012
245	0xbdb32121	-0.08746553
246	0xbd18ca07	-0.037302043
247	0xbe184124	-0.14868599
248	0x3eb7001d	0.35742274
249	0x3db546df	0.08851408
250	0xbd8ed880	-0.06974888
251	0xbe3238c7	-0.17404471
252	0x3e3cbab4	0.18430597
253	0x3d5a4f28	0.053298146
254	0xbe55b3be	-0.20869347
255	0xbeb3cae8	-0.35115743

1.0.bias f4 [64]
0	0x3e174163	0.14771037
1	0x3d8a0ff0	0.06741321
2	0xbd9a3e1d	-0.075313784
3	0xbcd324b7	-0.025774343
4	0x3dedd7fe	0.11613463
5	0x3ba6fbe0	0.005095944
6	0xbbdc6f18	-0.0067271106
7	0xbd5f6cf0	-0.05454725
8	0xbda94e10	-0.08266842
9	0xbbeed23c	-0.0072882455
10	0xbb4c4857	-0.0031171048
11	0xbe310a39	-0.17289056
12	0xbdcaa31f	-0.09894394
13	0x3ea93e80	0.33055496
14	0x3dbe78de	0.09300397
15	0xbdd0d789	-0.1019736
16	0x3e027eb2	0.12743643
17	0x3e01a399	0.12660064
18	0xbdea4e36	-0.11440699
19	0xbe9e09a6	-0.30866736
20	0xbc9f990a	-0.019482154
21	0xbddf86a3	-0.10914352
22	0x3e207f6d	0.15673609
23	0xbe1051e2	-0.14093736
24	0x3d3a16a1	0.045431737
25	0xbd0b09b4	-0.0339448
26	0x3daac2e9	0.083379574
27	0x3dd8eecf	0.10592424
28	0x3dffab1b	0.12483808
29	0xbe475fa7	-0.19470082
30	0xbe327b62	-0.1742988
31	0x3dda3024	0.10653713
32	0xbe867e32	-0.26268154
33	0x3cd7660a	0.026293773
34	0x3c9756d7	0.018474026
35	0x3e57f048	0.21087754
36	0xbdc8cb3c	-0.09804389
37	0xbe2c5a9f	-0.16831444
38	0x3da2c6e4	0.079480916
39	0xbd1eed36	-0.03880044
40	0xbdbcf891	-0.09227098
41	0x3e1fcb9d	0.15605016
42	0x3da51c8f	0.08062088
43	0xbb8c7ef8	-0.004287597
44	0x3e217776	0.15768227
45	0xbdf37fe6	-0.11889629
46	0xbdabbe55	-0.08385912
47	0xbd866aa4	-0.06563309
48	0xbe00391c	-0.12521785
49	0xbe0fc6f8	-0.14040744
50	0x3e9e2a1b	0.308915
51	0x3dc8b4fa	0.098001435
52	0x3e5ee7b9	0.21768083
53	0xbeafd784	-0.34344113
54	0xbe7a5515	-0.24446519
55	0xbe11c04c	-0.14233512
56	0x3dc1b0bc	0.094575375
57	0xbe32fee1	-0.17480041
58	0x3e04460d	0.12917347
59	0xbe0a3d0d	-0.13499852
60	0xbd981d08	-0.07427412
61	0x3e3e5576	0.18587288
62	0xbdf55516	-0.119791195
63	0x3dbd631a	0.09247418

1.2.weight f4 [48, 64]
0	0x3db98956	0.09059398
1	0x3d75bd3c	0.05999492
2	0x3ad5b317	0.0016303983
3	0xbd69570a	-0.056967773
4	0x3d928804	0.07154849
5	0x3e08ad8b	0.13347451
6	0xbcfe4b93	-0.031041896
7	0xbc899ed5	-0.01679937
8	0x3c91857a	0.017763842
9	0xbbe7e0ba	-0.00707635
10	0x3e20eaa6	0.15714511
11	0xbc71a3ff	-0.014748572
12	0xbd8abd81	-0.06774426
13	0xbd12e890	-0.03586632
14	0x3e009819	0.1255802
15	0x3d4e99f7	0.0504398
16	0xbd8810db	-0.0664384
17	0x3d7fa179	0.06240985
18	0x3c9f736c	0.019464217
19	0xbd300ea7	-0.042982724
20	0x3c86cb28	0.016454294
21	0xbd0e7544	-0.034779802
22	0x3df674c8	0.12033993
23	0x3db2dfcc	0.08734092
24	0xbd9e5b77	-0.07732289
25	0xbdab1836	-0.08354227
26	0x3dd27a32	0.10277213
27	0xbd90ba80	-0.07066822
28	0xbd8fde85	-0.07024864
29	0xbd43e527	-0.04782596
30	0x3dd93286	0.1060534
31	0x3c9d267c	0.01918339
32	0xbca0998e	-0.01960447
33	0x3d8114de	0.06302808
34	0xbe0d0214	-0.13770324
35	0xbdaa69dd	-0.08320973
36	0xbdf37f40	-0.118895054
37	0x3ae9b3be	0.0017830057
38	0xbd6bfbb3	-0.057613086
39	0xbd9b2d6f	-0.07577025
40	0x3e153417	0.14570652
41	0xbc72e16a	-0.014824251
42	0x3db16947	0.08662658
43	0xbdf86342	-0.12128307
44	0xbe007d71	-0.12547852
45	0x3dacdeeb	0.08440956
46	0x3d345788	0.04402879
47	0xbe20f64b	-0.15718953
48	0x3d2bd87e	0.04195451
49	0xbd9c6e16	-0.07638185
50	0x3d533770	0.05156654
51	0xbd9d4db6	-0.07680838
52	0xbde42810	-0.11140454
53	0xbd1c0fbc	-0.038100943
54	0xbd268eb9	-0.040663455
55	0xbdc43796	-0.09580915
56	0x3da04e8f	0.07827484
57	0xbd2e7bb9	-0.04259846
58	0xbd95dbcc	-0.073173136
59	0x3ceacce5	0.028662154
60	0x3c1f410b	0.009720097
61	0xbda348b8	-0.079728544
62	0xbd9ffea6	-0.07812242
63	0x3d89a2d7	0.06720512
64	0x3e814f2a	0.2525571
65	0x3d0e8dbf	0.03480315
66	0x3d6040cd	0.0547493
67	0x3e080376	0.1328257
68	0x3e8bc519	0.2729881
69	0x3e29d672	0.1658571
70	0x3eb3e6a6	0.35136908
71	0x3df9c238	0.121952474
72	0x3d44c52a	0.048039593
73	0xbd45ada0	-0.048261285
74	0xbe5f69bc	-0.21817678
75	0x3e36d54b	0.17854802
76	0xbe073793	-0.13204794
77	0xbdb1d278	-0.08682722
78	0x3d6678ef	0.056267675
79	0xbe1f5794	-0.15560752
80	0x3ae339f9	0.0017336003
81	0xbc765e8b	-0.015037189
82	0x3e3a4c99	0.18193282
83	0xbda2cb72	-0.0794896
84	0xbd07cdf3	-0.033155393
85	0x3da901fa	0.0825233
86	0x3c0d7f67	0.008636332
87	0xbde2d952	-0.11076607
88	0x3e857fd3	0.26074085
89	0x3dafef1e	0.0859053
90	0x3de554dd	0.11197827
91	0x3d2441db	0.040101867
92	0x3e1f4957	0.1555532
93	0x3e871e7b	0.26390442
94	0xbe908ddf	-0.2823324
95	0x3e8a4766	0.27007598
96	0x3e1f75cb	0.15572278
97	0x3e34c80f	0.17654441
98	0xbc07d10a	-0.008289585
99	0xbe6c378e	-0.23068067
100	0x3e81ef85	0.2537805
101	0x3da42a86	0.08015923
102	0xbe04a0d2	-0.12951973
103	0x3e2a1a0c	0.16611499
104	0x3da07644	0.078350574
105	0x3e260e2d	0.16216345
106	0xbd6bdbf4	-0.05758281
107	0xbddda717	-0.108228855
108	0xbe202964	-0.1564079
109	0x3d1ccb32	0.03827972
110	0xbe032662	-0.1280761
111	0x3ebdb8a4	0.37054932
112	0xbe49d9c3	-0.19711976
113	0xbd75b617	-0.059988108
114	0x3e9624bb	0.29324898
115	0x3ea2b4f6	0.31778687
116	0xbe8db5f1	-0.27677873
117	0x3e497eac	0.19677228
118	0xbdca21ca	-0.09869726
119	0xbe7115da	-0.23543492
120	0x3cfcacb3	0.030844068
121	0x3e55b1fb	0.20868675
122	0xbd53059d	-0.051519025
123	0x3dadd93e	0.08488701
124	0x3e72929b	0.23688738
125	0x3ded8b01	0.115987785
126	0xbe075356	-0.13215384
127	0x3e9f3ada	0.31099588
128	0x3d383aee	0.044978075
129	0xbe04c991	-0.12967516
130	0x3d206ba8	0.03916517
131	0xbdb839b1	-0.08995379
132	0x3dc35952	0.09538521
133	0x3ddcbdec	0.10778412
134	0xbd247ce0	-0.040158153
135	0x3e1b5acc	0.15171355
136	0x3e03f6a9	0.12887062
137	0xbd022b56	-0.03177961
138	0xbdcb6de1	-0.09933067
139	0x3e0aa5e3	0.13539843
140	0x3d92f7a6	0.071761414
141	0x3df02154	0.11725107
142	0xbd7e9d15	-0.062161524
143	0xbc900f99	-0.017585563
144	0xbe062bef	-0.13102697
145	0xbd5938e2	-0.053032763
146	0xbd535e3d	-0.051603545
147	0xbde49503	-0.11161234
148	0xbd483b93	-0.04888494
149	0xbd3bbb59	-0.045832966
150	0xbd2af66f	-0.041738924
151	0x3d9eef78	0.07760519
152	0x3de25ee6	0.11053257
153	0x3e032edc	0.12810844
154	0xbc0c8786	-0.008577233
155	0xbdc7a008	-0.097473204
156	0x3dc5a8ee	0.096513614
157	0xbd869b8d	-0.06572638
158	0xbe01d7f9	-0.12680043
159	0xbd754d0a	-0.059887923
160	0x3cb81838	0.022472486
161	0xbd4bfd82	-0.04980231
162	0x3c8fa54b	0.017534873
163	0xbc586330	-0.013207242
164	0x3df47555	0.11936442
165	0xbd66d6aa	-0.056357063
166	0x3dd342a7	0.10315447
167	0xbd12b091	-0.035812918
168	0x3d8d8493	0.06910052
169	0xbb0a1418	-0.0021069106
170	0xbc09873d	-0.00839406
171	0x3db2e13e	0.08734368
172	0xbe05ac80	-0.13054085
173	0xbc94f1c3	-0.018181687
174	0xbdde43d8	-0.10852784
175	0xbd5553a9	-0.052081738
176	0xbcc5f612	-0.024165187
177	0xbdb6c9f9	-0.08925242
178	0x3dabe89d	0.08393977
179	0x3d837640	0.06419039
180	0x3c4ea783	0.01261318
181	0xbc5cbfe0	-0.013473481
182	0x3d0da93d	0.034585226
183	0x3cbef8e3	0.023312038
184	0xbd43110f	-0.04762369
185	0x3dd6950f	0.104776494
186	0xbbdfa118	-0.006824624
187	0x3cb5c2c4	0.022187598
188	0x3d587ae3	0.05285157
189	0xbd394e70	-0.04524082
190	0xbc3c8d4b	-0.011508296
191	0xbcd7dc59	-0.026350187
192	0x3d88fcdf	0.06688856
193	0xbd3ed02a	-0.04658524
194	0x3bf68134	0.0075227264
195	0xbc4bee3b	-0.012446935
196	0xbe11c86a	-0.14236608
197	0x3d57433c	0.052554354
198	0x3dc50daa	0.09621747
199	0xbd13b5fd	-0.03606223
200	0x3d24cf9a	0.040237047
201	0x3d0a7974	0.033807233
202	0xbe1f14a9	-0.15535225
203	0x3d885187	0.06656175
204	0xbc4fdd48	-0.012687035
205	0x3d9066a5	0.07050828
206	0xbdc7c9da	-0.09755297
207	0x3dc8edb1	0.09810961
208	0x3df6b116	0.12045495
209	0xbdf47d92	-0.11938013
210	0x3e073a58	0.1320585
211	0x3dc3cb8f	0.0956031
212	0x3c7cdf28	0.015434064
213	0x3dc052ca	0.09390791
214	0x3e03e14e	0.12878916
215	0x3cd5a342	0.026078824
216	0x3dd9a46d	0.10627065
217	0xbc58ab01	-0.013224364
218	0xbcc2044b	-0.023683688
219	0x3dffe52f	0.12494885
220	0xbd9e3248	-0.07724434
221	0x3cdca74b	0.02693524
222	0xbda2d68b	-0.07951077
223	0xbdc3233b	-0.09528204
224	0x3e0f74a8	0.14009345
225	0x3db40133	0.08789291
226	0x3dae3630	0.08506429
227	0xbe164f19	-0.14678611
228	0xbdcd61a0	-0.10028386
229	0x3dad14cc	0.08451232
230	0xbcd2d5d4	-0.025736727
231	0x3d173c44	0.03692271
232	0x3dd1b102	0.1023884
233	0x3d0179a2	0.03161014
234	0xbdf656a0	-0.12028241
235	0xbd742218	-0.059602827
236	0x3cc9bf9e	0.024627503
237	0x3e17c7cb	0.14822309
238	0x3dadd993	0.084887646
239	0x3d85652b	0.06513437
240	0x3e0ebafb	0.13938515
241	0x3cb59021	0.022163453
242	0xbdb65dda	-0.089046195
243	0x3d76f5d3	0.06029303
244	0xbe00e10e	-0.12585852
245	0xbcf23ab3	-0.029569006
246	0x3d6d0b2a	0.057871975
247	0x3d222716	0.039588057
248	0xbda683dc	-0.08130619
249	0xbdc799ec	-0.09746155
250	0x3dd648b4	0.10463086
251	0xbe0b6a05	-0.13614662
252	0xbc522a46	-0.012827462
253	0xbd580ebb	-0.052748423
254	0xbe0b8c46	-0.13627729
255	0x3da8f193	0.082492016

1.2.bias f4 [48]
0	0x3db15ba9	0.08660061
1	0xbca51171	-0.020149918
2	0x3d011ce9	0.03152171
3	0x3cc35a0c	0.023846649
4	0x3daa73a5	0.08322839
5	0xbe0f7e8f	-0.14013122
6	0x3d9b30b8	0.07577652
7	0x3def520a	0.116855696
8	0xbd791ddc	-0.06081949
9	0xbdf9018a	-0.12158497
10	0xbd31bb76	-0.043391667
11	0xbe3959b8	-0.18100631
12	0x3e4da79d	0.2008347
13	0xbd5f0620	-0.0544492
14	0x3deed5e6	0.11661892
15	0x3d6d8ca4	0.057995453
16	0x3e13a1f6	0.14417252
17	0xbe4e94b9	-0.2017392
18	0x3cbc7f23	0.023009842
19	0xbdaf407f	-0.085572235
20	0xbde12e64	-0.109951764
21	0xbc0d7d92	-0.008635895
22	0xbe4ff392	-0.20307758
23	0x3dbfa445	0.09357504
24	0x3d15f8a6	0.036614083
25	0xbd345744	-0.044028535
26	0xbe5f2234	-0.21790391
27	0x3d882c9c	0.066491336
28	0x3daa39ae	0.08311783
29	0xbdcf0bad	-0.10109649
30	0x3e024a82	0.12723735
31	0xbdae4435	-0.08509103
32	0xbc47ded1	-0.01219912
33	0x3e2d8f02	0.16949084
34	0x3dadb7a1	0.0848229
35	0x3df86d6a	0.12130244
36	0x3db0a0de	0.08624433
37	0x3e35243f	0.17689608
38	0x3e55e170	0.20886779
39	0xbc9d57c4	-0.019206889
40	0xbd92f530	-0.07175672
41	0x3dee9d9a	0.11651154
42	0xbdb4a9c0	-0.0882144
43	0xbdd593a5	-0.104285516
44	0xbd983127	-0.0743125
45	0x3d31ec33	0.043438148
46	0x3e44eded	0.19231386
47	0xbd8996d5	-0.06718222

1.4.weight f4 [48, 48]
0	0xbd24206a	-0.040069975
1	0x3e3e3b6f	0.1857736
2	0xbe0bb524	-0.13643318
3	0xbdb312db	-0.08743831
4	0xbdac4d15	-0.0841314
5	0xbd7203ad	-0.059085537
6	0xbcc7a4a8	-0.024370506
7	0x3dab5a0e	0.08366786
8	0x3dc47a09	0.09593589
9	0xbe152a43	-0.14566903
10	0x3cd50776	0.026004534
11	0x3d875b59	0.0660922
12	0x3d809850	0.06279051
13	0xbd4686e1	-0.048468474
14	0xbdd0a91c	-0.10188505
15	0x3da658ca	0.08122404
16	0x3e115960	0.1419425
17	0xbdf8b8c3	-0.121446155
18	0x3bbcca32	0.0057614082
19	0x3dfb0400	0.12256622
20	0xbcc11853	-0.023571169
21	0xbdf3fa74	-0.119130045
22	0x3dc61d78	0.096735895
23	0xbcbc3b10	-0.022977382
24	0x3df81a2e	0.121143684
25	0x3ce0f575	0.027460793
26	0xbdcbdfb6	-0.09954779
27	0x3d416e4b	0.047224324
28	0x3e3bfc6a	0.18358007
29	0x3df6c8d7	0.12050026
30	0xbd687ca7	-0.056759503
31	0x3dae2854	0.08503786
32	0x3b9c32b0	0.0047667846
33	0x3d93c75b	0.072157584
34	0x3e0f2f4a	0.13982883
35	0x3e0c84d9	0.13722552
36	0xbd8679f4	-0.065662295
37	0x3dd14c31	0.102196105
38	0x3d186a57	0.03721079
39	0xbd5abdf6	-0.053403817
40	0xbd39a0aa	-0.045319237
41	0xbde67208	-0.112522185
42	0x3d8e6dfb	0.06954571
43	0x3defa628	0.11701614
44	0x3d423f34	0.047423556
45	0xbd907b46	-0.070547625
46	0x3da3a606	0.07990651
47	0x3db06b3e	0.08614205
48	0xbc9c1d04	-0.019056804
49	0xbd0b8841	-0.03406549
50	0x3d26dd23	0.040738236
51	0xbd8fbbac	-0.070182174
52	0xbdd5809d	-0.10424922
53	0xbd93fa5e	-0.07225488
54	0x3dc3b6b5	0.09556333
55	0xbd92e99b	-0.07173463
56	0xbe6d07dc	-0.2314753
57	0x3dfa9d31	0.12237013
58	0x3c61b634	0.013776351
59	0x3e1b2f6e	0.15154812
60	0xbe338226	-0.17530116
61	0xbcf0ff50	-0.029418617
62	0xbe039311	-0.1284907
63	0x3dc99795	0.09843365
64	0xbd82a41a	-0.06378956
65	0x3e1a2b0b	0.15055482
66	0x3e1712ae	0.1475322
67	0x3e03dace	0.12876436
68	0x3dd718b7	0.10502761
69	0x3ca5b6ec	0.020228826
70	0x3e53b256	0.20673499
71	0xbd670db0	-0.056409538
72	0xbce2fb66	-0.027707767
73	0x3ddd2a7c	0.10799119
74	0x3e1ccec1	0.15313245
75	0x3d548c4b	0.051891606
76	0xbda56ed2	-0.08077778
77	0xbda1cc75	-0.07900325
78	0x3d0bc1f9	0.034120534
79	0x3e5c9bb8	0.21543777
80	0x3e38aa51	0.1803372
81	0xbd114b24	-0.03547205
82	0x3df7086e	0.12062155
83	0xbe0bdc00	-0.13658142
84	0x3d3c0fb8	0.045913428
85	0xbdf20eef	-0.118192546
86	0xbb2e83c5	-0.0026628834
87	0xbca222c9	-0.019791977
88	0xbe1fdeda	-0.15612355
89	0xbd9945b9	-0.07484002
90	0x3d9cf5b8	0.07664055
91	0x3d5ef4a6	0.054432534
92	0x3be750a7	0.007059175
93	0xbe21fd57	-0.15819298
94	0xbe43ab76	-0.19108376
95	0x3e5d8e76	0.21636376
96	0xbd874284	-0.06604484
97	0xbe17a5e8	-0.14809382
98	0x3dc389a8	0.0954774
99	0x3c3aca7e	0.011400817
100	0x3dd5c7c9	0.104384966
101	0x3d864bf6	0.06557457
102	0xbc7fb55f	-0.015607207
103	0x3de6fc9c	0.1127865
104	0xbdcb6e00	-0.0993309
105	0x3d42cd57	0.04755911
106	0x3d55d9ba	0.052209593
107	0x3e3883e3	0.18019061
108	0x3d3f0f8e	0.046645693
109	0xbdd1622b	-0.10223802
110	0x3d0fd92e	0.035119228
111	0x3de2d5e2	0.11075951
112	0xbd6e1f7a	-0.058135487
113	0x3dced227	0.10098677
114	0xbd2455e2	-0.040120967
115	0x3d2f30a4	0.042770997
116	0xbdd025d2	-0.10163464
117	0xbd1d9d1b	-0.038479906
118	0x3c92b9e5	0.017910907
119	0xbdc581eb	-0.096439205
120	0x3df14b4b	0.11781939
121	0xbe143fb7	-0.1447743
122	0x3dd65465	0.10465316
123	0x3d461c44	0.0483668
124	0xbd48a0de	-0.04898154
125	0x3c7abaf4	0.015303362
126	0xbd9326ac	-0.071851104
127	0x3c226011	0.009910599
128	0x3b9bca88	0.004754368
129	0xbdb7319c	-0.08945009
130	0x3d3f29b2	0.046670623
131	0xbe41a8c7	-0.1891204
132	0x3d65f905	0.056145687
133	0xbd06cc51	-0.032909695
134	0xbda0f59d	-0.07859347
135	0xbd92e475	-0.07172481
136	0x3d7a9025	0.061172623
137	0x3d1c5b68	0.03817311
138	0x3e0eae38	0.13933647
139	0xbd95684d	-0.072952844
140	0x3c0d0d95	0.008609195
141	0xbe385a34	-0.1800316
142	0x3dc09031	0.09402502
143	0x3e45e874	0.19326955
144	0x3daff035	0.08590738
145	0xbe5cd458	-0.21565378
146	0xbd2c1994	-0.04201658
147	0x3dc8c821	0.098037966
148	0x3df98fb0	0.12185609
149	0x3a91e8a7	0.0011131958
150	0xbdf543cb	-0.11975821
151	0x3ddb06f4	0.106946856
152	0xbbffa810	-0.007802017
153	0x3de03dfa	0.10949321
154	0x3cd369bf	0.02580726
155	0x3df16ab0	0.11787927
156	0xbd34547a	-0.044025876
157	0xbe12ad89	-0.14324011
158	0xbdac1394	-0.08402172
159	0xbdafc3fc	-0.08582303
160	0xbc8f33b1	-0.017480703
161	0x3e1d966a	0.1538941
162	0xbc8fcb70	-0.017553061
163	0x3d37c625	0.0448667
164	0xbd57b296	-0.052660547
165	0xbe06750c	-0.13130587
166	0x3e4fd965	0.20297773
167	0xbd916050	-0.07098448
168	0xbe3ddf8b	-0.18542306
169	0xbd8c1a6c	-0.06840977
170	0xbd6fb4a5	-0.058521885
171	0xbcc75166	-0.024330806
172	0xbe3eddc7	-0.18639289
173	0x3d011c34	0.031521037
174	0xbe1eb447	-0.15498458
175	0x3d1948b9	0.03742287
176	0xbd8e18ad	-0.069383
177	0x3d50374e	0.050833993
178	0x3e191ed8	0.14953172
179	0xbe8a53cb	-0.27017054
180	0x3de2699c	0.110553
181	0xbe4f67fb	-0.20254509
182	0xbd8fb7ec	-0.07017502
183	0xbd3292ef	-0.043597158
184	0x3ddc4fc0	0.107573986
185	0x3d118fb1	0.035537425
186	0xbdd3bb16	-0.10338418
187	0x3e27816c	0.16357964
188	0x3e08e015	0.1336673
189	0xbe162417	-0.14662205
190	0xbe6528ba	-0.22378817
191	0x3d4d806a	0.050171293
192	0xbe20319f	-0.15643929
193	0xbe8d858b	-0.27640948
194	0xbd807f15	-0.06274239
195	0xbd3f1283	-0.046648514
196	0xbdb98c05	-0.0905991
197	0x3de607a2	0.112319246
198	0xbc59a48d	-0.013283861
199	0xbdee7403	-0.11643221
200	0x3d7305af	0.059331592
201	0x3cf4b2ba	0.02987038
202	0xbdf36277	-0.11884015
203	0xbd07689e	-0.033058755
204	0xbde7dbc8	-0.11321217
205	0x3d9f36d8	0.077741325
206	0x3de43443	0.11142781
207	0x3e2a52ce	0.1663315
208	0x3cda1981	0.02662349
209	0xbde0c24d	-0.1097456
210	0x3d5aad03	0.053387653
211	0xbbab60ac	-0.00523003
212	0xbded31de	-0.11581777
213	0x3db5d977	0.08879369
214	0x3dffc5b4	0.12488881
215	0xbbd15f0c	-0.0063895043
216	0x3de7c51f	0.11316895
217	0x3db975f4	0.09055701
218	0xbdd3f709	-0.103498526
219	0x3c47f1ca	0.012203643
220	0xbdf35a3c	-0.11882445
221	0x3d6ee224	0.058321133
222	0x3e25115d	0.16119905
223	0x3d05307e	0.03251695
224	0xbc039614	-0.008031387
225	0xbe01f839	-0.12692346
226	0xbdc6f50e	-0.09714709
227	0xbd824061	-0.063599356
228	0xbd0575b0	-0.03258294
229	0x3d7f0fc7	0.062270906
230	0xbc4515b6	-0.012029102
231	0xbe20cf2d	-0.15704031
232	0x3e16e291	0.14734866
233	0xbdc98fd9	-0.0984189
234	0x39ed8c9f	0.00045308933
235	0xbd9e50cf	-0.07730257
236	0xbd83fca7	-0.06444674
237	0xbe4030fe	-0.18768689
238	0xbdc0e292	-0.09418215
239	0x3da8c66f	0.08240973
240	0x3d5a98f6	0.05336853
241	0xbdb40b72	-0.087912455
242	0xbd79b5a2	-0.060964234
243	0x3dd1a6da	0.102369025
244	0xbd60ab98	-0.054851145
245	0xbde2e4ff	-0.11078834
246	0xbb86fc34	-0.0041194204
247	0xbdc20adb	-0.09474727
248	0x3d2565be	0.040380232
249	0xbd1ba8e6	-0.03800287
250	0x3dd9f3d4	0.1064221
251	0xbcae5a46	-0.02128328
252	0x3db768d1	0.08955539
253	0x3b80e187	0.003933135
254	0xbdbc2606	-0.0918694
255	0x3b038063	0.0020065538

1.4.bias f4 [48]
0	0xbd0a68ca	-0.03379134
1	0xbe931484	-0.2872659
2	0xbdc18915	-0.094499744
3	0xbe53c3a3	-0.20680098
4	0xbd7930b7	-0.060837474
5	0x3e084c84	0.13310438
6	0xbdc7190c	-0.09721574
7	0xba8c33e2	-0.0010696615
8	0xbd3e588e	-0.04647117
9	0x3d97ac05	0.07405857
10	0xbd9f6f98	-0.07784957
11	0x3d1e311b	0.03862105
12	0x3d884e93	0.06655612
13	0xbca22a86	-0.019795667
14	0xbdde40a8	-0.10852176
15	0x3d8af258	0.06784505
16	0x3cdb0901	0.026737692
17	0xbbcdd108	-0.006281022
18	0xbb8e24b2	-0.0043378705
19	0xbe380085	-0.17968948
20	0x3de4f994	0.11180416
21	0xbddc1796	-0.10746686
22	0xbe3762d8	-0.179088
23	0xbcf0344b	-0.02932181
24	0xbe89d7b1	-0.26922372
25	0xbe10ecd4	-0.14152843
26	0xbc25ff16	-0.010131618
27	0xbb933940	-0.0044929087
28	0x3e0ba152	0.13635758
29	0xbd5cbc05	-0.053890247
30	0xbae64d2f	-0.001757061
31	0x3e3282e3	0.17432742
32	0xbd09574d	-0.033530522
33	0xbdd686f0	-0.10474956
34	0xbd4fa0f1	-0.050690595
35	0x3c3fb0c0	0.011699855
36	0x3dea7d51	0.114496835
37	0xbd7fc8c8	-0.06244734
38	0xbbb51c9f	-0.0055270935
39	0xbcab0c28	-0.02087982
40	0x3d5a3390	0.05327183
41	0xbdb66b64	-0.08907202
42	0x3e11fe43	0.1425715
43	0xbd301503	-0.04298879
44	0x3e007b49	0.1254703
45	0xbe9661da	-0.2937153
46	0x3d7b1093	0.061295103
47	0xbdfa9c0e	-0.12236796

1.6.weight f4 [36, 48]
0	0x3e03deb2	0.1287792
1	0xbd064d87	-0.03278878
2	0x3c8f7ad1	0.017514618
3	0xbe316498	-0.1732353
4	0xbd7f1a2d	-0.062280823
5	0x3d64917e	0.055802815
6	0xbd9bf401	-0.076148994
7	0xbcbd80ce	-0.023132708
8	0xbb32142b	-0.0027172666
9	0x3d837105	0.06418041
10	0xbc82af6a	-0.015952785
11	0x3d9cab57	0.07649868
12	0xbdcce346	-0.100042865
13	0xbdf171c8	-0.1178928
14	0x3c89f98e	0.01684263
15	0xbde88949	-0.1135431
16	0x3d0366dd	0.03208052
17	0x3d3ec8d8	0.04657826
18	0xbd87c737	-0.06629794
19	0x3d2c89fe	0.042123787
20	0xbd6530ee	-0.055954866
21	0x3b438422	0.0029833396
22	0x3d24950c	0.040181205
23	0xbd7d2882	-0.06180621
24	0xbd2533c4	-0.04033257
25	0x3ce8630c	0.028367542
26	0x3da35696	0.07975499
27	0xbd65982a	-0.056053318
28	0xbd63295b	-0.05545936
29	0x3e2f9b4e	0.17149088
30	0x3d40ccf6	0.047070466
31	0x3e183bfc	0.14866632
32	0xbd648709	-0.055792842
33	0xbcf334b6	-0.02968822
34	0x3ded04d4	0.115731865
35	0x3dc5bda4	0.09655312
36	0xbdff5720	-0.1246779
37	0xbb5ea401	-0.0033972266
38	0x3e2c1b33	0.1680725
39	0x3b949f10	0.0045355633
40	0xbd1791f2	-0.03700442
41	0xbd9d7760	-0.076887846
42	0xbd956d2a	-0.07296212
43	0xbe24bab7	-0.16086851
44	0xbe0a1b0e	-0.13486883
45	0x3d5293cd	0.051410485
46	0x3df1c0b0	0.1180433
47	0x3b9cd911	0.0047866185
48	0xbd6f4bdb	-0.05842195
49	0xbe0f9cc0	-0.14024639
50	0xbd4edaa3	-0.050501477
51	0xbd0ff167	-0.03514233
52	0xbe4094de	-0.18806788
53	0xbdfb344d	-0.12265835
54	0xbe141863	-0.14462428
55	0x3e2103cf	0.15724109
56	0xbde9149b	-0.11380883
57	0x3ddd710d	0.10812578
58	0x3b35516f	0.0027666946
59	0x3d838911	0.06422628
60	0x3d57d808	0.052696258
61	0xbe0e6906	-0.13907251
62	0x3dbc79d8	0.09202927
63	0x3d813367	0.06308632
64	0x3dd0c766	0.10194282
65	0xbc9d3495	-0.019190112
66	0xbcf4336e	-0.02980968
67	0xbd5c3907	-0.053765323
68	0x3d452df8	0.048139542
69	0x3e1e153e	0.15437791
70	0x3dfe9d0d	0.12432299
71	0x3c67ac96	0.014140269
72	0xbe0a1787	-0.13485537
73	0xbd722681	-0.05911875
74	0xbd3ec211	-0.046571795
75	0xbd8beeb5	-0.06832639
76	0x3d1bdaba	0.03805039
77	0x3d50930c	0.050921485
78	0x3d25f451	0.0405162
79	0x3e00db0c	0.1258356
80	0xbd70b8ac	-0.058769867
81	0x3dbf7198	0.09347838
82	0x3e10cc94	0.1414054
83	0x3d3f8420	0.046756864
84	0x3c060ffe	0.008182524
85	0xbdc96245	-0.098331966
86	0x3d0ab49b	0.033863645
87	0xbd4ab80f	-0.04949194
88	0x3da88760	0.08228946
89	0x3d9419b3	0.07231464
90	0xbdd82e25	-0.10555676
91	0xbd8ae3e1	-0.06781746
92	0x3dfc646f	0.12323844
93	0x3bb10aea	0.0054029124
94	0x3d748320	0.059695363
95	0xbe11d724	-0.14242226
96	0xbd90fec2	-0.07079841
97	0xbc96d5a4	-0.018412419
98	0x380ba2a2	3.3291646e-05
99	0x3e329f11	0.17443492
100	0xbcaf99fc	-0.02143573
101	0xbc5aab4e	-0.013346506
102	0xbdb4da6e	-0.08830725
103	0xbe28d162	-0.16486123
104	0x3d4ef2d7	0.05052456
105	0x3e206d9e	0.15666816
106	0xbdf011ae	-0.11722122
107	0x3d7b3ad6	0.061335407
108	0xbdfd9a0f	-0.123829
109	0x3dd8a3c7	0.10578113
110	0x3d3b2848	0.045692712
111	0xbe29f4eb	-0.16597335
112	0x3d89a152	0.067202225
113	0x3c03552b	0.008015911
114	0x3e00609d	0.12536855
115	0x3e462fc5	0.1935416
116	0x3bdf97d8	0.006823521
117	0x3df3be32	0.11901511
118	0xbd35fbe9	-0.044429693
119	0xbdcef05d	-0.101044394
120	0x3c7fa005	0.0156021165
121	0x3e5b29b6	0.2140263
122	0x3dbfc841	0.09364367
123	0x3de0f869	0.109848805
124	0xbdcaa518	-0.098947704
125	0x3c81789f	0.015804587
126	0x3db2cd85	0.08730606
127	0x3dcce52c	0.100046486
128	0x3dffde0d	0.12493525
129	0x3dffbf5b	0.1248767
130	0x3cf94527	0.030428482
131	0x3e178ad5	0.14799054
132	0x3e13553e	0.14387986
133	0xbd9758c3	-0.07389977
134	0x3cb9dad5	0.022687355
135	0x3dab3264	0.083592206
136	0x3dc22660	0.09479976
137	0xbd95d919	-0.07316799
138	0xbe333255	-0.17499669
139	0xbd2f84dc	-0.042851314
140	0xbdf1dfe9	-0.118102856
141	0x3e41fd82	0.18944362
142	0x3a559f4f	0.0008149044
143	0x3baaf491	0.005217143
144	0xbd5b732a	-0.053576626
145	0x3dffc78e	0.12489234
146	0xbb65e0c7	-0.0035076605
147	0x3c889b36	0.016675573
148	0x3e06d7c4	0.13168246
149	0x3dc92ffc	0.098236054
150	0xbdf4c230	-0.11951101
151	0x3da89e4c	0.08233318
152	0xbd6d9454	-0.058002785
153	0x3e163466	0.14668426
154	0x3da51ed3	0.0806252
155	0x3dfbc63f	0.12293672
156	0xbdc4dd9b	-0.096125804
157	0x3ddacf48	0.10684067
158	0x3d9f4d4e	0.077784166
159	0x3d887d4d	0.06664524
160	0x3da1ee42	0.07906772
161	0xbe209ad7	-0.15684067
162	0x3da8d2fa	0.082433656
163	0x3d2c9f04	0.042143837
164	0xbdae8fed	-0.085235454
165	0x3da23b25	0.07921437
166	0x3d4e9278	0.050432652
167	0xbdbd662f	-0.092480056
168	0x3dafbec3	0.08581307
169	0xbdafb3af	-0.08579194
170	0x3d8c75af	0.06858384
171	0x3bce5024	0.0062961746
172	0xbc176a7b	-0.0092416955
173	0xbdc56705	-0.0963879
174	0x3de4e103	0.1117573
175	0xbdb34bea	-0.08754714
176	0xbb39131c	-0.002824015
177	0xbdc165ef	-0.094432704
178	0x3db07efc	0.0861797
179	0x3e1f6b0a	0.15568176
180	0x3db179e3	0.08665826
181	0xbd9b3f79	-0.07580466
182	0xbd8e644d	-0.069527246
183	0x3c2e8f90	0.010654345
184	0x3d0f4023	0.034973275
185	0x3d8b2026	0.06793241
186	0x3d8be130	0.068300605
187	0x3d6bd90f	0.05758005
188	0xbda34b15	-0.07973305
189	0x3de403c6	0.11133532
190	0xbc0d6cd3	-0.008631903
191	0x3da1bb6e	0.078970775
192	0x3d740f02	0.059584625
193	0x3d98dbec	0.07463822
194	0x3e078d5e	0.13237521
195	0xbdc38b60	-0.09548068
196	0x3e151b9f	0.14561318
197	0xbc390d83	-0.011294725
198	0x3e0f0c6b	0.13969581
199	0xbe12dabb	-0.14341252
200	0x3d0b176a	0.033957876
201	0x3c531920	0.012884408
202	0x3dc919fc	0.09819409
203	0x3dc60cd3	0.09670415
204	0xbe170854	-0.1474927
205	0x3e03190d	0.12802525
206	0x3d8a276e	0.06745802
207	0xbc2a7628	-0.010404147
208	0xbbca68cb	-0.006177043
209	0xbd758589	-0.059941802
210	0x3dbfd4d6	0.09366767
211	0xbcc7b725	-0.024379322
212	0xbdd12b3a	-0.10213323
213	0xbe0df7b3	-0.13864021
214	0xbcd40567	-0.025881482
215	0xbdee1d67	-0.11626702
216	0x3ce7ab5a	0.028279949
217	0x3dc64667	0.09681397
218	0x3e09a088	0.13440144
219	0x3dd09efa	0.101865724
220	0x3e284f5b	0.16436522
221	0xbd87b443	-0.06626179
222	0x3d5e5e58	0.054289192
223	0xbd7f1c97	-0.062283125
224	0x3d700cfa	0.058606125
225	0x3d840c1b	0.064476214
226	0x3bbd3f33	0.005775356
227	0xbbea185e	-0.007144018
228	0x3d48d62d	0.04903238
229	0xbe425111	-0.18976237
230	0x3decd578	0.115641534
231	0x3e31a131	0.17346646
232	0x3dbebc4f	0.09313261
233	0xbc962277	-0.018326981
234	0x3daa849d	0.08326075
235	0x3e26eb4f	0.163007
236	0x3de09d69	0.109675236
237	0x3e210b77	0.1572703
238	0x3d8d6aea	0.06905158
239	0x3de5a185	0.11212448
240	0xbde625a0	-0.11237645
241	0x3d9c70ec	0.07638726
242	0x3d8dfa4c	0.06932506
243	0xbdc9d177	-0.098544054
244	0x3e11b4df	0.14229153
245	0x3e192b58	0.1495794
246	0x3db8d656	0.09025256
247	0x3daa7889	0.083237715
248	0x3e311862	0.17294458
249	0xbe11a7cf	-0.1422417
250	0x3d66b016	0.056320272
251	0xbde0dcd0	-0.10979617
252	0x3df2425e	0.11829065
253	0x3ce1c6be	0.027560588
254	0xbd1b9eb4	-0.037993148
255	0x3d06c1d6	0.0328997

1.6.bias f4 [36]
0	0xbe123e97	-0.14281689
1	0x3d02ec0f	0.031963404
2	0x3c981b47	0.018567694
3	0x3da6d27a	0.08145614
4	0x3e23b687	0.15987597
5	0xbd612aef	-0.054972585
6	0x3c846a3b	0.016163936
7	0xbd56b68f	-0.052420195
8	0xbde460d9	-0.11151285
9	0xbcba8912	-0.022770438
10	0xbcb0ce57	-0.021582766
11	0xbd2872bd	-0.041125048
12	0x3deb0e46	0.11477332
13	0xbdbb7662	-0.09153439
14	0xbb2e4fcb	-0.0026597853
15	0x3e32072f	0.17385553
16	0x3df2b436	0.11850779
17	0xbe3537fe	-0.1769714
18	0xbd3263c8	-0.04355219
19	0x3dd409cf	0.10353433
20	0xbc45b43d	-0.012066898
21	0xbce10c71	-0.027471753
22	0x3d0c8d08	0.034314185
23	0x3d377076	0.044784985
24	0x3d206f2d	0.039168525
25	0x3c6ec67e	0.014573691
26	0x3c673353	0.014111358
27	0xbde29303	-0.110631965
28	0xbd9ca88e	-0.07649337
29	0xbb6a637b	-0.0035764861
30	0x3d18ebcd	0.037334252
31	0xbd599209	-0.053117786
32	0xbe89ff9b	-0.26952824
33	0xbd13fb54	-0.036128357
34	0x3d873859	0.06602544
35	0x3c3334ce	0.010937883

1.8.weight f4 [24, 36]
0	0xbde54903	-0.111955665
1	0x3e0e7425	0.13911493
2	0xbca19904	-0.019726284
3	0xbd93c5fd	-0.07215498
4	0xbe2170dc	-0.15765709
5	0xbe3e5a75	-0.18589194
6	0xbd401176	-0.046891652
7	0xbdb9d2f3	-0.090734385
8	0x3d77dbb7	0.06051227
9	0x3e409e4f	0.1881039
10	0x3e42fadc	0.19041008
11	0x3d99779c	0.07493517
12	0x3deabddb	0.11461993
13	0xbe1340eb	-0.14380233
14	0xbb573252	-0.003283639
15	0x3d0a3d4c	0.033749864
16	0x3d9424a6	0.07233553
17	0x3d8806e2	0.06641938
18	0xbdcd586e	-0.10026632
19	0xbde98212	-0.11401762
20	0x3d1617b9	0.036643717
21	0x3dbcee5b	0.0922515
22	0xbe095fa6	-0.13415393
23	0xbd986c5f	-0.07442545
24	0x3bbf2236	0.0058329357
25	0xbc8e75b1	-0.017390104
26	0xbdc46aeb	-0.095907055
27	0x3b98c1a3	0.004661755
28	0xbe1723fe	-0.14759824
29	0x3e2540a2	0.16137937
30	0xbd9adaf9	-0.07561297
31	0x3d977abf	0.07396459
32	0xbe799a8e	-0.24375364
33	0x3e29a3cf	0.16566394
34	0x3e08d4cf	0.1336243
35	0x3d4d2d0c	0.05009179
36	0xbe49d19f	-0.1970887
37	0x3d638364	0.055545226
38	0xbd0e55e0	-0.034749866
39	0xbd91e5f6	-0.0712394
40	0xbdcd1296	-0.100133106
41	0xbe15de5b	-0.14635603
42	0x3cfe0ca0	0.03101188
43	0xbde6cbe9	-0.112693615
44	0xbe3c0e1f	-0.18364762
45	0x3d37fd3d	0.04491924
46	0xbd9f5530	-0.0777992
47	0x3da2618e	0.07928763
48	0xbba02026	-0.004886645
49	0xbd257aa7	-0.040400174
50	0xbe1aa09e	-0.15100333
51	0xbe44ec1b	-0.19230692
52	0xbdae746f	-0.08518302
53	0x3d79fc40	0.06103158
54	0xbd22f943	-0.039788496
55	0x3daa0080	0.083008766
56	0x3dac33c8	0.08408314
57	0xbd9557c2	-0.07292129
58	0x3d719c0a	0.0589867
59	0xbd3129ef	-0.04325288
60	0xbde855b5	-0.11344472
61	0xbcb04d76	-0.021521311
62	0x3e2e7201	0.17035677
63	0x3e220b8a	0.15824714
64	0x3df77ceb	0.12084373
65	0x3dbe8f88	0.0930472
66	0xbdb35572	-0.08756532
67	0xbd3f423f	-0.046694037
68	0x3d54aecc	0.05192451
69	0xbd758e92	-0.05995042
70	0xbc9c8bb1	-0.019109579
71	0xbe0f879b	-0.14016573
72	0x3ce1cc24	0.027563162
73	0x3d6f5b55	0.05843671
74	0xbd904e9d	-0.07046244
75	0x3dab4452	0.083626404
76	0xbdbb8294	-0.09155765
77	0xbde65d4c	-0.11248264
78	0x3d239212	0.039934225
79	0x3dfb97c6	0.12284808
80	0x3e066681	0.1312504
81	0xbde1278e	-0.109938726
82	0xbda65cc2	-0.08123161
83	0xbc6bd05e	-0.01439294
84	0x3dd738db	0.10508891
85	0x3d1d15c7	0.038350847
86	0xbe3f6458	-0.18690622
87	0x3e1416e0	0.14461851
88	0xbe1b428b	-0.15162103
89	0xbcbc524f	-0.022988467
90	0x3db28419	0.08716602
91	0x3cb99400	0.02265358
92	0xbdddd608	-0.10831839
93	0xbd85513e	-0.06509636
94	0x3defe64d	0.11713848
95	0xbd821c15	-0.063530125
96	0xbd85267a	-0.065014794
97	0x3e1e176e	0.15438625
98	0x3e1123a4	0.14173752
99	0x3dec944a	0.115517214
100	0x3de4e857	0.11177128
101	0xbdcac811	-0.09901441
102	0xbddb8420	-0.1071856
103	0x3d4e42dd	0.050356735
104	0xbe21b4ad	-0.15791579
105	0x3dda3737	0.10655063
106	0x3e06a656	0.1314939
107	0x3e2cbece	0.16869661
108	0xbe007a08	-0.12546551
109	0xbbe6bca4	-0.0070415307
110	0x3e211330	0.15729976
111	0x3e22d31f	0.15900849
112	0x3d7da759	0.061927173
113	0xbe3a79df	-0.18210553
114	0xbc0d7d6c	-0.00863586
115	0x3d1c6a89	0.038187537
116	0xbdc6b5f4	-0.097026736
117	0x3dd2fe50	0.103024125
118	0xbd90ec74	-0.0707635
119	0x3cac8ccd	0.021063233
120	0xbd858049	-0.06518609
121	0xbced8d8f	-0.028998164
122	0xbc86edd6	-0.01647083
123	0xbe0e9cb1	-0.1392696
124	0xbcc90439	-0.024538146
125	0x3d874601	0.06605149
126	0xbe11fe68	-0.14257205
127	0x3e4d52c7	0.20051108
128	0xbde11e6a	-0.10992129
129	0x3de8e9da	0.11372729
130	0xbdc6f84c	-0.097153276
131	0x3e1be4d8	0.15224016
132	0x3e024b0b	0.12723939
133	0xbd666ad3	-0.05625422
134	0x3d6a4f24	0.05720438
135	0xbe01db67	-0.12681352
136	0xbdc35fe4	-0.09539774
137	0xbdcb45b6	-0.09925406
138	0x3db99084	0.09060767
139	0xbbc6c789	-0.006066267
140	0x3d889bed	0.066703655
141	0xbc82d3fb	-0.01597022
142	0x3df98dae	0.121852264
143	0xbde8b0b2	-0.11361827
144	0x3e144887	0.14480792
145	0xbe4ec15c	-0.20190948
146	0x3ce65470	0.028116435
147	0x3dae332a	0.085058525
148	0x3def1d8f	0.1167556
149	0x3b3f831a	0.002922243
150	0x3d2c5c2e	0.042080097
151	0xbdfa5de3	-0.12224939
152	0xbd3c75d0	-0.046010792
153	0x3d92bdc8	0.07165104
154	0x3c8c3078	0.017112955
155	0x3dc6320a	0.09677513
156	0xbd19b55d	-0.037526477
157	0x3c93b3f8	0.018030152
158	0x3b9b87b2	0.0047464008
159	0x3da670a5	0.08126954
160	0xbcbec97a	-0.02328943
161	0x3e17e4ec	0.1483342
162	0xbe36a7b6	-0.17837414
163	0xbc2d0cfa	-0.010562176
164	0x3e26a772	0.16274813
165	0x3e3e713f	0.18597887
166	0xbe585497	-0.21126018
167	0x3e66dc00	0.22544861
168	0xbe117815	-0.14205964
169	0xbb343578	-0.002749769
170	0x3e09d4c5	0.13460071
171	0xbd82a6c1	-0.06379462
172	0xbdf59289	-0.1199084
173	0xbdb6d0d3	-0.08926549
174	0x3e19bc24	0.15013176
175	0x3cc40d9d	0.023932273
176	0x3e7c24f4	0.24623471
177	0xbdaa2046	-0.08306937
178	0x3d921fe0	0.07134986
179	0x3d9720e8	0.07379323
180	0x3cc83398	0.024438664
181	0x3cebe93d	0.02879774
182	0x3d29e22c	0.04147546
183	0xbe139ff3	-0.14416485
184	0xbcc8c5ec	-0.024508439
185	0x3b06f984	0.00205955
186	0x3e06e08b	0.13171594
187	0x3d2940a1	0.0413214
188	0xbd91693b	-0.07100149
189	0xbdf3734a	-0.11887224
190	0x3e52fc29	0.20604004
191	0xbdc601eb	-0.096683346
192	0x3cdd6657	0.027026339
193	0xbe21f264	-0.15815121
194	0x3cb458ad	0.02201494
195	0xbd049694	-0.032370165
196	0xbdebd00f	-0.115142934
197	0x3c364734	0.011125375
198	0xbda8ec95	-0.082482494
199	0x3baa8204	0.0052034874
200	0x3d79b125	0.060959954
201	0xbe4650f9	-0.19366826
202	0xbd938d0f	-0.07204639
203	0x3cb4e336	0.022080999
204	0xbdbd985d	-0.092575766
205	0xbd3996ed	-0.04530995
206	0x3d8a5351	0.067541726
207	0xbe23b5a0	-0.15987253
208	0x3d8b6c90	0.06807816
209	0xbc0df0c1	-0.008663357
210	0xbd1774e1	-0.0369767
211	0xbc38fc3b	-0.011290605
212	0x3d4a4af5	0.04938789
213	0x3e142fd6	0.14471373
214	0x3e1c53fe	0.15266415
215	0xbe21c0d4	-0.15796214
216	0x3dd8e0d2	0.10589756
217	0x3dfede4a	0.12444742
218	0x3d5bf564	0.05370082
219	0x3dd68c3d	0.10475967
220	0xbd37ea66	-0.044901274
221	0x3e308273	0.17237262
222	0xbdcc094a	-0.09962709
223	0xbdd1837a	-0.10230155
224	0xbde3cf2a	-0.11123498
225	0xbd1a5c93	-0.037685942
226	0xbe5e4b21	-0.21708347
227	0x3daa5b39	0.083181806
228	0xbe2ced94	-0.16887504
229	0xbd0dd105	-0.034623165
230	0xbdf0acee	-0.11751734
231	0xbd484347	-0.048892286
232	0xbe461228	-0.19342864
233	0x3e8d5de4	0.27610695
234	0xbe12ba1f	-0.14328812
235	0xbe86b204	-0.2630769
236	0xbe6f06d4	-0.23342448
237	0x3db70084	0.08935645
238	0xbdb7146e	-0.089394435
239	0xbe0bcfa5	-0.13653429
240	0xbdcc0ffe	-0.09963988
241	0xbd81482c	-0.06312594
242	0xbda8a0f6	-0.08233826
243	0xbd9bcbf0	-0.07607257
244	0x3d8c8675	0.06861583
245	0x3e51b0fb	0.20477669
246	0x3dff6990	0.12471306
247	0xbdb44f40	-0.08804178
248	0x3eb10033	0.34570464
249	0x3dd9ff9e	0.10644458
250	0x3d9f5a9a	0.07780953
251	0xbc73f08c	-0.014888894
252	0xbdf02d38	-0.11727375
253	0xbe2e37bf	-0.17013453
254	0xbe1a96f9	-0.15096654
255	0x3d923a38	0.071400106

1.8.bias f4 [24]
0	0xbdd4d5e6	-0.103923604
1	0x3e01c62f	0.12673257
2	0xbe09d7a2	-0.13461164
3	0xbca5d209	-0.020241754
4	0x3d10eb69	0.035380755
5	0xb9073c2f	-0.00012897023
6	0xbe033566	-0.12813339
7	0xbcf12089	-0.02943446
8	0x3d96eeeb	0.07369789
9	0x3bccb974	0.0062476937
10	0xbe151fdb	-0.14562933
11	0xbddeb43f	-0.10874223
12	0xbd0af92c	-0.033929035
13	0x3ec1936f	0.37807795
14	0x3d671777	0.056418862
15	0xbeaea40f	-0.34109542
16	0xbd671984	-0.056420818
17	0x3d55546b	0.05208246
18	0x3e7cdaa3	0.24692778
19	0x3d646a35	0.05576535
20	0x3e11de52	0.14244965
21	0xbdeccfc9	-0.115630694
22	0x3e03d268	0.12873232
23	0x3d425390	0.047442973

1.10.weight f4 [12, 24]
0	0x3e32db59	0.17466487
1	0xbda4acc3	-0.08040764
2	0xbc4c9a3d	-0.012487945
3	0xbe2c9a1e	-0.16855666
4	0xbdbdd9f2	-0.092700854
5	0x3c5870bb	0.013210471
6	0x3db3e408	0.08783728
7	0x3e20290e	0.15640661
8	0x3d436160	0.047700286
9	0x3d92f798	0.07176131
10	0x3dda6f56	0.10665767
11	0xbe1923b1	-0.14955021
12	0x3e2b2c41	0.167161
13	0xbe60ee99	-0.21966018
14	0x3cdb3205	0.02675725
15	0x3e46d6f5	0.19417937
16	0xbc1bf604	-0.009519104
17	0x3e73ac1e	0.23796126
18	0xbd9af500	-0.07566261
19	0x3dcf761d	0.1012995
20	0x3e193913	0.14963178
21	0x3dd2cc89	0.10292918
22	0xbdc62b5c	-0.09676239
23	0xbe0833bf	-0.1330099
24	0xbe62f3ad	-0.22163267
25	0xbe32038c	-0.17384166
26	0x3cdb7573	0.026789403
27	0x3e376f0c	0.17913455
28	0x3e586b83	0.21134762
29	0xbe531961	-0.2061515
30	0x3e8c53e5	0.27407756
31	0xbe0ceb00	-0.1376152
32	0xbdbf24d9	-0.093332
33	0xba8c67a3	-0.0010712038
34	0xbdfd099d	-0.12355349
35	0x3e3ea651	0.18618132
36	0xbd2addc1	-0.041715387
37	0x384aa6c5	4.831587e-05
38	0xbe50f689	-0.20406546
39	0xbd926e75	-0.07149974
40	0xbba8b32b	-0.0051483116
41	0x3d9e22c4	0.07721475
42	0x3d345dac	0.044034645
43	0x3e1ea588	0.15492833
44	0xbdbbdf34	-0.09173432
45	0x3e0aed3d	0.13567062
46	0xbe2e8086	-0.17041215
47	0x3e0af053	0.13568239
48	0xbdef7502	-0.11692239
49	0x3e0c76a6	0.13717136
50	0xbd9e62ae	-0.077336654
51	0x3e7604f6	0.2402533
52	0xbd7538a4	-0.05986847
53	0x3e6f7e48	0.23388016
54	0xbe1473af	-0.14497255
55	0xbe1cd737	-0.15316473
56	0xbdfd93c2	-0.12381698
57	0x3e7560cb	0.23962705
58	0x3c8fc418	0.01754956
59	0x3e507187	0.20355807
60	0x3e5900bd	0.21191688
61	0xbc5954a9	-0.013264813
62	0x3e2b26aa	0.16713968
63	0xbe8ed911	-0.27899984
64	0xbe8aa718	-0.27080607
65	0xbe676084	-0.22595412
66	0x3e585a39	0.21128167
67	0xbe0c183d	-0.13681121
68	0x3e272e05	0.16326149
69	0x3e23dbd7	0.16001831
70	0x3de920bf	0.11383199
71	0x3e41b6f8	0.18917453
72	0x3e311a9a	0.17295304
73	0x3e0c4bf5	0.1370085
74	0x3dae421c	0.08508703
75	0xbb833f86	-0.0040053753
76	0x3e0f1fe4	0.13977009
77	0xbe26863d	-0.16262145
78	0x3e2e3364	0.17011791
79	0x3df3b1e1	0.11899162
80	0xbe752731	-0.23940732
81	0x3da980ca	0.08276518
82	0xbe80c8bd	-0.2515315
83	0x3e160b93	0.14652853
84	0xbe20464d	-0.15651818
85	0xbd6bb5cc	-0.057546422
86	0xbdd76d30	-0.10518873
87	0xbe3a931a	-0.18220177
88	0xbe120545	-0.14259823
89	0xbe96b03f	-0.2943134
90	0xbda1a70a	-0.07893188
91	0x3e083785	0.13302429
92	0x3d9c946c	0.07645497
93	0x3e37e553	0.17958574
94	0xbe41f2e7	-0.18940316
95	0xbe781a82	-0.24228862
96	0x3dd705e1	0.10499168
97	0x3cf87bc8	0.030332461
98	0xbd9367f7	-0.07197564
99	0x3c82cf98	0.015968129
100	0x3e45cc9c	0.19316334
101	0xbe7fdd0b	-0.24986665
102	0xbd44f559	-0.048085544
103	0x3e48e133	0.19617157
104	0x3a326415	0.00068050745
105	0xbe4b40d4	-0.19848949
106	0xbe98ce60	-0.29844952
107	0xbeb13ef5	-0.34618345
108	0xbe397157	-0.18109642
109	0x3e4534e0	0.19258451
110	0x3e16b5cb	0.14717786
111	0xbe1f42ce	-0.15552828
112	0xbec410e8	-0.38294148
113	0x3a2ab1c0	0.0006511472
114	0x3d854c0e	0.06508647
115	0xbe4bb3c4	-0.19892794
116	0x3e191b29	0.14951767
117	0x3e0b83f2	0.13624552
118	0x3d5392e8	0.051653773
119	0xbe35f5dc	-0.17769569
120	0xbd3c8871	-0.04602856
121	0xbe395aa3	-0.18100981
122	0xbe0fd5b7	-0.1404637
123	0xbe28024c	-0.16407126
124	0x3d86adb9	0.06576104
125	0xbdf52866	-0.11970596
126	0x3dc4207a	0.09576507
127	0x3db1fa30	0.086902976
128	0xbd17aa53	-0.03702767
129	0xbd86a65a	-0.06574698
130	0x3e13611f	0.14392518
131	0xbe44795a	-0.19186917
132	0xbe44acb9	-0.19206513
133	0x3e8493f6	0.25894135
134	0xbdd915b3	-0.10599842
135	0xbea21033	-0.31652984
136	0xbdd58cde	-0.10427259
137	0xbe6fa1db	-0.23401587
138	0xbe1686eb	-0.14699905
139	0x3e0e4424	0.13893181
140	0xbe18dad6	-0.1492723
141	0x3d203174	0.039109662
142	0x3d2272f5	0.039660413
143	0x3d8cb7d0	0.06870997
144	0x3e40969b	0.18807451
145	0xbd55bf54	-0.052184418
146	0xbe58cb26	-0.21171245
147	0x3d50f8d9	0.05101857
148	0x3d435289	0.047686134
149	0x3d9aa8ce	0.07551728
150	0x3d4d382a	0.05010239
151	0x3c9c3a74	0.019070841
152	0x3e238d16	0.15971789
153	0x3d7f9be6	0.062404536
154	0xbe07bd70	-0.13255858
155	0xbe197d5f	-0.14989232
156	0x3d3bce18	0.045850843
157	0x3e57928f	0.21052001
158	0xbdbacfcb	-0.091216646
159	0xbe9f4199	-0.31104735
160	0xbe0b48fd	-0.13602062
161	0xbdf8a671	-0.12141121
162	0x3d9bd7d0	0.07609522
163	0x3e06a25c	0.13147873
164	0x3da200f6	0.079103395
165	0x3e0a3e41	0.1350031
166	0xbe4f645d	-0.2025313
167	0xbd076a35	-0.03306027
168	0x3cdda493	0.027056014
169	0xbe8a5570	-0.2701831
170	0x3e3e101e	0.18560836
171	0xbe23616d	-0.15955134
172	0x3e000464	0.12501675
173	0x3e80c9da	0.25154
174	0x3e545d63	0.20738749
175	0xbcc91c60	-0.024549663
176	0xbd8192e3	-0.063268445
177	0x3d705182	0.058671482
178	0x3d8c6bf5	0.06856529
179	0x3e4efecc	0.20214385
180	0xbe3b5f3b	-0.18298046
181	0x3e901172	0.2813831
182	0x3e6ab30c	0.22919863
183	0xbe7238a0	-0.23654413
184	0x3eab933a	0.33510762
185	0x3db27288	0.08713251
186	0x3e3d85e8	0.18508112
187	0xbe11b81c	-0.14230388
188	0x3df2e45a	0.11859961
189	0xbe190520	-0.14943361
190	0x3e6cc965	0.23123701
191	0x3e88ce99	0.26720122
192	0x3e7aefbc	0.24505514
193	0xbe0e8485	-0.1391774
194	0xbe203d58	-0.15648401
195	0xbe70d7f1	-0.23519875
196	0xbd83ba4a	-0.06432016
197	0x3dbec99c	0.09315798
198	0xbdfc997d	-0.12333963
199	0xbe3e09dc	-0.18558449
200	0x3e0dc4ba	0.13844576
201	0xbcd58882	-0.026066069
202	0x3e1853e1	0.14875747
203	0xbe805766	-0.2506668
204	0x3d2b319f	0.04179537
205	0x39d89cf4	0.0004131567
206	0xbde76070	-0.11297691
207	0x3dc1b87f	0.09459018
208	0xbbe9f164	-0.0071393717
209	0x3c8fabd4	0.017537989
210	0xbe04df06	-0.12975702
211	0xbd8e189d	-0.06938288
212	0x3e81333a	0.25234395
213	0xbd3fd589	-0.046834502
214	0x3e0b9fac	0.13635129
215	0x3cc33c71	0.023832532
216	0x3e4fcb27	0.2029234
217	0xbddbf4a2	-0.107400194
218	0xbd20894d	-0.03919344
219	0x3e358553	0.1772664
220	0xbc27a682	-0.01023257
221	0x3da377b2	0.079818144
222	0xbe180fe3	-0.1484981
223	0xbe2fce67	-0.1716858
224	0x3e039898	0.12851179
225	0x3e36ce88	0.17852223
226	0xbdf3b8ea	-0.11900504
227	0x3b257a79	0.0025250001
228	0xbca7ca88	-0.020482317
229	0xbe0e59e2	-0.13901475
230	0x3c64ba8e	0.013960494
231	0x3ea12d0b	0.31479678
232	0xbe8ef3ef	-0.27920482
233	0x3e5f7fde	0.21826121
234	0xbe8c83c7	-0.27444288
235	0xbdc3763a	-0.09544034
236	0xbd9c745b	-0.076393805
237	0xbd018ceb	-0.03162853
238	0xbe8a7245	-0.27040306
239	0x3e1e5451	0.15461852
240	0xbcd924bf	-0.02650678
241	0x3e4c98e0	0.19980192
242	0xbe2f715b	-0.17133085
243	0x3d1cf913	0.038323473
244	0x3e5b0083	0.21386914
245	0x3e549893	0.20761327
246	0x3ea7ea62	0.32796007
247	0x3de08d56	0.10964458
248	0xbe9be81e	-0.3045053
249	0x3c1ed0ca	0.009693334
250	0xbdcda1e1	-0.100406416
251	0x3dfd35c8	0.123637736
252	0xbda98278	-0.08276838
253	0x3db39049	0.087677546
254	0xbd81f14f	-0.06344854
255	0xbd95cb58	-0.07314175

1.10.bias f4 [12]
0	0xbeaa9ff6	-0.33325166
1	0x3e1c042f	0.15235971
2	0x3ec7b373	0.39004096
3	0x3e33dcdf	0.17564724
4	0x3eb66605	0.3562471
5	0x3ef6632d	0.4812254
6	0x3f1f8624	0.6231406
7	0x3eef5131	0.46741632
8	0xbebfeee8	-0.37486959
9	0xbe9389eb	-0.2881616
10	0x3d48d343	0.0490296
11	0xbec704fe	-0.38870996

1.12.weight f4 [4, 12]
0	0x3f3af5ca	0.73031294
1	0xbe1cbfe3	-0.15307574
2	0xbf642e72	-0.8913337
3	0xbed7dfd0	-0.42162943
4	0xbe1bd626	-0.1521841
5	0xbf134e2d	-0.5754116
6	0xbf58f552	-0.8474933
7	0xbf66c293	-0.90140647
8	0x3f0d0c3c	0.55096793
9	0x3f1a81fe	0.603546
10	0xbf1fa228	-0.62356806
11	0x3f403f16	0.7509626
12	0x3f391afc	0.723068
13	0xbe3b68da	-0.18301716
14	0xbf564c87	-0.8371052
15	0xbf7793c8	-0.9670987
16	0xbf7a5642	-0.9778787
17	0xbf34eb98	-0.7067199
18	0xbf8a5ae7	-1.0808991
19	0xbe85d7ef	-0.26141307
20	0x3f0e2afe	0.5553435
21	0x3e375176	0.17902169
22	0xbed5b7c4	-0.41741765
23	0x3e6ebc30	0.23313975
24	0x3f8088ab	1.0041708
25	0xbe9676be	-0.29387468
26	0xbebbdc46	-0.36691493
27	0xbf510ddd	-0.8166178
28	0xbec87fdd	-0.39160052
29	0xbf5fe9a8	-0.87465906
30	0xbf13beaa	-0.57712805
31	0xbf788e1a	-0.9709183
32	0x3f22090d	0.6329506
33	0x3f59f1a1	0.8513432
34	0xbed8fb2c	-0.4237913
35	0x3edbb188	0.42908883
36	0x3f4975c9	0.7869535
37	0xbeea855f	-0.4580488
38	0xbeabd6be	-0.33562273
39	0xbeedcd14	-0.46445525
40	0xbf082e5e	-0.5319575
41	0xbf7a1003	-0.9768068
42	0xbf4ae52c	-0.7925594
43	0xbf26b457	-0.65118927
44	0x3eef1949	0.4669898
45	0x3edba0fa	0.42896253
46	0xbf224a20	-0.63394356
47	0x3f0346d5	0.51279956

1.12.bias f4 [4]
0	0xbf714bb0	-0.94256115
1	0xbf902ab8	-1.1263037
2	0xbf970d64	-1.1800961
3	0xbf8f213c	-1.1182017
