trained_models/DDQN_rwd8.pt (torch, 45109 bytes, 16 tensors)

0.0.weight f4 [5, 5]
000000 1c 0a 80 3f b1 4a 80 3f aa c4 81 3f 76 d9 7f 3f
       1.0003085 1.0022794 1.0138142 0.99941194
000010 a2 2c 81 3f a0 1b 80 3f 40 e8 7e 3f 95 18 82 3f
       1.0091746 1.000843 0.99573135 1.0163752
000020 c9 0b 80 3f bb db 7f 3f 7b ea 7f 3f 3b 9f 7f 3f
       1.0003597 0.9994466 0.99967164 0.9985234
000030 30 53 81 3f 3a bb 7f 3f f9 c6 80 3f 26 e2 7f 3f
       1.0103512 0.9989506 1.0060722 0.9995445
000040 00 a2 7f 3f e8 79 80 3f 80 0e 80 3f d1 af 80 3f
       0.9985657 1.0037203 1.0004425 1.0053655
000050 a4 10 80 3f 98 dc 7f 3f f8 12 7f 3f 15 6c 7f 3f
       1.0005078 0.99945974 0.9963832 0.99774295
000060 90 1a 80 3f
       1.0008106

0.0.bias f4 [5, 5]
000000 53 fe 41 3b ae 3a 48 3b 62 4b 48 bb 9d 4a 14 bb
       0.0029601052 0.0030552554 -0.003056251 -0.002262748
000010 53 b7 42 3b db 39 b7 3a fb 31 47 3b da d0 f7 ba
       0.002971132 0.0013979034 0.003039478 -0.0018906847
000020 6f 77 3e 3b 26 46 4d ba a4 21 a8 ba 8f cb e1 ba
       0.0029062887 -0.00078305823 -0.0012827409 -0.0017226803
000030 79 b1 08 bb 1f 1c 61 ba e6 2c e6 39 b2 fc b7 ba
       -0.0020857735 -0.0008587259 0.0004390247 -0.0014037101
000040 90 16 2b 3b 6e 8c c7 ba 56 ab 85 3a 61 a5 8b 3a
       0.0026105978 -0.0015224346 0.0010198157 0.0010654145
000050 3e 1c 09 3b 57 0c ef ba 84 c8 d7 3a 58 2b 18 bb
       0.0020921375 -0.001823793 0.0016462957 -0.0023219194
000060 c8 97 2d 3b
       0.0026488174

1.0.weight f4 [64, 25]
000000 c2 00 76 3d f5 dc eb 3d 90 50 56 3d 95 4d 6f bc
       0.060059316 0.115167536 0.052322924 -0.014605899
000010 e3 7f c6 bd 66 7d 2d 3e c1 2a f5 3d 5a f5 ca 3d
       -0.09692361 0.16942367 0.11971045 0.09910078
000020 3b cf 71 3d 54 1a b0 3d a8 71 9a 3d 16 86 f1 bd
       0.05903552 0.08598772 0.075412095 -0.11793153
000030 36 80 98 bc 9e df b5 3c f5 52 c5 bc f1 a2 87 3d
       -0.018615823 0.022201356 -0.024087409 0.066228755
000040 d7 50 04 be 76 f1 6f bd 49 bc b7 bd 27 45 97 bc
       -0.12921463 -0.058579884 -0.089714594 -0.018465592
000050 aa 70 3b be bb 75 36 be dd 6f 06 3e e2 6c 46 bd
       -0.18304697 -0.17818348 0.1312861 -0.048443682
000060 26 fc 96 3b 2a 67 42 bd 75 bc f1 3d f1 35 0a be
       0.004607695 -0.047461666 0.118035235 -0.1349714
000070 9b bc f5 bd c0 51 01 3d 3a 27 18 3c 90 00 ef bd
       -0.11998864 0.031572104 0.009286696 -0.11670029
000080 99 b3 2a 3e 94 47 9d bd d7 14 99 bd 5a 6c 1d be
       0.16670074 -0.07679668 -0.07474678 -0.15373364
000090 a2 55 88 3c 8d 6f d5 bd 15 bc c3 bd 26 80 0e 3e
       0.016642395 -0.10421667 -0.09557358 0.13916072
0000a0 f2 57 24 be ba e8 22 be ce c0 ae 3d 63 eb c5 bd
       -0.16049173 -0.1590909 0.08532868 -0.09664037
0000b0 75 cc b2 bd a0 5e a0 3d 57 65 a1 bd b5 2a 57 bc
       -0.08730403 0.07830548 -0.07880657 -0.013132741
0000c0 5f 13 1c 3e 31 a2 be 3d 27 75 ae 3d f0 6f 17 3d
       0.15241764 0.09308279 0.08518439 0.036971986
0000d0 cd e7 a1 bd 2f 15 f6 bd 8b bd 59 3d c8 5d 6a 3a
       -0.079055406 -0.12015759 0.053159278 0.0008940366
0000e0 0b d6 90 3c cb cc e0 bd 9f ef 17 be f9 4a e6 3c
       0.017680189 -0.10976561 -0.14837502 0.028111922
0000f0 95 05 22 3e 38 7f 32 3e 6c f7 31 3d d8 a7 36 3e
       0.15822442 0.17431343 0.04344885 0.17837465
000100 7b 54 06 be 8a 8e 21 3e 69 f8 13 3e 93 2f 4b 3d
       -0.13118164 0.1577703 0.1445023 0.049605917
000110 bd 4f 05 bc 55 d1 27 3e b7 55 cb 3d 3a 09 94 bc
       -0.008136687 0.16388448 0.09928458 -0.018070806
000120 92 c8 4a be bc c2 fc bd a8 dc 2a be d4 ca 2d 3d
       -0.19803074 -0.1234183 -0.16685736 0.04242976
000130 5c dc e7 bd 3e e9 a6 bd 35 f5 19 3b fc ff 67 bd
       -0.11321327 -0.08149956 0.0023492102 -0.05664061
000140 d8 0e 47 3e 47 f0 b1 bd 6a 5d 54 be d5 6a b0 bc
       0.19439256 -0.086884074 -0.2073876 -0.021535316
000150 b3 aa 8f bd 54 14 b3 3d a3 01 50 3d 7e 5d af bd
       -0.0701498 0.08744112 0.05078281 -0.08562754
000160 79 ed e7 3d 55 71 9b 3d 5e 37 10 bd 04 19 35 be
       0.11324591 0.07589976 -0.035209052 -0.17685324
000170 9e 0a 95 3d 69 92 e9 ba af 65 46 be a4 a7 75 3d
       0.07277416 -0.0017820123 -0.19374727 0.059974328
000180 1f c5 0d 3e e4 3e 58 bc ee 7a 77 3b 59 e9 45 be
       0.13844727 -0.013198588 0.003776248 -0.19327296
000190 67 e5 b1 bd d7 ed 21 3e 23 2e f5 bc b7 41 cc bd
       -0.08686333 0.15813385 -0.029929226 -0.099734716
0001a0 d4 7a 20 3e 88 cf bd 3d 36 70 33 3e be 96 0d 3e
       0.15671855 0.09268099 0.17523274 0.13827035
0001b0 9e 7c 13 bd 11 10 e5 bc 37 ee 0f 3d 03 49 18 3e
       -0.036007516 -0.027961763 0.03513929 0.14871602
0001c0 c2 b6 1e be 3d 38 43 be d4 4b 0c be 8d fb 3f be
       -0.15499404 -0.19064422 -0.13700801 -0.18748303
0001d0 7e a9 85 3d 06 68 a5 3d f6 b9 9a bd da 40 d9 3d
       0.06526469 0.080764815 -0.075550005 0.106080726
0001e0 cf c0 8b 3d 99 c4 40 3d a0 96 f0 bd ac 1e 15 be
       0.06823885 0.04706249 -0.117474794 -0.14562482
0001f0 e2 57 3f 3d 47 fe 09 be a5 45 d4 3d a1 4a da bc
       0.04671467 -0.13475905 0.10364846 -0.026646914
000200 95 c0 af 3d bf 34 93 3c c5 45 54 bd 7a 81 ea bd
       0.08581654 0.017969487 -0.05182435 -0.11450477
000210 a1 76 20 3e ec 24 89 bb de f9 a7 bd 08 c0 71 3d
       0.15670253 -0.0041853096 -0.08201955 0.059021026
000220 c5 a8 bb bb f1 a7 22 be a5 86 4e be 96 af 82 bd
       -0.005726906 -0.15884377 -0.2016855 -0.063811466
000230 b0 b8 f2 3d d6 0c 8e bd a6 41 02 3e 2c 68 23 be
       0.118516326 -0.06936042 0.12720355 -0.15957707
000240 fe 3f e7 bd 3a bc 3d 3e 74 09 90 3d dc 25 14 3e
       -0.112915024 0.18528834 0.07033053 0.14467567
000250 b3 cf 42 be fe fb 29 3d 7c 4f aa bc fa 99 bd 3c
       -0.19024543 0.041500084 -0.020789854 0.02314471
000260 ca 8f 09 be 9c a3 20 3e 94 ec 49 3e d3 b2 7a 3d
       -0.13433757 0.15687412 0.19719154 0.061205696
000270 32 98 9e 3d 63 12 13 be 14 b9 20 be 06 db ad 3d
       0.07743873 -0.14362483 -0.15695602 0.08489041
000280 c3 7e 3d be 7c fe 86 3d ba 77 15 be 64 26 f0 bd
       -0.18505387 0.06591508 -0.14596453 -0.117260724
000290 7f ab c4 3c 93 7d 7e bd 2a 76 98 3d 01 be 02 be
       0.024007557 -0.062131476 0.07444413 -0.12767793
0002a0 bb 2f 25 3e 8d ad 90 3d 14 2a 41 3c 84 6b 4f 3c
       0.16131489 0.07064352 0.011789817 0.012659911
0002b0 01 85 da bc cb 8b d1 bd 9d 65 23 be c3 88 11 be
       -0.02667475 -0.102317415 -0.15956731 -0.14212327
0002c0 33 d5 0e be 4c c5 17 3e b4 44 fb bd 1c 5a 51 be
       -0.13948517 0.14821357 -0.122689635 -0.2044453
0002d0 e3 b3 4b 3e fa c6 15 3d 2d 98 5a 3c 1a 24 2b be
       0.1989284 0.036566712 0.013341946 -0.1671299
0002e0 b7 c5 84 bd 04 3d f6 bc ee ce 92 bc 67 66 21 be
       -0.064830236 -0.030058391 -0.017920937 -0.1576172
0002f0 f3 9c 2b 3e 9b 39 d5 3d 02 66 b6 3d a0 dc 9a bd
       0.1675909 0.10411378 0.08906175 -0.07561612
000300 14 99 82 bd 8b 32 e1 ba ef c9 3b be 68 49 0a be
       -0.063768536 -0.0017181201 -0.1833875 -0.13504565
000310 7b cd 16 3c 07 bd 06 3e 76 25 03 3e 01 ae 4d be
       0.009204264 0.13158046 0.12807259 -0.20085908
000320 c7 08 14 3e c7 ba ae 3d ca 19 34 3e 89 91 04 3e
       0.14456473 0.08531719 0.17587963 0.12946142
000330 97 5e 07 3e 2b 2a 0d bd f2 a3 8f 3d 4e 8f 30 be
       0.13219677 -0.034464043 0.07013692 -0.17242166
000340 25 f0 1d 3e 5f 22 d7 bd 9c 2f 03 be 0b b2 35 3e
       0.15423639 -0.10504603 -0.1281113 0.17743699
000350 18 e6 21 3e 20 1c d5 bc fb aa 30 3e 25 d4 11 be
       0.1581043 -0.026014388 0.17252724 -0.14241083
000360 4b 5d 0b be d7 10 d9 3c ef b3 31 be 24 ad 4b be
       -0.13609807 0.026497288 -0.17353795 -0.19890267
000370 af f4 ce bc 6a e7 40 be 25 fc 3c be e9 0b 42 3e
       -0.025263159 -0.18838277 -0.1845556 0.18949856
000380 ed 79 0a be 7b 2a fa bc 8a 4c 15 bd b5 67 7b bc
       -0.13523073 -0.030537834 -0.036449946 -0.01534455
000390 45 27 1e 3e d8 c8 1f 3e 49 8f 29 3c 79 4c 34 3d
       0.15444668 0.1560396 0.010349103 0.044018243
0003a0 c7 2c 88 bd 8f 11 2c be d8 3c ab bd f3 44 34 be
       -0.066491656 -0.16803573 -0.083612144 -0.17604427
0003b0 ca 5d ff 3d 5d 69 ca 3d d4 37 05 3e 04 a0 22 ba
       0.12469061 0.09883378 0.13009578 -0.0006203654
0003c0 72 73 48 3d 96 38 68 3d eb 2a 26 bd dd 2b bc bd
       0.048938222 0.05669459 -0.040568274 -0.09188054
0003d0 7c 76 e8 3d 2e 4f 02 3e 66 ac 4e 3d 20 38 43 3e
       0.11350724 0.12725517 0.05045738 0.19064379
0003e0 74 27 28 3e 0a 59 39 3e e2 f3 41 3e b8 b0 a0 bc
       0.164213 0.18100372 0.1894069 -0.019615516
0003f0 65 5c 1e 3c b5 9c 00 be eb 82 35 be 3b f6 3b bd
       0.009665583 -0.12559779 -0.17725722 -0.04588912

1.0.bias f4 [64]
000000 bc b4 9d 3d 53 59 2d bc f9 27 92 3d 62 0c 4b 3e
       0.07700488 -0.010580379 0.071365304 0.19828942
000010 ab de cb 3b df 62 de bc 3e 14 09 bd b8 0d 15 be
       0.0062216124 -0.027146755 -0.03346657 -0.14556015
000020 69 f9 24 3e e0 29 4c 3e 00 5d 11 bd 14 f8 61 3d
       0.16110767 0.19937849 -0.035489082 0.055168226
000030 fb dd 43 bd 41 e2 65 bc 29 91 ad bd 7e 00 31 3e
       -0.04781912 -0.014030994 -0.08474953 0.17285344
000040 c2 82 30 bb 09 a2 15 3e 89 97 32 3d 68 ac 1e be
       -0.0026933406 0.14612593 0.043601546 -0.15495455
000050 3c b9 13 3e 67 8d 3c 3e 12 f2 96 3d 0e bb 15 3e
       0.1442613 0.18413316 0.0737039 0.14622137
000060 ed fa 3f 3e 91 39 4b 3e 83 33 62 3c b3 4f 21 be
       0.18748064 0.19846179 0.013806227 -0.15753059
000070 c5 86 10 be ca e0 1a be 76 d8 3c be f7 b8 80 bc
       -0.1411391 -0.15124813 -0.18441948 -0.015713198
000080 fc 75 6f 3d 4e 30 a6 bc a5 c6 5a b9 1d 6a 32 bd
       0.058462128 -0.020286705 -0.00020864101 -0.04355823
000090 19 0f 0c bd 19 c5 00 be d7 81 d2 bd 01 5e b0 bd
       -0.034194086 -0.12575187 -0.10278671 -0.0861168
0000a0 60 f9 1d be 70 c7 1e 3d b2 e5 d6 bd 61 a3 84 3b
       -0.1542716 0.038764417 -0.1049303 0.0040477966
0000b0 fd 3c f5 bd d2 77 3e be e8 7e ec bd 3f 49 1c 3e
       -0.11974523 -0.18600395 -0.11547643 0.15262316
0000c0 9b 83 ea bc f7 0e e5 3c 29 9c 25 3e 6f a0 75 bd
       -0.028627208 0.027961237 0.16172852 -0.059967455
0000d0 e0 d1 06 bd d6 54 8c bd 66 af 9e bb 15 c7 4e be
       -0.032914996 -0.06852119 -0.0048426865 -0.20193131
0000e0 7c 8e 20 be 5b 03 4c 3e ad ce 28 be 44 90 2e 3d
       -0.15679353 0.19923155 -0.1648509 0.04261805
0000f0 b1 c5 cf bd 52 cd 94 bd 4c a1 a2 3d 06 fe ec bd
       -0.101451285 -0.07265724 0.07940921 -0.115718886

1.2.weight f4 [48, 64]
000000 ff 9f 92 3d 57 97 e1 3d d1 ca 5d 3d 04 46 28 bc
       0.07159423 0.11015194 0.0541485 -0.010270599
000010 6a 8f 80 bd 8a ab d9 3c 04 c5 ce 3c 90 6b 5e bc
       -0.06277354 0.026571054 0.025240429 -0.01357545
000020 c4 8f e1 ba 96 ba 71 3d 59 ad 7b bb c5 26 a5 3d
       -0.0017208983 0.059015833 -0.0038402884 0.08064035
000030 3c e1 da 3b c4 8a 68 bd d5 5d e7 bd c2 cd ef bd
       0.006679682 -0.056772962 -0.11297194 -0.11709167
000040 6f 43 f7 bd 8d 8c c5 3c a3 1c 5f 3d 73 8d 91 3c
       -0.12073409 0.024114871 0.05447067 0.017767644
000050 be 4d 5d bb 06 f5 ca bd 17 82 93 3d ad 97 c8 bd
       -0.0033768262 -0.09910016 0.07202547 -0.09794555
000060 72 11 ec 3d ea b0 2e 3c 15 e4 8e 3d e9 a2 a5 3a
       0.11526765 0.010662297 0.06977097 0.0012637052
000070 32 6c 5b 3d 0d c2 05 bd 69 0f 82 bd 02 09 c6 3c
       0.05356998 -0.032655764 -0.063505955 0.024174217
000080 ff 6a 05 3d d9 68 37 3c 82 87 c2 bd db 9e 0a bb
       0.032572743 0.011194431 -0.09498502 -0.0021151814
000090 6c 68 67 bd 56 4c 98 3d 91 fe c0 bd bc 2f 84 3c
       -0.05649607 0.07436435 -0.09423555 0.016136043
0000a0 d0 7d 14 3d 23 6f a5 bd 32 ad b6 3d fd 7f 5f bd
       0.036252797 -0.08077838 0.08919753 -0.05456542
0000b0 17 89 e9 bd 07 69 4c bd d7 72 72 3c 56 5b 56 bc
       -0.11403101 -0.04990485 0.014797888 -0.0130833
0000c0 2a b8 9d 3d 7a cc 37 3d 91 83 9b bd 51 38 e1 3d
       0.07701142 0.04487274 -0.07593454 0.109970696
0000d0 a5 00 8a 3d ca f6 8f 3d d3 f2 e3 bd fc a4 f6 3d
       0.06738404 0.07029493 -0.111302994 0.12043187
0000e0 e6 20 3b bc 1d 3a ec bd c5 8e 69 3c 99 fb ca 3d
       -0.011421418 -0.11534522 0.01425523 0.0991127
0000f0 83 9e f4 3d c9 3a 08 3d b0 d8 a2 3b 4c 9e ed 3d
       0.11944296 0.033259187 0.004969679 0.11602458
000100 21 c8 7b 3c 59 fe a0 bd d9 49 41 bd b9 bc 44 3d
       0.015367539 -0.07861013 -0.047189567 0.048031542
000110 91 db 0e 3d 4e a4 4b 3d 8e af c9 3c 4e 94 9d bd
       0.034877364 0.04971724 0.024619844 -0.076943025
000120 75 e6 7c 3d 9e 33 5c 3d 58 f0 93 3d 11 47 98 bd
       0.06174322 0.053760163 0.07223576 -0.0743543
000130 0d fa 0c bd 2e 56 1a bc c6 c9 8b bc ca 4d 7b bd
       -0.034418155 -0.009419961 -0.017063987 -0.061353482
000140 9f b0 52 3d b8 ea aa 3d 11 18 d0 39 1e 9a 0c 3d
       0.05143797 0.0834555 0.00039690782 0.034326665
000150 bc 69 a5 bc bf 6d 4f bc 9f 31 f4 bd 11 1e bd 3c
       -0.02019202 -0.012660443 -0.11923527 0.023085626
000160 ce 50 bb 3c 19 2f a1 bc ee 04 bc 3c 33 6d 81 3d
       0.02286568 -0.019675778 0.02295157 0.06319656
000170 0a db e0 bd 3f ce b0 3c 60 a7 e5 bd b0 cc bc 3d
       -0.109792784 0.02158272 -0.11213565 0.092187285
000180 6f 68 ab 3d 76 51 f3 3d 0b b8 e6 3d 2a b4 65 bd
       0.083695285 0.11880772 0.11265572 -0.05608002
000190 b0 ef 45 3c eb d7 a6 3d b9 e3 9f 3d 44 9e ba 3d
       0.012081072 0.08146652 0.078071065 0.09112218
0001a0 b9 d1 ef bc 79 41 a7 bd 67 58 1f bc a0 0f c4 bd
       -0.029274808 -0.08166785 -0.009725667 -0.09573293
0001b0 90 21 11 3c 95 99 c2 bd d8 f4 f2 3d cf d7 00 bd
       0.0088581 -0.0950195 0.118631065 -0.03145581
0001c0 84 8a 5e bd 89 b0 0a 3c 21 10 a1 3d 29 57 98 bd
       -0.054331318 0.008464941 0.078644045 -0.074384995
0001d0 a3 d5 0e 3d ad ed e1 bd 07 d8 1e bd 02 30 ac 3b
       0.03487171 -0.11031661 -0.03878024 0.0052547464
0001e0 05 9a 90 3d ab e3 6d 3d 8c 30 cb bc 5c e1 7a 3b
       0.07060627 0.05807845 -0.024803422 0.0038281297
0001f0 16 96 69 bd 78 ea da bc ab 66 92 3d af 63 90 bd
       -0.0570279 -0.026723132 0.071484886 -0.07050263
000200 b4 01 a5 bd ba 96 45 bd d1 c7 db 3d 2b 5f 03 3e
       -0.080569655 -0.048239447 0.10731471 0.12829272
000210 9f 39 a5 bc 3c 5d 6a 3d 99 d1 c5 3b c3 34 c8 bd
       -0.020169077 0.05721782 0.006036949 -0.097756885
000220 16 80 b4 3b a5 0c 02 3e 7f e0 c1 3d cd 37 ac 3d
       0.005508433 0.12700136 0.09466647 0.08409081
000230 6d 77 d9 bc 3a 35 4a 3d e1 29 8d 3d 10 92 4b bd
       -0.026546204 0.049367167 0.068927534 -0.049699843
000240 58 ac 44 bd af bf d7 3b 24 30 c7 3c 5e 87 91 3d
       -0.048015922 0.0065841298 0.024314947 0.07105897
000250 e7 9a 3c bd 1f ed 2f bd 5a bf a1 3c d2 cc e2 3d
       -0.046046164 -0.042950746 0.019744564 0.110742226
000260 dc c3 c9 3c f2 cf e2 3c 44 fc 7f 3d 57 d3 c1 bc
       0.024629526 0.027687047 0.06249644 -0.023660345
000270 65 6d 6b bc 99 0c c3 bd 80 c7 11 bd 6d 9c 9b bd
       -0.014369343 -0.09523887 -0.03559065 -0.07598195
000280 2f 73 14 bc 9e 17 d9 bc 2f 39 eb 3c 6a dc 86 3d
       -0.009060665 -0.02650052 0.02871379 0.065850094
000290 fe 70 96 bc d9 2c 03 bd 6b 6f 9b bd 16 80 8a 3d
       -0.018364426 -0.032025192 -0.07589611 0.06762712
0002a0 29 86 19 bd 93 33 81 bd 52 d7 6c 3d 31 1f af bd
       -0.03748146 -0.06308665 0.057822533 -0.08550871
0002b0 a6 f8 a9 3d 98 c0 9c bd 31 f0 6f bd ee 87 6d 3d
       0.08299379 -0.07653922 -0.058578674 0.05799096
0002c0 9d f7 d4 bd 34 9f 8a 3d 1b f1 47 bd 4c 04 a0 3d
       -0.10398791 0.06768647 -0.04881392 0.078133196
0002d0 6d 43 6e bd a6 52 74 bc c9 6e 43 bd ff 8f 77 bd
       -0.05816977 -0.014912283 -0.047713075 -0.06044006
0002e0 ef 1b c2 bd 72 89 e8 bc 74 7e 1a 3d 51 53 1d bd
       -0.09477984 -0.028385852 0.03771825 -0.038409535
0002f0 77 24 b3 bd c1 3e 50 bc 4a ff e1 bd 80 55 3c bd
       -0.087471895 -0.012710274 -0.11035021 -0.045979977
000300 93 a4 a8 bd a5 7f bf bc 03 64 9c 3d b8 ed 85 3d
       -0.08234515 -0.023376295 0.07636263 0.06539482
000310 67 87 ec 3d 65 d1 11 bd 35 51 01 3b 79 ac 8c bd
       0.115492634 -0.035600085 0.001973224 -0.06868834
000320 9c 18 f2 3b 0c 20 2c bc 08 22 71 3c bd fd ab bd
       0.0073881876 -0.010505687 0.014717586 -0.08398006
000330 d4 1d 2a bd 1f 47 d0 bd e1 3f e1 bd 30 ba 66 bd
       -0.041532353 -0.10169815 -0.10998512 -0.056329906
000340 a6 ed 32 bd 89 b9 15 3c 57 d4 32 bd 08 61 68 3d
       -0.04368367 0.009138473 -0.043659534 0.05673316
000350 32 a4 a5 bc 59 d1 d2 bb 46 ea e1 bd 28 e3 04 be
       -0.020219896 -0.0064336476 -0.11031012 -0.12977278
000360 0e c1 b0 bd 7a cf 56 bd db 1d 16 3d 88 ab be 3d
       -0.08630572 -0.05244396 0.036649566 0.09310061
000370 64 c8 33 3d 7f ea c3 bd 73 3d 95 bb 22 3e 8e 3d
       0.04389228 -0.09566211 -0.0045544445 0.06945445
000380 28 c1 4e 3d db 52 80 3d 6a 03 99 3d dd af 8b bd
       0.050477177 0.062658034 0.07471354 -0.06820653
000390 30 af b2 3d 0e f1 95 bd 37 54 f4 3d ee 7e 38 3d
       0.087248206 -0.07321368 0.11930125 0.045042925
0003a0 56 2e da bd 25 b6 dd 3d a8 2e 94 3d a4 4b 81 bd
       -0.10653369 0.10825757 0.072354615 -0.063132554
0003b0 ac 97 24 bc f1 cc 15 3c 3d ea c1 3d f2 18 80 3d
       -0.010045927 0.0091431 0.094685055 0.06254758
0003c0 82 ac c3 bc da 4d 0e 3b 18 a8 98 bc a3 53 7f 3d
       -0.02388597 0.0021713884 -0.01863484 0.06233562
0003d0 b7 f2 6c bc c8 6b ef 3d 7c 50 73 3c 5b c4 26 3d
       -0.014462165 0.116904795 0.014850732 0.040714603
0003e0 6e 82 d2 bd 78 9f 86 bd 69 87 c2 bd b3 7b bc 3d
       -0.10278784 -0.06573385 -0.09498484 0.09203281
0003f0 59 21 78 bd 94 02 e9 3d 8f 1a 0e 3d 82 d0 04 be
       -0.060578678 0.11377445 0.034693297 -0.12970164

1.2.bias f4 [48]
000000 51 35 39 bd 4a 50 d6 3d 89 57 86 bd 20 fb 2e bd
       -0.045216862 0.10464533 -0.06559665 -0.04271996
000010 88 4b 0a be f7 ff 9a 3d 44 3c 80 3d 8b 80 08 b9
       -0.13505375 0.07568353 0.06261495 -0.00013017857
000020 b1 60 17 bc 7c ec 90 3d 24 7e 34 bd f2 23 cc bd
       -0.009239362 0.07076356 -0.04406561 -0.099677935
000030 51 68 d9 3d 92 3e 07 3d 67 15 ce bd b6 f6 d7 bd
       0.106156 0.033018656 -0.10062676 -0.10545103
000040 24 4a 8d 3d 21 b5 59 3d c0 89 a7 3d 48 c5 2c bd
       0.06898907 0.053151254 0.081805706 -0.04218033
000050 32 0a b7 bc c2 9a 50 3c cf b5 e8 bd b6 ca 8d bd
       -0.022343729 0.01273221 -0.11362802 -0.0692343
000060 60 77 83 3d f4 f5 40 3d f5 d2 cf 3d 5c 71 e3 3d
       0.06419253 0.04710956 0.10147659 0.11105606
000070 6b f4 95 bd 3f 38 18 3c 56 27 47 bc 60 29 06 be
       -0.0732201 0.009290754 -0.0121553745 -0.13101721
000080 19 57 8a 3d 13 70 d3 bd dc 1e 2a bd e8 7b 9e bd
       0.06754894 -0.10324111 -0.041533336 -0.07738477
000090 07 3e 87 3d b4 bb e1 bd 68 84 24 3d 02 0a 98 bd
       0.06603628 -0.1102213 0.040165335 -0.07423784
0000a0 7a 5c cf 3d 06 ec 82 bd 7d 01 dc 3d 34 26 fb bd
       0.101250604 -0.06392674 0.10742471 -0.12263146
0000b0 41 91 44 bd a9 43 03 3e 6c b9 f3 bd ac c5 8c bd
       -0.047990087 0.12818779 -0.11900601 -0.068736404

1.4.weight f4 [48, 48]
000000 5e 46 ea bc e0 ed fc 3b ce 33 03 3e 02 d5 1b 3e
       -0.028598007 0.0077187866 0.1281273 0.15217975
000010 ad e1 aa bd 38 7a 04 3e b0 df cd 3d 89 fd d0 3c
       -0.083438255 0.12937248 0.10052431 0.02551152
000020 d9 39 e5 bd 19 db 1a 3d 53 c1 81 bd 94 09 28 bd
       -0.11192674 0.037806604 -0.06335702 -0.04102476
000030 4e 18 00 be 21 95 c9 bd e9 41 e4 bd 12 ba da bd
       -0.12509272 -0.09842897 -0.11145384 -0.10680021
000040 b7 aa 9d 3d 6b 1f b4 bd 9b c0 f0 bd 61 e2 03 be
       0.07698577 -0.08795055 -0.117554866 -0.12879325
000050 79 48 b3 3d d1 3a 60 bc 6f 46 fe 3d 92 e1 17 bd
       0.087540574 -0.013685898 0.12415778 -0.037080355
000060 e1 ff 2d bd 0d 3e cc bc 71 60 34 3d 4f c8 9a 3a
       -0.042480353 -0.024931932 0.044037286 0.0011808964
000070 b6 4c 5a 3c f2 95 a8 bb d8 39 9c bd e0 96 91 bd
       0.013323953 -0.005144828 -0.0762822 -0.07108855
000080 32 b3 de 3d ea ca 83 bd dd b2 f8 bd 81 b9 8e bd
       0.108740225 -0.06435187 -0.121434905 -0.06968976
000090 7d de a7 bd 2a 60 f9 3d 3b ab 22 bd 3a 1c db 3d
       -0.08196733 0.12176545 -0.03971408 0.10698743
0000a0 59 8d c1 bd 00 6f d9 bc 0a 94 06 3e f9 10 81 3d
       -0.09450788 -0.026542187 0.1314241 0.063020654
0000b0 37 54 e5 3c 41 21 8b bd b2 eb e1 bd 9a 93 ec bd
       0.027994258 -0.06793452 -0.110312834 -0.1155159
0000c0 77 59 33 bc 63 f2 59 bd bc 74 21 3e 4a ce ce 3d
       -0.010946623 -0.053209674 0.15767187 0.1009794
0000d0 df a2 da bd 6f cc 1c 3c 9b ff ba 3d a5 fb 9f bd
       -0.106755964 0.009570225 0.09130784 -0.07811669
0000e0 e6 bb 1e be ac b1 17 be 73 cd 7b bd 75 4a 44 bd
       -0.15501365 -0.1481387 -0.06147523 -0.04792257
0000f0 b7 39 c6 bc 6b c7 a6 3d 8d 33 e9 bd 22 46 2c bd
       -0.024197442 0.08143505 -0.11386786 -0.04205907
000100 3a 2a fa bd 5c ee b6 ba e0 85 a2 bd 04 d3 21 3e
       -0.12215085 -0.0013956535 -0.07935691 0.15803152
000110 f5 21 e7 bd e4 68 b1 3d 6d 43 ee bc 56 76 a1 3d
       -0.11285774 0.086625844 -0.029084885 0.07883899
000120 5d 06 da 3d 3f e4 fb 3d fb 36 54 bd 95 b0 41 3d
       0.10645745 0.12299394 -0.051810246 0.047287542
000130 b1 f7 ec 3d 55 32 01 3e 52 bb d6 3d 03 59 f3 bc
       0.11570681 0.12616856 0.10484947 -0.02970553
000140 df a5 08 3e 55 77 60 3c f3 1f 6a bc 25 04 f9 3c
       0.13344525 0.013700326 -0.014289844 0.030397484
000150 e9 f9 15 bb ec c0 fb bd bc 00 87 bd 5f 46 e6 bd
       -0.0022884554 -0.12292656 -0.06591937 -0.11243891
000160 09 14 67 bd 5a 94 19 3e 13 27 b0 3d 9f b4 06 be
       -0.05641559 0.14997998 0.08601203 -0.13154839
000170 e8 eb 03 be 1b 61 ff 3d 06 8b ad bd c6 a1 18 be
       -0.1288296 0.12469693 -0.08473782 -0.14905462
000180 29 e1 d0 bd 3b e5 12 be a2 de e7 3d 4a f6 ff 3d
       -0.10199196 -0.14345257 0.11321761 0.12498148
000190 20 dd 14 be a9 0e 99 3d c2 84 91 bd 00 82 19 3d
       -0.14537477 0.07473499 -0.071054 0.037477493
0001a0 51 4d 03 be 95 0a aa 3d ab 5c 90 3c c2 58 b2 bd
       -0.12822463 0.083027996 0.017622313 -0.087083355
0001b0 9e 87 fa 3c db d5 bf bc e1 d4 d5 3d fe c7 99 bd
       0.030582245 -0.023417404 0.10440994 -0.075088486
0001c0 ac f3 03 3e e2 d9 17 be f0 cf 42 bc 60 6a c7 bd
       0.12885922 -0.1482921 -0.0118903965 -0.09737086
0001d0 16 d7 df bd 6f 3a 58 3c d6 fa dc 3d 33 10 fb bd
       -0.10929696 0.013197525 0.10790031 -0.12258949
0001e0 fb 32 ca 3b c0 fc 97 3d e7 33 a2 3d 5d ac 5f bd
       0.006170628 0.07421255 0.07920056 -0.054607738
0001f0 6f c6 9e 3d b1 84 49 3d cb da fa 3d 9a 7b 94 bd
       0.07752692 0.04919881 0.12248763 -0.072501376
000200 83 5e 35 3d ea 14 8c bd e1 5b b9 bd f2 83 b5 3c
       0.044279587 -0.068399265 -0.09050728 0.022157643
000210 c2 6c 00 3c 4e 0c 1a 3e 76 21 e6 bd 86 19 08 be
       0.00783843 0.15043756 -0.11236851 -0.13290986
000220 26 16 8b bd 69 09 15 bd 9b a3 c0 bd 47 d6 d4 3d
       -0.06791334 -0.036385927 -0.09406205 0.10392433
000230 62 ad e2 3c a5 55 eb 3d b6 b2 d6 bc c2 6d 0e 3e
       0.027670566 0.11490945 -0.026208263 0.13909057
000240 b7 96 9f 3d 3b 19 0e be af 09 8c bd 9c d9 7b bd
       0.077924185 -0.13876812 -0.068377845 -0.061486825
000250 49 93 77 3d 44 62 5e 3d 17 7a 03 3e be 0b 41 bd
       0.060443196 0.054292932 0.12839542 -0.04713034
000260 fb bc 83 3c ee 1c 7e 3d 83 19 03 3e c1 86 e8 3d
       0.016081324 0.06203931 0.128027 0.11353827
000270 fd a6 40 3d b8 99 1a be 04 b4 43 bd ce d1 81 bd
       0.047034252 -0.15097702 -0.0477791 -0.06338845
000280 9c ed ea bd 79 bc 8e 3c 0f 66 50 3c d6 31 c1 3d
       -0.11471102 0.017423855 0.012719645 0.094333336
000290 1e 45 ec bd ea 58 04 be 93 9d cf 3d 18 9d 8b bd
       -0.115366206 -0.12924543 0.10137477 -0.06817073
0002a0 5b 19 6c bd c4 62 14 3d 83 8d 0f 3e 23 fb 71 bd
       -0.05764137 0.036227003 0.14018826 -0.059077393
0002b0 ab 5e 81 bd 80 21 1d 3d 70 25 43 bd 40 e3 da 3d
       -0.063168846 0.038362026 -0.047643125 0.10687876
0002c0 9b 7d c7 bd f1 1c e1 bd 99 65 05 3e af 37 b3 3d
       -0.09740754 -0.10991848 0.13027038 0.08750855
0002d0 3e b1 9c bd b6 53 03 bd db 04 51 bc 3e 83 89 bc
       -0.07650994 -0.032062255 -0.012757505 -0.016786214
0002e0 87 52 e6 3d 7c 5b 1d bd aa 97 0e 3e 6f cd 2f bd
       0.112462096 -0.038417324 0.13925043 -0.042920526
0002f0 b8 53 64 bc 70 ba ed bd 04 f2 bf 3d c3 a1 a4 3d
       -0.013935976 -0.11607826 0.09372333 0.08038666
000300 cc 01 aa 3d 19 2b 41 bc 38 13 07 3e 4d 8a 2b bd
       0.08301124 -0.01179006 0.13190925 -0.04187994
000310 56 da d3 3d 1e fd b8 bd 50 81 0d 3d 88 73 3a bd
       0.10344379 -0.09032653 0.03454715 -0.045520335
000320 e9 2a f6 3d a0 ed 88 3d f8 fe 29 bd ee a2 b8 bd
       0.12019903 0.06685948 -0.041502923 -0.09015451
000330 88 07 01 bd 99 ab 14 3c c7 30 d3 3d fd fd 92 3d
       -0.031501323 0.009074115 0.10312038 0.07177351
000340 fa fd 0f 3e f1 56 84 3d 32 fe ae 3d a2 9e 22 bd
       0.14061728 0.06461895 0.08544578 -0.039702065
000350 0d 14 3c 3d 46 b2 fd 3d e3 36 be bd 19 6c 0e 3d
       0.04591756 0.123875186 -0.092878126 0.03477106
000360 15 b7 00 3e 9f d1 e2 bd 1d d0 f5 bc 59 b6 f7 3c
       0.1256984 -0.11075138 -0.030006463 0.030238317
000370 c8 84 96 3c 9b 51 b9 3d 15 6f 5f bd 13 50 c9 bd
       0.018373862 0.09048768 -0.054549295 -0.09829726
000380 bc 10 68 bc 63 86 0d 3e 22 be e1 bd f0 1f d9 bd
       -0.014164146 0.13820796 -0.11022593 -0.10601795
000390 79 79 e1 3c 20 b0 02 3d 16 d0 39 bd fe bb fa bd
       0.027523743 0.031906247 -0.04536446 -0.12242888
0003a0 d2 4a f7 3d 24 f6 de bc 0c 39 0a 3e 64 cb 2e bd
       0.12074818 -0.027216978 0.13498324 -0.042674437
0003b0 3f ac df 3d 9a b0 4d 3d b2 88 41 bb ce 28 aa 3d
       0.10921525 0.05021725 -0.002953094 0.08308564
0003c0 ed af 03 3e 0d b6 bb bd ea c9 7d bd 49 30 d9 bd
       0.12860079 -0.09165583 -0.06196014 -0.10604913
0003d0 b8 5b 31 3b ab 06 a4 3a 90 2d 0f be 98 60 f9 bd
       0.0027062725 0.0012514194 -0.13982224 -0.12176627
0003e0 b5 43 35 bd de 6d f2 bd 2e 19 08 be 87 6f 7e 3c
       -0.044254024 -0.11837362 -0.13290855 0.01552952
0003f0 c8 88 9e bc e2 09 90 3d 72 ae aa 3c bb 0c f8 bd
       -0.019352332 0.07033135 0.020835135 -0.12111803

1.4.bias f4 [48]
000000 cb a2 fb bc 62 12 d5 3c 78 97 ad bd 1e d3 c3 3d
       -0.030717274 0.026009742 -0.08476156 0.09561752
000010 88 ab a5 bc 8f 0b 05 be 11 f4 39 3c 5e 02 35 3d
       -0.020223394 -0.1299269 0.011349694 0.04419171
000020 10 7e 01 3e 7d 1b 83 bd b2 cf 8b bd 82 dc c5 bd
       0.12645745 -0.06401727 -0.06826724 -0.09661199
000030 c1 49 f7 3d 96 b8 8c 3d ae 63 85 3d ae 91 06 be
       0.12074614 0.068711445 0.06513153 -0.1314151
000040 86 1b 03 3e 57 21 da 3d 49 03 86 3d 76 c4 72 bd
       0.12803468 0.1065089 0.06543595 -0.05926939
000050 3a 0a 03 be b4 0c ff bd 9b 62 00 3e ec e8 c1 3d
       -0.1279687 -0.12453595 0.12537615 0.094682544
000060 e7 43 34 bd 2e 76 dd 3d a2 6b e0 3c 51 a7 0e bd
       -0.04401007 0.108135566 0.027395073 -0.034827534
000070 23 09 3a bd 13 d9 28 3c 73 dd 07 be a5 6b 29 bd
       -0.04541887 0.010305661 -0.1326807 -0.041362423
000080 20 38 d8 bd 7a f9 b1 3d 1c 30 55 3d 66 e6 a5 3c
       -0.1055758 0.08690162 0.052047834 0.020251464
000090 8e d6 2c bd ac 7a 32 3c 22 8a ca 3d 40 b3 ce bd
       -0.042196803 0.010893505 0.09889628 -0.10092783
0000a0 c1 2f b5 bd ad c6 92 3d 8e 1c 7b 3d 6c 8c cf bd
       -0.08846999 0.07166801 0.06130653 -0.10134205
0000b0 0e cb eb 3c 11 82 ef 3d f8 a2 e9 bc e2 92 c1 bd
       0.028783347 0.1169473 -0.028520092 -0.09451844

1.6.weight f4 [36, 48]
000000 8a c1 28 3e 41 63 f9 3d 79 e3 91 3d 83 27 a1 bd
       0.1648008 0.12177134 0.07123465 -0.078688644
000010 72 bc 1e be a9 75 05 be cf 1d 9d 3d 2c d1 d1 bd
       -0.15501574 -0.13033165 0.07671701 -0.102449745
000020 03 6e 5f bd 51 68 0c 3e 86 68 88 3c 32 df 04 3e
       -0.054548275 0.13711669 0.016651403 0.12975767
000030 df 5d 80 3d db 21 a6 3d 79 f2 d1 bd 40 0d 2b bd
       0.062679045 0.08111926 -0.10251326 -0.041760683
000040 31 03 3c bd 53 7d 08 be 44 c9 06 3e 72 6b a7 3c
       -0.04590148 -0.13329057 0.13162714 0.020436976
000050 70 0c b0 3d 8b f9 b9 bd 66 09 80 bb e9 b5 e9 bd
       0.08596122 -0.090808 -0.0039073704 -0.1141165
000060 db e7 df 3c f3 bc d9 3d 1e 79 c0 3c 24 12 8b 3c
       0.027332237 0.10631742 0.023495253 0.016976424
000070 3a 35 6a bb de bc f0 bd 3b eb b2 3a cf b1 66 3d
       -0.0035737292 -0.117547736 0.0013650426 0.056321915
000080 96 b1 91 3d 2d be 1f bd 2d 92 0c be 5b 8b 9e bd
       0.0711395 -0.038999725 -0.13727637 -0.07741424
000090 30 16 d5 bd de b4 0a be e8 05 e0 3d 80 a1 4f 3d
       -0.104046226 -0.13545558 0.109386265 0.050691128
0000a0 a9 d5 d3 bd e0 01 cf bd 55 84 0b be e0 cc 41 3d
       -0.10343487 -0.101077795 -0.136247 0.047314525
0000b0 51 20 92 bd 38 88 0a bd a2 d4 b5 3d 99 81 b3 bd
       -0.0713507 -0.033821315 0.08878447 -0.08764953
0000c0 56 7f 9b 3d c7 dc b2 3d 63 88 99 bd 2c a3 18 3d
       0.07592647 0.08733516 -0.07496717 0.037264988
0000d0 e0 85 d4 3d 94 b1 1a bd 02 d6 f2 bd 33 21 e4 3a
       0.10377097 -0.037767008 -0.11857225 0.0017404914
0000e0 a3 38 7b bd 00 41 09 3e 43 07 85 3d bf 05 81 bd
       -0.06133331 0.13403702 0.06495526 -0.06299924
0000f0 4e 4d 15 3d 32 d0 12 be 95 80 8a 3d 9a 81 f6 bd
       0.036450677 -0.14337233 0.06762806 -0.12036438
000100 46 24 b6 bc eb a0 08 3e 15 2f f1 3c 7e c9 11 bd
       -0.022234093 0.13342635 0.029441396 -0.03559255
000110 e6 f6 06 3c be 74 ea bc 84 0f fb 3d 67 87 43 3d
       0.008237576 -0.02862012 0.12258819 0.04773655
000120 9a c5 09 bc e4 10 08 be 3c 06 04 3e 88 73 54 3d
       -0.008408928 -0.13287693 0.12893003 0.05186799
000130 78 71 b0 3c 17 4e b8 bb 91 60 e2 3d 2a b4 43 3d
       0.021538481 -0.0056245434 0.11053575 0.04777924
000140 c1 f5 9c bd 54 fc 09 3e 6a b2 10 3e 90 59 d8 bc
       -0.07664061 0.13475162 0.1413056 -0.026409894
000150 e8 a5 0e be 96 3e 0c 3e c8 18 f1 3d 16 1d ce bd
       -0.13930476 0.1369575 0.11772305 -0.100641415
000160 1d 35 fe 3d 71 52 e7 bd 71 cb bf 3d 42 b4 6e bd
       0.12412474 -0.11295021 0.09364975 -0.058277376
000170 1d 87 9a 3d 46 dd be 3c cd c8 a1 3d 62 44 09 3e
       0.07545302 0.02329887 0.07899628 0.13404992
000180 20 19 61 bd 0f 0d a7 bd d1 79 bd 3d cd 18 87 bd
       -0.0549556 -0.081567876 0.0925175 -0.06596527
000190 5c 98 93 3c 24 2c 37 3d b3 46 ef bc e2 82 0d bd
       0.018016987 0.04471983 -0.029208517 -0.034548648
0001a0 ff 3a da 3d 0c 06 03 3e 01 a0 8a 3d a9 9e 9f 3d
       0.10655784 0.12795275 0.067687996 0.07793934
0001b0 53 c5 83 bd 09 fc 03 be 87 ad c3 3c b9 a2 c2 bd
       -0.06434121 -0.12889113 0.023886455 -0.09503693
0001c0 e3 e7 8b 3d 8b d9 b6 3d 5e 63 64 3d 74 57 a7 3d
       0.06831338 0.08928212 0.055758826 0.08170977
0001d0 0e f2 3a bc 13 b7 01 3e ae 41 c0 3d 97 03 59 3b
       -0.011410249 0.12667494 0.093875274 0.0033113712
0001e0 fd de a7 3d 95 48 e8 3d 2f 54 a1 bc 8f ba 41 3d
       0.081968285 0.11341969 -0.019693462 0.047297057
0001f0 b5 c1 86 3d 2b 1c d3 3d c2 2b 26 bd 0a 77 cf bd
       0.065799154 0.10308107 -0.040569074 -0.10130127
000200 18 90 7d bd 16 14 b3 3d 9d ef 06 3d a7 27 2f bd
       -0.061904997 0.087440655 0.032943357 -0.042762425
000210 59 c2 0a be 36 7d d7 bc c6 53 a3 3d cf 78 64 bd
       -0.135507 -0.026304822 0.07974963 -0.055779275
000220 72 e2 e4 3c f6 f9 0c be 3c 95 eb bd 3a 9d 06 bd
       0.027940009 -0.13767228 -0.115030736 -0.032864787
000230 20 e5 b9 3d 83 79 06 be e9 13 01 3e 46 63 4b bb
       0.09076905 -0.1313229 0.12605251 -0.0031034513
000240 4d dc 0f 3e bd af c9 bc 4c 46 2c bb ba 9f e9 3d
       0.14048882 -0.024619931 -0.0026287017 0.114074185
000250 89 7c 7f 3d a4 ea 68 3a 1f ad 0b 3e 5e c8 05 be
       0.062374625 0.0008885062 0.13640259 -0.13064715
000260 63 bd 55 bd 1c 2b 68 bd b7 fd 4d 3d 39 5b a0 3d
       -0.052182566 -0.056681737 0.05029079 0.07829899
000270 16 21 f4 bc fa ae 01 be be 93 00 be 8c ac de 3d
       -0.029800933 -0.12664405 -0.12556359 0.108727545
000280 8d 27 c2 3d 1e 45 ed 3d f1 80 20 bd 8b 16 cc bc
       0.094802 0.11585449 -0.039185468 -0.024913093
000290 3c 60 9d 3d a1 3e a2 bd 6d 31 fe 3d 23 1d 94 bd
       0.07684371 -0.07922102 0.12411771 -0.0723212
0002a0 78 2c e2 bd af 5c e6 bd 7d 8a b2 bd e6 5f 50 3d
       -0.11043638 -0.11248147 -0.08717821 0.050872706
0002b0 39 f6 76 bc b3 de 09 3e 69 45 d0 bd 7f cf 93 bd
       -0.0150733525 0.1346386 -0.10169489 -0.07217311
0002c0 e2 ed ce 3d cd 91 fe 3d 6b cb 8f 3d 75 15 23 bd
       0.10103966 0.12430153 0.07021221 -0.039815385
0002d0 c6 84 10 be 27 92 e9 3d bc 55 54 3d d0 0d 6b 3d
       -0.14113149 0.114048295 0.051839575 0.05738622
0002e0 e0 13 05 be df 0a d8 bd c8 d8 b2 bd bc 2b c8 bd
       -0.12995863 -0.105489485 -0.08732754 -0.09773967
0002f0 63 dd 6d 3d f3 26 20 bd 8a bf db bb f2 06 84 3d
       0.05807246 -0.039099645 -0.006706183 0.06446637
000300 5b 53 8c 3d 7f 28 14 3e 07 5b 82 bd dc 7b 1a 3e
       0.06851836 0.14468573 -0.06365018 0.15086311
000310 14 82 05 be 75 74 b2 3d d4 6b d5 3d fc 7e 3c bd
       -0.13037902 0.08713619 0.10420957 -0.04601954
000320 96 f1 ef bd bf c1 f2 bd cb d9 b5 bd d4 91 42 3d
       -0.11716001 -0.118533604 -0.08879431 0.047502354
000330 6a 0d af 3c 2e 2a 79 3d c2 c3 5f bd 8a 66 a7 3d
       0.021368701 0.06083124 -0.05463005 0.08173855
000340 02 e6 01 be 94 81 12 be b6 e9 17 be bb 6e 68 3b
       -0.12685397 -0.14307243 -0.14835247 0.003546639
000350 00 14 60 3c 09 05 ae bd 6a 12 00 3e 67 11 1f 3c
       0.013676643 -0.08497054 0.12507024 0.009708739
000360 7f b4 0f be 0b f6 e9 3d 55 2c 7c bb b6 50 d7 3d
       -0.14033698 0.11423882 -0.0038478572 0.10513441
000370 ae f7 ce 3d 7c fb cb 3d ca 26 10 be e6 b8 0f 3e
       0.10105835 0.09960076 -0.14077297 0.14035377
000380 20 34 90 3c 44 01 f1 bd a8 f2 93 bd fe 8b b5 3d
       0.01760298 -0.117678195 -0.072240174 0.08864592
000390 d3 5f a9 3d 71 7f bb 3d 17 35 e6 3d cb ca c2 3d
       0.0827023 0.09155167 0.11240595 0.09511336
0003a0 ba c8 bf 3d f6 c7 8d bb 5c 0b 10 3d ca e0 44 3d
       0.093644574 -0.0043268157 0.035167083 0.048065938
0003b0 23 1c 33 bd ef 53 0a be f7 ec 95 3d c2 70 35 bc
       -0.043728005 -0.1350858 0.07320588 -0.011074247
0003c0 e7 62 cc 3d e7 dc dc bd 2c 72 4a 3d 92 35 0d 3e
       0.099798016 -0.10784321 0.04942529 0.13789967
0003d0 75 36 c6 3c c4 c5 86 3d 27 d4 ed bd e6 71 cc 3b
       0.024195889 0.065806895 -0.116127305 0.0062391637
0003e0 c0 a9 cf 3c 7b 83 60 3c 93 32 f3 bd 7f 1f 9a 3d
       0.025349498 0.013703222 -0.11874881 0.07525539
0003f0 25 be e5 3d b0 0e 86 bc 24 4d 7c bc 82 94 d4 3d
       0.11217908 -0.016364425 -0.015399251 0.10379888

1.6.bias f4 [36]
000000 ec c7 3e 3e ff 9c 1c 3e 63 90 89 bd e8 38 33 3c
       0.18630952 0.15294264 -0.06716993 0.0109388605
000010 fe 61 87 bc ea 48 df 3d 21 af e3 bd 0c 19 b3 3d
       -0.016526219 0.10902579 -0.111173876 0.08745012
000020 cf 75 71 3d 5b e4 29 bd 15 d4 12 be a8 48 f9 3d
       0.05895024 -0.041477542 -0.14338715 0.12172061
000030 0b 20 cd 3c af ba be bd 1b 6d 1a 3d 07 e7 35 bd
       0.025039693 -0.09312951 0.037701707 -0.044409778
000040 b6 83 1c 3e 50 ee a9 bd f3 85 9b 3d 7d 6b 08 be
       0.15284619 -0.082974076 0.07593908 -0.13322254
000050 c3 01 09 3e f5 3f d7 bd c8 86 8e bb 85 7a fb 3c
       0.13379578 -0.10510246 -0.0043495633 0.03069807
000060 54 72 34 bd d2 96 07 be 8c 57 d5 bb b5 c5 a7 bd
       -0.044054344 -0.13241127 -0.0065106805 -0.081920065
000070 d4 ee e3 3d 62 fc 8e 3d 88 d7 1d be f0 da 3c 3d
       0.11129537 0.06981732 -0.1541425 0.046107233
000080 8f 01 d8 bd cb 12 a1 3b ce 48 9f bc 72 89 db bd
       -0.10547172 0.0049155704 -0.019443896 -0.10719575

1.8.weight f4 [24, 36]
000000 d1 cd 08 be eb 3e 27 be 9b bd ef 3d d2 c5 22 3e
       -0.13359763 -0.16332595 0.11706086 0.15895775
000010 08 29 89 3d 13 d4 04 be f2 66 38 bd d9 89 04 3c
       0.06697279 -0.12971525 -0.04502005 0.008089506
000020 5c b1 6b 3d 22 2c fb bd af cb ba 3c e9 1b d3 bb
       0.05754219 -0.12264277 0.022802202 -0.006442536
000030 bf b7 20 bc 55 25 47 bd af 58 c6 bd d8 1d 82 3d
       -0.0098094335 -0.048619587 -0.09684884 0.063533485
000040 a6 47 cc bd 58 3e 0e 3d 7b e4 bc 3d 29 c5 9d 3d
       -0.09974603 0.034727424 0.09223267 0.07703621
000050 36 05 ab bd d4 06 25 3c c7 66 22 3e 6e 54 0a be
       -0.08350603 0.010072429 0.15859519 -0.1350877
000060 26 32 c8 3d a1 eb d3 bc af 7f 95 bd 0e 3b 99 3d
       0.0977519 -0.025869193 -0.07299744 0.07481967
000070 6d 96 c9 3c 1a 02 8e 3c d3 a1 10 be e8 82 e0 3c
       0.024607861 0.017334986 -0.14124231 0.027406171
000080 45 af 97 3d 46 77 b7 3d 97 56 e9 bd be 73 27 3b
       0.07406477 0.089582965 -0.11393469 0.0025551165
000090 91 04 b3 3b 73 7b e2 bc 5f ab 55 3c 08 2e 2c bd
       0.005463191 -0.027646756 0.013041346 -0.042036086
0000a0 51 9d 2d 3d c8 04 ce bd e9 b2 37 bd 02 fd 5b 3d
       0.042386357 -0.10059506 -0.044848356 0.053708084
0000b0 26 68 d6 3d 64 29 de bd e6 b7 f8 3c d5 40 88 3d
       0.104690835 -0.108477384 0.030361127 0.06652991
0000c0 60 73 9c bd ae 98 7b bd df 62 ae 3d a9 0c e3 3d
       -0.076391935 -0.061424904 0.08514952 0.11086399
0000d0 89 9f fb 3c fe 73 34 3e 34 16 09 bc 07 d1 1a 3d
       0.03071572 0.17622373 -0.00836711 0.037797
0000e0 de 4c ea 3b 2c be 2a be a1 73 83 bd 7a c8 2d bb
       0.0071502766 -0.16674107 -0.06418539 -0.0026517198
0000f0 22 8b 67 3d 71 cb d8 3d 03 36 87 bd 67 ff 5e bd
       0.05652917 0.10585678 -0.06602099 -0.05444279
000100 63 68 12 3e fc 38 fb 3c 8e 70 f2 bd 62 4a 8a 3d
       0.14297633 0.03066682 -0.11837874 0.06752469
000110 2c 6d b4 3c 1e ed 39 bd 45 7e 6c 3b 94 b8 b2 3c
       0.022024713 -0.04539215 0.0036086005 0.02181653
000120 69 23 e2 bd 28 bb 1b bd b0 19 8d 3d 95 2c 89 bd
       -0.1104191 -0.038020283 0.06889665 -0.066979565
000130 71 f0 1d be b8 58 d9 3d 93 5b 85 bd 42 02 f1 bd
       -0.15423752 0.10612625 -0.06511607 -0.11768009
000140 7f da 82 bd ff 6c 70 bd 65 78 24 be c0 80 3a be
       -0.06389331 -0.058697697 -0.16061552 -0.18213177
000150 43 4f fb bd 85 c5 ba 3d 75 8c 1b bd 25 41 ff bd
       -0.12270977 0.09119705 -0.037975747 -0.12463597
000160 5f 23 85 3d 6c 55 1c be 8e d1 8d 3d be 5a d7 bd
       0.06500887 -0.15266961 0.06924735 -0.105153546
000170 75 34 08 bd 68 bc 99 bd 86 9a 86 3d 1c ef 29 be
       -0.033253152 -0.07506639 0.06572442 -0.16595119
000180 92 ce 12 3d 98 aa 1e 3e 55 93 94 bd 66 1e 34 3d
       0.035841532 0.15494764 -0.07254664 0.043974303
000190 80 3b 88 3d 7f f6 bd bd 4f 43 a6 bc 09 67 4e 3d
       0.06651974 -0.09275531 -0.020295767 0.05039123
0001a0 c6 b1 1d 3e 7a 50 7a bd 0c c7 86 bd 56 c8 3c 3d
       0.15399846 -0.061111905 -0.06580934 0.046089493
0001b0 e3 92 79 3c c0 a8 18 3e 84 2c db bb c8 87 3b bd
       0.015232774 0.14908123 -0.0066886563 -0.045783788
0001c0 28 00 a1 bb 44 ab 00 bd c8 b7 13 3e c0 4b 0f 3e
       -0.0049133487 -0.03141333 0.14425576 0.1399374
0001d0 64 ef 1c 3e 41 ca d8 bd e5 0f dd bd 70 6b cc bd
       0.15325695 -0.10585452 -0.10794047 -0.099814296
0001e0 6a 25 1b 3d b7 3b 91 bd 2e 2a 0c 3b 37 4c 12 3d
       0.037877478 -0.07091468 0.0021387446 0.035717215
0001f0 d0 76 ef 3d ee f6 c3 3c f5 1b f4 bd 7e 75 09 be
       0.116925836 0.023921456 -0.11919395 -0.13423726
000200 f1 58 49 bd 35 1a 30 3b 4b f5 45 bc 4f c1 d4 b9
       -0.049157087 0.002687109 -0.012082408 -0.00040579817
000210 a0 ab 15 bd 41 c5 06 be 31 69 e9 3d b9 59 6d bd
       -0.036540627 -0.13161184 0.11397017 -0.057946894
000220 7a 29 de 3c a9 8d c9 bd 2f 34 0b 3d 12 c3 79 3d
       0.027119387 -0.09841473 0.033985313 0.06097705
000230 42 2e 52 3d 3f 73 99 bd 3f 33 a6 ba 56 ee f4 bc
       0.051313646 -0.074926846 -0.0012680067 -0.029898804
000240 f4 83 00 3e d3 99 01 3d 54 4e 02 3e 29 0d 1d 3e
       0.12550336 0.03164084 0.12725192 0.15337051
000250 f1 2f 22 3e 43 9a fd bc eb 0c 9d 3c 24 b7 55 bd
       0.158386 -0.030957347 0.019171199 -0.05217661
000260 6b 4b fb 3a 2e 1c cc 3c c7 95 88 bc a0 9c ff 3d
       0.0019172257 0.02491578 -0.016672982 0.12481046
000270 bb f7 0a 3e 65 5f 07 be 3e 21 2a 3e 2e f7 70 3b
       0.13571064 -0.13219984 0.16614243 0.0036768424
000280 c7 c6 06 be 9d 44 21 3e e6 e6 e7 bd a5 1d a9 3d
       -0.13161765 0.1574883 -0.11323337 0.08257607
000290 2d 68 0b 3e e0 3e c5 bb d2 e7 f9 3d 8b b4 96 bd
       0.13613959 -0.006019458 0.12202419 -0.073586546
0002a0 da 22 26 be 96 66 1d 3e af 53 e1 bd 0a 2f 95 bd
       -0.16224232 0.15371165 -0.110022895 -0.072843626
0002b0 2d 07 96 3d 82 6e b9 3d 6f f8 66 bd b6 40 01 3e
       0.073255874 0.09054281 -0.05638927 0.12622342
0002c0 9b fd fc bc 16 44 1a be 63 f6 04 be 65 72 75 3d
       -0.030882647 -0.15065035 -0.12984614 0.05992355
0002d0 b1 b2 b0 bd be bf d1 3c a6 ea 64 3b 7d 29 02 3e
       -0.08627833 0.025604125 0.00349299 0.12711139
0002e0 8c d4 1d 3e aa 4d 26 be e5 f0 1a be a7 29 15 be
       0.15413111 -0.16240564 -0.15130956 -0.1456667
0002f0 11 4f 66 bd ee 99 1d 3e 1d dc 00 3e 67 38 b2 bd
       -0.056227747 0.15390751 0.12583967 -0.08702164
000300 6b 50 4a 3d 10 a9 a7 3d 05 0f 42 3d 77 ae df bd
       0.0493931 0.08186543 0.047377605 -0.109219484
000310 11 2e 10 3c 64 f3 25 3e 8a 7c 5a bc 19 8e 44 bd
       0.008800046 0.16206127 -0.0133353565 -0.047987077
000320 9c fc 4b bc 1e 4a ec bd df 97 0f be 46 3a dd 3d
       -0.0124503635 -0.11537574 -0.14022778 0.108021304
000330 2c 23 74 3d 59 d3 7c bc 1d 8e c3 3d 55 31 2c 3d
       0.059603855 -0.015431249 0.0954859 0.042039234
000340 4a b6 d9 3d 70 8f 1e be 58 25 8d 3d 71 49 e3 bd
       0.10630472 -0.15484405 0.068918884 -0.11097992
000350 00 c8 24 3e ba 6b 07 be a1 dc 90 3b f4 fe a5 3d
       0.16091919 -0.13224688 0.0044208323 0.08105269
000360 22 88 23 be 6c 6a 3d 3d 59 9e 9e bd 55 88 ba 3d
       -0.159699 0.04624407 -0.07745046 0.091080345
000370 9a bc 75 3d 82 61 2f bd e6 f7 4e 3c 12 57 a4 bc
       0.059994318 -0.0428176 0.012632346 -0.02006105
000380 76 b7 7a bd 22 8c 03 3e 76 25 18 bd e7 63 f0 bd
       -0.06121012 0.12846425 -0.0371451 -0.11737805
000390 b9 be f3 bc 0f b7 de bc 03 1b 8c bc e5 2c f9 bd
       -0.02975403 -0.027186899 -0.017102724 -0.12166766
0003a0 c4 c7 b6 bd 1b 47 45 3d f2 71 e7 bd 42 6d 28 be
       -0.08924821 0.048163515 -0.1130103 -0.16447929
0003b0 33 42 46 bd 58 6d 27 3e 51 ed c2 3d 58 62 dc bc
       -0.048402976 0.16350305 0.09517921 -0.026902363
0003c0 86 39 11 3e fa 6d 0f bd d8 78 9e bd cf 19 e5 bb
       0.141821 -0.03501699 -0.07737893 -0.006991602
0003d0 f7 9f 8d 3b 5f 56 0d be a1 93 13 3e f8 37 9d bc
       0.004322048 -0.13802479 0.14411785 -0.019191727
0003e0 ee c8 05 be e2 c2 86 3d ed 40 60 bc 31 58 ee bd
       -0.1306493 0.0658014 -0.0136873545 -0.11637915
0003f0 46 cf 8c 3d 42 c9 91 bd c3 06 d8 3d 2c a2 2a 3d
       0.06875472 -0.07118465 0.10548165 0.041658565

1.8.bias f4 [24]
000000 68 03 92 3b ad 18 22 3e 19 c3 95 bc 06 a8 89 3d
       0.0044559725 0.15829726 -0.018281506 0.06721501
000010 6c b5 b5 3d 8b 26 96 3c 02 32 3a be a7 d6 2e 3e
       0.08872494 0.018328926 -0.18183139 0.17074071
000020 12 dc c8 3d 40 15 2b 3e 1d ec da 3d 40 1b 1e be
       0.098076 0.16707325 0.10689566 -0.15440083
000030 42 85 3a bd 40 eb eb 3d 55 69 0e be e7 b0 b6 3d
       -0.04553724 0.1151948 -0.13907368 0.0892046
000040 e8 97 38 bd 41 f5 0f 3d 2b 43 da bb 8c af 50 3d
       -0.045066744 0.035146 -0.006660839 0.050948665
000050 41 c1 9f 3d 90 5e da bc 30 7d 7a be 1c a1 fc ba
       0.07800532 -0.026656419 -0.24461818 -0.0019274089

1.10.weight f4 [12, 24]
000000 1c 7c ea 3c 54 9c 38 3e 6c 76 7d 3c d8 fd 13 bd
       0.028623633 0.18028384 0.0154701285 -0.036130756
000010 f4 7e 57 be bb 2d c5 bd 0c 29 03 be 5c c4 06 3d
       -0.21044523 -0.09627863 -0.12808627 0.032902107
000020 57 06 c9 3d 54 26 84 bd 24 5d e1 3d 3c ba 97 3d
       0.09815662 -0.06452623 0.11004093 0.07408568
000030 6b d2 ab 3d bd 78 43 be 51 23 ca 3c 58 11 05 be
       0.083897434 -0.19089027 0.024675043 -0.12994897
000040 0f 8f 31 3e d5 cc d2 bd 83 0f 07 3d 9e 11 89 3d
       0.17339729 -0.10292975 0.032973778 0.06692813
000050 78 e4 18 be 87 22 d9 bd cd 91 a2 3d 56 28 53 3d
       -0.14930904 -0.10602289 0.079379655 0.05155214
000060 47 a7 af 3d a6 15 7f 3c 97 0d 1e 3e a4 bf 01 3e
       0.085768275 0.015569126 0.15434872 0.12670761
000070 9b 2b 14 3e c6 49 86 bd 8f 50 fa 3c af 62 d7 3d
       0.14469759 -0.0655704 0.030555991 0.10516869
000080 8d 06 3b 3e 29 02 5a bc 07 92 e0 3d 24 b9 8c 3d
       0.18264218 -0.013306179 0.109653525 0.0687125
000090 76 44 4d be c1 af 04 bd 38 d6 0b 3e f8 61 13 3e
       -0.20045647 -0.032394174 0.13655937 0.14392841
0000a0 c6 87 20 be b9 93 1f be 5c 72 71 3c 17 1d 33 3e
       -0.15676793 -0.15583695 0.014736738 0.17491566
0000b0 82 e0 d9 3d 93 03 5d 3d 36 64 16 bd 4e 38 9b 3d
       0.106385246 0.053958487 -0.036716662 0.07579099
0000c0 77 3a 37 be 0f 95 64 3e fa 0c 86 bd 3f 2c 31 3e
       -0.17893396 0.22322486 -0.06545444 0.17302035
0000d0 71 6a 91 3d 47 1a 25 3e 4b e3 32 be 8b 0a bb 3d
       0.0710038 0.16123305 -0.17469518 0.0913287
0000e0 ff 88 95 bd 70 92 8d 3d 07 1e 56 be 3a 95 d9 3d
       -0.073015206 0.06912696 -0.20909892 0.10624166
0000f0 fc c6 6c bd 35 67 97 bd 9f a6 13 bd 77 20 a9 bc
       -0.057806954 -0.07392732 -0.036047574 -0.020645363
000100 94 1c d9 3d 64 7f fe 3c b1 de 47 be d8 20 9f 3d
       0.10601154 0.031066604 -0.19518544 0.07769936
000110 01 c5 32 3d c4 86 50 3e 02 ce 8d be 26 d8 0a 3d
       0.04364491 0.20363909 -0.27696234 0.03389754
000120 36 34 1e 3e 5b 9a d3 bd 92 0d 32 bd bc f2 2b 3e
       0.15449604 -0.10332175 -0.043469973 0.16791815
000130 b2 38 e6 3d cc 57 a5 bd 2b 34 99 3d cc 97 4c be
       0.112412825 -0.080733865 0.074806534 -0.19979781
000140 ce 6a 4f bd c6 b6 38 3d cd 10 07 be 2a 1d cd 3d
       -0.050638966 0.04509618 -0.13190003 0.10015328
000150 48 11 1d be 48 31 8e bd 99 90 3d 3e f4 ce 08 3b
       -0.15338624 -0.069429934 0.18512191 0.0020875307
000160 3d 1b 03 be 29 85 1c 3d 4b 38 f0 bd a9 cc 41 3d
       -0.1280336 0.03821293 -0.11729487 0.04731432
000170 ba b7 c2 3d 06 c3 1a be ff be 17 3e 8d e2 3a be
       0.09507699 -0.15113458 0.14818953 -0.18250485
000180 79 7b c5 bd d4 20 49 3e d5 6d 2c be f6 03 55 3e
       -0.09642691 0.19641429 -0.16838773 0.20802292
000190 de 2f d9 bd 6d 3e 26 bd 24 69 39 be b4 c6 96 3d
       -0.10604833 -0.040586878 -0.18106514 0.07362118
0001a0 10 75 96 bd a0 05 53 3e 45 81 8f 3d 1f 74 4c 3d
       -0.07346547 0.20607615 0.07007078 0.04991543
0001b0 8a 9d 27 be 37 61 8f 3d b2 7f 57 be 75 23 85 bd
       -0.1636869 0.07000964 -0.21044806 -0.065009035
0001c0 77 61 d6 3c 9e 7b 11 be 0e 48 5d 3c 7f a0 2f 3e
       0.026169522 -0.14207312 0.013505949 0.17151068
0001d0 37 9e cb bd 2d 71 1c 3e f7 22 20 be 47 94 25 3e
       -0.099422865 0.15277548 -0.15638338 0.16169845
0001e0 8b b2 19 be 18 ac 7c 3c a6 6a 0c 3d 35 fb 1d be
       -0.15009515 0.01542189 0.034281395 -0.15427859
0001f0 69 da 19 3e d4 7c 09 bd 2e 3a 23 be 59 b5 c4 bd
       0.15024723 -0.03356631 -0.15940163 -0.09604902
000200 e2 dc e3 3d d9 52 a5 3d 8f 0c 3a be 70 7c 2f 3e
       0.111261144 0.080724426 -0.18168853 0.17137313
000210 fc a3 0f be e7 cc 05 3e db 5e 06 3e 0a c3 46 be
       -0.14027399 0.13066445 0.13122122 -0.19410339
000220 da bd 22 be 7a cf 0a be 8f 1d 21 be 31 cf d2 3d
       -0.15892735 -0.13555709 -0.15733932 0.10293425
000230 a6 03 09 3e 32 04 00 3e 8e 82 fa bd 05 a0 ef 3a
       0.13380298 0.125016 -0.122319326 0.0018281942
000240 a4 68 15 3e 55 68 dc 3c 5e 95 58 be 1f 6e 1a bd
       0.14590698 0.026905218 -0.21150729 -0.037702676
000250 30 f1 f1 3d 82 95 e7 bd 84 25 23 be 34 78 59 3e
       0.11813581 -0.11307813 -0.1593228 0.2123726
000260 d3 9d 0f 3e 1e ce 3a 3e 82 0a 32 be 9a 6c 29 3d
       0.14025049 0.1824269 -0.17386821 0.041363336
000270 f2 fd 3d 3c 52 cf 19 bd 16 f9 c7 bc ca 50 54 bd
       0.01159619 -0.03755123 -0.024410766 -0.05183486
000280 5a 3f f6 3d a5 f3 27 3e 81 2f 23 be 67 b3 4c be
       0.12023802 0.16401537 -0.1593609 -0.19990312
000290 a1 12 2c 3d 30 1a ea 3d ad 39 02 be 48 a0 97 3d
       0.042009953 0.11430776 -0.12717314 0.07403618
0002a0 d1 0c c3 bd d2 33 93 bd 9c b8 4a be 21 6d 42 3e
       -0.09523929 -0.07187618 -0.19796985 0.18986942
0002b0 de d0 96 3d 64 fd 39 be bd 33 e2 bb 97 1d b3 bb
       0.07364057 -0.18163067 -0.0069031403 -0.005466174
0002c0 bb 56 59 3e 14 ac b7 bd f4 e2 3b 3e 1e ce 50 be
       0.21224491 -0.08968368 0.18348294 -0.20391127
0002d0 e9 dc ed 3c 7c 94 59 3e 71 a8 81 3c f0 7a 82 3d
       0.029036002 0.21248049 0.01582739 0.06371105
0002e0 b6 10 c3 bd 96 e4 02 bd 0d 09 9d bd 7b 45 d5 bc
       -0.09524672 -0.031956278 -0.07667742 -0.026034107
0002f0 4b 90 3b 3a b0 0b 9b 3d 85 bd 78 be da ff 4c 3e
       0.0007154985 0.075705886 -0.24291046 0.20019475
000300 d7 3d 6d 3d f9 bf 44 3e f1 dc 89 3d 87 0f 29 3e
       0.057920303 0.19213857 0.06731594 0.1650983
000310 fe 73 13 3e e8 ca 19 3d a8 32 f0 3b a1 1a 0b be
       0.14399716 0.037547022 0.0073302574 -0.13584377
000320 05 44 3b 3e 00 ca 6d 39 30 d5 01 3b 20 b5 6a bc
       0.18287666 0.00022677332 0.0019810908 -0.01432541
000330 ad 9b 86 bd 0b d2 2c be e4 9d ff 3d 86 45 f3 3d
       -0.065726615 -0.16877 0.12481287 0.11878495
000340 a4 f2 a0 3c ad 38 c4 bd c7 6b 92 bd 15 e6 f3 bd
       0.01964695 -0.095811225 -0.07149463 -0.11909119
000350 e8 34 53 be ed 00 17 3e d4 16 fa bd 80 e1 19 3e
       -0.20625651 0.14746447 -0.12211385 0.15027428
000360 e8 0d ed bd 0e f1 d9 bd 90 7f 3c 3e f9 cd e1 3d
       -0.11574918 -0.10641681 0.18408036 0.11025614
000370 af 0d 10 be aa b9 d5 3d 7e 87 01 bd 61 2a cf 3b
       -0.1406772 0.10435803 -0.031623356 0.0063221906
000380 9b d9 3b bd 1e d6 67 bd 00 8d d1 3d a5 4c 48 bc
       -0.04586182 -0.056600682 0.10231972 -0.012225305
000390 15 9a 90 bd aa 48 03 3d 86 0d 35 be 9f f9 ef bd
       -0.07060639 0.03205172 -0.1768094 -0.11717533
0003a0 81 e7 ad bd 0e 29 f7 bd ad e0 1b bc 2f b1 c5 bd
       -0.084914215 -0.120683774 -0.009514016 -0.09652936
0003b0 38 5f 40 3a 5a 4c a9 3d c3 8d 28 bd 3f 0d 8e 3d
       0.00073384074 0.08266516 -0.04115082 0.0693612
0003c0 37 36 25 be e4 b0 1a 3d 04 99 4c 3e 89 26 fd 3d
       -0.16133963 0.037766352 0.19980246 0.123608656
0003d0 a7 80 51 be 09 99 c5 3c df 54 9f bc d8 9d 1b be
       -0.20459233 0.024120824 -0.01944965 -0.15196931
0003e0 05 69 cc bc 81 80 05 bd c6 e4 99 bd 91 33 0b 3e
       -0.024952421 -0.032593254 -0.07514338 0.1359389
0003f0 a2 a7 fd 3d 18 4f 35 be fc 71 f0 3b a3 c1 df bb
       0.12385489 -0.17705953 0.0073378067 -0.006828503

1.10.bias f4 [12]
000000 a5 fc 09 3e e9 0f fc 3d 33 cf 69 3d 60 7a cf 3d
       0.13475282 0.12307722 0.057082366 0.10130763
000010 9c e2 ca 3c f2 2e 1c be 8c 32 cd 3d e2 bc b9 3e
       0.024766259 -0.15252283 0.10019407 0.3627692
000020 3d 3d 74 bc 76 3d 79 3d ef f6 30 be 77 84 e8 3d
       -0.0149071785 0.06084963 -0.17281698 0.11353391
