trained_models/TEST_DDQN_rwd2.pt (torch, 78709 bytes, 16 tensors)

0.0.weight f4 [5, 5]
1.0095806 1.00346 1.0340327 1.0041239 1.020519 1.0571253 1.0553551 1.0205413
1.019146 1.0172336 1.006302 1.0459044 0.99668765 0.9918717 1.017319 0.9914815
1.0006474 0.99497837 0.9999277 1.0244067 1.0209018 1.0280459 1.0000879 1.0903754
1.0633886
00000000: f039 813f 6171 803f 2f5b 843f 2287 803f
00000010: 5ea0 823f e24f 873f e015 873f 19a1 823f
00000020: 6073 823f b634 823f 81ce 803f 32e0 853f
00000030: ec26 7f3f 4eeb 7d3f 8237 823f bbd1 7d3f
00000040: 3715 803f e7b6 7e3f 43fb 7f3f c21f 833f
00000050: e9ac 823f 0297 833f e102 803f 6c91 8b3f
00000060: 1e1d 883f

0.0.bias f4 [5, 5]
0.032569814 0.03211597 0.065581895 0.006953693 -0.05067701 0.015710792 0.11621655 0.089745566
-0.023261743 -0.07666167 0.0041730152 0.041484963 0.06344657 -0.02265675 -0.08431933 0.0018971093
-0.0055679413 0.016148845 -0.0018038289 -0.054142945 -0.017026873 0.0086354595 0.03236214 -0.030626498
0.007464775
00000000: ed67 053d 098c 033d cd4f 863d cedb e33b
00000010: b292 4fbd ebb3 803c f102 ee3d 86cc b73d
00000020: 698f bebc cb00 9dbd cabd 883b 23ec 293d
00000030: 46f0 813d a69a b9bc 9daf acbd 6da8 f83a
00000040: 4773 b6bb 954a 843c 746e ecba fec4 5dbd
00000050: f17b 8bbc be7b 0d3c 2a8e 043d 6ce4 fabc
00000060: 129b f43b

1.0.weight f4 [128, 25]
0.050431445 -0.12819165 -0.0058196625 0.048842404 0.0636399 -0.09305669 -0.052355062 0.027492743
0.051525984 0.00035433721 0.006370063 0.15496112 0.075188085 0.010734461 -0.0054249745 0.08500881
-0.16208595 0.122163355 -0.04227321 -0.043298434 -0.101315685 0.09970024 0.008634502 0.15237398
-0.2070824 0.030098198 -0.13996862 -0.20725228 -0.03452734 0.082868464 -0.10492771 -0.03633887
-0.07953595 -0.00521085 -0.12888023 -0.040246475 -0.032297514 0.11981993 0.09897135 -0.18120599
-0.15931341 0.1344093 -0.15224002 0.13220464 0.08428998 0.18935725 0.19031927 0.031345762
-0.08345791 0.19118278 0.19086456 -0.043949272 -0.071528345 -0.16993926 -0.1654933 -0.06124577
-0.05993023 -0.12701303 -0.03742912 0.0993532 -0.05297192 -0.11821934 -0.15938741 -0.18187132
0.20299973 0.13548543 0.08773125 -0.11505637 -0.0008292414 -0.07396658 -0.057548337 -0.11780181
0.11602637 -0.15060264 0.14870936 0.011569979 0.08370939 0.1514993 -0.03210808 -0.13072687
0.17313623 0.051925387 0.06991568 -0.18414305 0.16460873 0.12729713 -0.042049948 0.08139765
0.1379436 -0.14955302 0.17718299 -0.16164048 0.0262557 0.004409081 0.01178619 0.05893249
0.009352201 0.18880352 -0.06246526 -0.15294753 -0.10167199 -0.12211742 0.013671284 -0.1644037
0.06355632 0.0736361 -0.17388247 -0.124232136 -0.022719713 -0.014464134 -0.13169561 0.14664602
0.011125477 -0.0031923172 0.18613078 -0.108996056 0.039806996 -0.1979041 0.16520722 -0.16249971
-0.14492151 0.1621444 0.18463376 -0.16233875 0.15827042 -0.19237556 0.2065781 -0.009242118
-0.09844052 0.19196309 0.17636043 0.034930672 -0.13324487 -0.19985548 -0.017070869 -0.0001934923
-0.0084346505 -0.025453378 -0.018442197 -0.08243216 -0.037231993 -0.18878849 -0.10263972 -0.14024217
0.10830937 0.087235376 0.03153125 0.13199225 0.14846045 -0.1156381 0.11240898 0.06893135
0.16796996 0.15213625 0.029503576 0.095445946 0.2003636 0.04765005 0.15596958 0.018840572
-0.13388395 0.18830912 0.075519204 -0.057157304 -0.03745969 -0.052562036 -0.03226664 -0.03572681
0.0034947668 -0.02064221 0.17726173 -0.00060142775 0.12668256 0.119419865 0.05946145 -0.12311919
0.15167849 -0.16836353 -0.041395105 -0.10393049 -0.15579455 -0.14204809 0.14081812 0.20003928
0.08900144 0.16002253 0.19976941 0.059688464 -0.090791464 0.14194418 -0.1312832 -0.075561896
-0.055368654 -0.14812045 0.19437864 0.07080415 -0.017670307 -0.16720572 0.17262529 0.10783506
0.14422752 0.034025263 0.08485792 -0.10786332 -0.049391657 -0.18676555 -0.12832038 -0.08651307
0.13899451 -0.026493363 -0.14168194 -0.018039146 -0.17454155 -0.13627996 0.17163855 -0.069717936
0.007448884 -0.018451702 0.07434516 0.0026014477 -0.07452454 0.17603183 0.03893558 0.0658959
-0.061783247 -0.19071409 0.0062405663 -0.1497575 0.12119009 0.022433197 -0.09037834 0.13385016
-0.11376065 -0.007900367 0.16169977 0.038531523 -0.005178018 0.023088511 -0.116514884 0.066657506
0.17457171 -0.16401562 -0.15627521 0.13532029 0.05853274 -0.15833113 -0.04938224 -0.12722632
-0.117862426 0.038301792 -0.14202239 0.07293826 0.18337819 -0.19989946 0.17108239 0.11225723
00000000: 3491 4e3d ac44 03be deb2 bebb f90e 483d
00000010: a355 823d 8294 bebd 4372 56bd 7638 e13c
00000020: e90c 533d 56c6 b939 f6bb d03b 21ae 1e3e
00000030: 36fc 993d 98df 2f3c fcc3 b1bb 1919 ae3d
00000040: dcf9 25be c830 fa3d ac26 2dbd b359 31bd
00000050: 997e cfbd a42f cc3d ba77 0d3c ed07 1c3e
00000060: 690d 54be 7f90 f63c ef53 0fbe f139 54be
00000070: 8a6c 0dbd f1b6 a93d 57e4 d6bd 11d8 14bd
00000080: bfe3 a2bd c7bf aabb 2ef9 03be 7dd9 24bd
00000090: 664a 04bd 2764 f53d 7eb1 ca3d 108e 39be
000000a0: 0e23 23be 97a2 093e cfe4 1bbe a760 073e
000000b0: 3aa0 ac3d dee6 413e 0ee3 423e 6a64 003d
000000c0: fbeb aabd 6bc5 433e 0072 433e 2704 34bd
000000d0: 747d 92bd 8f04 2ebe 1377 29be d8dc 7abd
000000e0: 6779 75bd b40f 02be 474f 19bd b179 cb3d
000000f0: 16f9 58bd fb1c f2bd 7436 23be 7a3c 3abe
00000100: 29df 4f3e b1bc 0a3e 71ac b33d ada2 ebbd
00000110: 7361 59ba ca7b 97bd ceb7 6bbd 1342 f1bd
00000120: 3c9f ed3d 9437 1abe 4447 183e 0290 3d3c
00000130: d46f ab3d a222 1b3e c383 03bd 44dd 05be
00000140: a04a 313e b7af 543d f42f 8f3d ff8f 3cbe
00000150: 318f 283e 2e5a 023e 913c 2cbd d0b3 a63d
00000160: 1641 0d3e 6d24 19be 756f 353e 1585 25be
00000170: 3216 d73c 0d7a 903b dd1a 413c 3263 713d
00000180: f939 193c b655 413e 93db 7fbd 479e 1cbe
00000190: 6739 d0bd b318 fabd 85fd 5f3c 7259 28be
000001a0: d129 823d 86ce 963d 3f0e 32be 6b6d febd
000001b0: b11e babc fafa 6cbc 37db 06be 602a 163e
000001c0: a247 363c 3236 51bb 1199 3e3e 5339 dfbd
000001d0: a90c 233d 5fa7 4abe 152c 293e 5366 26be
000001e0: 4e66 14be 2e09 263e a210 3d3e 213c 26be
000001f0: a411 223e 19fe 44be 3689 533e 416c 17bc
00000200: 2f9b c9bd f991 443e d497 343e 7713 0f3d
00000210: 5871 08be eaa6 4cbe 35d8 8bbc 32e4 4ab9
00000220: 7d31 0abc 9a83 d0bc 1714 97bc 31d2 a8bd
00000230: 9380 18bd c551 41be c634 d2bd a59b 0fbe
00000240: 4ed1 dd3d 76a8 b23d e926 013d fa28 073e
00000250: 0406 183e abd3 ecbd ae36 e63d e12b 8d3d
00000260: 5100 2c3e 9bc9 1b3e 7cb1 f13c 2a79 c33d
00000270: 1e2c 4d3e b32c 433d 7db6 1f3e 8b57 9a3c
00000280: e018 09be 1bd4 403e d0a9 9a3d c71d 6abd
00000290: 556f 19bd 4a4b 57bd 062a 04bd 4756 12bd
000002a0: 7508 653b da19 a9bc 1984 353e 22a9 1dba
000002b0: 13b9 013e 6792 f43d d98d 733d ea25 fcbd
000002c0: 9b51 1b3e 7d67 2cbe ea8d 29bd 82d9 d4bd
000002d0: 9b88 1fbe 0e75 11be a032 103e 19d7 4c3e
000002e0: 6346 b63d f2dc 233e 5a90 4c3e e47b 743d
000002f0: e0f0 b9bd d159 113e 1a6f 06be 32c0 9abd
00000300: 3eca 62bd e3ac 17be 320b 473e c401 913d
00000310: 52c1 90bc fa37 2bbe afc4 303e a1d8 dc3d
00000320: 61b0 133e 135e 0b3d fdc9 ad3d 72e7 dcbd
00000330: e84e 4abd 783f 3fbe 6b66 03be c42d b1bd
00000340: 9454 0e3e 9c08 d9bc 1215 11be d5c6 93bc
00000350: 05bb 32be f98c 0bbe 04c2 2f3e 47c8 8ebd
00000360: c515 f43b 0628 97bc 4642 983d 0d7d 2a3b
00000370: 52a0 98bd b041 343e ea7a 1f3d 6ef4 863d
00000380: 6e10 7dbd 8e4a 43be aa7d cc3b 085a 19be
00000390: 8332 f83d d3c5 b73c 4718 b9bd 0410 093e
000003a0: 58fb e8bd 8a70 01bc a094 253e 3bd3 1d3d
000003b0: 5dac a9bb 1e24 bd3c 5b9f eebd bb83 883d
000003c0: edc2 323e b6f3 27be 9c06 20be 6791 0a3e
000003d0: 07c0 6f3d 8e21 22be 0845 4abd 9e47 02be
000003e0: db61 f1bd 57e2 1c3d 516e 11be a860 953d
000003f0: 7ec7 3b3e 72b2 4cbe 3930 2f3e 1ee7 e53d

1.0.bias f4 [128]
0.10376765 0.17547573 0.015346038 -0.11822731 -0.20241275 -0.11201938 -0.107319646 0.14639017
0.09140701 0.008215695 -0.14161552 -0.0056091454 -0.10611607 -0.18264669 0.09417183 0.17541088
0.0011808035 0.19937052 0.09175179 -0.047684122 0.055151924 0.08085385 0.17896935 0.06349762
0.12697202 -0.15337627 0.027619269 -0.13015942 0.1758946 -0.18783657 -0.07722495 -0.057927895
0.1952291 0.14227508 0.042347223 -0.086393915 -0.15985999 -0.17388758 -0.19176039 -0.029362079
0.18258728 -0.033754002 -0.14461023 -0.19649296 -0.14540535 0.14092892 0.09416115 -0.03997908
-0.010601861 -0.13779028 0.1283147 -0.033495948 -0.12356727 0.07430453 -0.14603305 -0.17731409
-0.024493458 0.06358765 0.24235545 -0.11051934 -0.09964176 -0.020165322 0.18929783 0.058747694
0.1513886 0.08377822 0.003892884 -0.18910666 -0.12724343 0.0985443 -0.1842528 0.17006351
0.018607028 0.12517798 -0.18014039 0.20012823 0.20070532 0.14228725 0.028640822 0.1607071
-0.13187392 -0.037965152 -0.0823838 -0.07050711 0.08820008 -0.15143162 -0.1600223 -0.08156931
0.08498025 0.06915995 0.052290488 0.16082117 -0.097219035 -0.008941953 0.22482869 -0.08506717
0.1250474 -0.015769964 -0.1390145 -0.07205285 0.1480579 -0.043864917 0.1560638 0.021407535
0.048630223 0.078673005 0.123885415 0.176333 -0.011795343 -0.14750242 0.12325986 0.08536474
0.013110504 0.20058434 0.15997553 0.041297242 0.14210646 -0.08788964 -0.11913454 -0.019304886
0.1561679 0.10245679 0.1367851 -0.16598308 0.08127708 -0.07021833 -0.06820826 0.02529652
00000000: 2284 d43d e9af 333e f36d 7b3c 2921 f2bd
00000010: 4a45 4fbe 6b6a e5bd 67ca dbbd 4ee7 153e
00000020: 9933 bb3d 1f9b 063c a903 11be eccc b7bb
00000030: 6253 d9bd bc07 3bbe 29dd c03d e99e 333e
00000040: 31c5 9a3a c927 4c3e 5de8 bb3d 6d50 43bd
00000050: fce6 613d b496 a53d be43 373e 0a0b 823d
00000060: f404 023e ab0e 1dbe ce41 e23c 8348 05be
00000070: b71d 343e 3b58 40be 1d28 9ebd cd45 6dbd
00000080: 23ea 473e 8fb0 113e 4874 2d3d 4bef b0bd
00000090: 56b2 23be 960f 32be d65c 44be be88 f0bc
000000a0: 29f8 3a3e a341 0abd b414 14be 7335 49be
000000b0: 24e5 14be ac4f 103e 90d7 c03d 1bc1 23bd
000000c0: 6eb3 2dbc e518 0dbe ee64 033e 0c33 09bd
000000d0: d610 fdbd f92c 983d b089 15be d391 35be
000000e0: 81a6 c8bc 3e3a 823d 072c 783e f757 e2bd
000000f0: fb10 ccbd bf31 a5bc 4ad7 413e 6ca1 703d
00000100: 9d05 1b3e ea93 ab3d c11f 7f3b 2da5 41be
00000110: 1a4c 02be 98d1 c93d c4ac 3cbe 2125 2e3e
00000120: c46d 983c a82e 003e b976 38be 6aee 4c3e
00000130: b285 4d3e c0b3 113e 28a0 ea3c 6790 243e
00000140: f509 07be 5981 1bbd d6b8 a8bd 0866 90bd
00000150: 3ea2 b43d e410 1bbe e3dc 23be cf0d a7bd
00000160: 200a ae3d bba3 8d3d 8d2e 563d 4eae 243e
00000170: c61a c7bd 4581 12bc 7e39 663e b237 aebd
00000180: 6d0c 003e 0330 81bc d159 0ebe 7290 93bd
00000190: 7d9c 173e b3ab 33bd 30cf 1f3e db5e af3c
000001a0: 7c30 473d 501f a13d a3b7 fd3d a390 343e
000001b0: 4141 41bc e00a 17be aa6f fc3d b5d3 ae3d
000001c0: 70cd 563c fb65 4d3e a0d0 233e 4c27 293d
000001d0: 5b84 113e 7cff b3bd cffc f3bd 4825 9ebc
000001e0: 7aea 1f3e ded4 d13d 6511 0c3e 78f7 29be
000001f0: 9974 a63d a1ce 8fbd c6b0 8bbd a63a cf3c

1.2.weight f4 [64, 128]
-0.07124148 0.025006155 0.04251314 0.002997469 0.034769014 -0.070640795 0.05686024 -0.03961068
0.06794491 0.024819028 -0.05128811 -0.005231097 -0.0098472005 -0.07957689 0.05710404 0.0832171
0.07586866 0.031685468 0.040794294 -0.0061823335 -0.07426152 -0.08511729 -0.012169157 -0.06401306
-0.07597022 0.0055333935 0.08089921 -0.0509619 -0.07076155 0.01610661 -0.04861314 0.026197974
0.0031760773 0.06251506 0.06926219 0.054490957 -0.05833758 0.019432401 0.003227294 0.04780174
-0.069121666 -0.01980714 -0.049271517 -0.032237403 -0.054901525 0.024856972 -0.016898634 0.029762477
-0.08898114 0.0017186335 0.016183017 -0.012514066 0.034891453 0.009186335 -0.06653233 0.041024815
0.030935956 -0.04992968 -0.02186126 -0.011234095 0.013633005 -0.052188538 0.027762523 0.028415784
-0.08159511 -0.051347874 -0.020680176 -0.003868767 -0.06831541 -0.017183678 -0.03686731 -0.061740447
-0.013823098 -0.05362322 0.065368354 0.02670301 0.05626082 0.074739754 0.03946022 -0.023234649
-0.0012684205 0.08230897 0.08092327 0.05033582 -0.034424588 0.009477319 -0.01999577 0.0024814284
-0.068139665 0.026378827 0.0740416 -0.06454827 -0.076834455 0.08593721 0.04974761 0.071198665
-0.0029689118 -0.061950482 0.046920132 0.038210493 -0.034922224 -0.05886068 -0.06662006 -0.07029746
0.03489443 0.01092023 -0.0064601237 0.011796235 0.07632408 -0.089596435 -0.06723789 -0.016794609
0.031969815 -0.02039614 -0.078269675 0.07761719 0.0819378 -0.08225457 0.023986304 -0.026966441
-0.021954486 0.07503934 -0.0063639954 -0.065820634 -0.042696744 0.041850645 0.049536157 0.081406906
-0.09070742 -0.047487848 -0.008029913 0.067466564 0.039962076 0.06950184 -0.018262016 0.06824838
0.046282537 0.009153283 0.077698916 0.018087517 0.08822565 -0.08031147 0.08354379 -0.020192035
-0.06248617 -0.011315745 0.07195027 -0.084428675 -0.07201484 -0.051255394 0.03719216 0.0008339575
-0.074281245 -0.05055283 0.078223586 0.031155849 0.035575837 0.08152914 -0.04042578 -0.01575782
0.015589346 0.013975836 0.01873736 -0.033087354 -0.019743819 0.070918374 -0.0035994311 0.010370762
-0.07224888 0.011994267 5.497071e-05 -0.046540573 -0.05182982 0.016331354 0.0015571717 -0.08820517
0.032083686 -0.015134349 -0.03884446 -0.021951107 0.042507555 -0.07411488 0.07421225 -0.024847299
-0.039680194 -0.023291007 0.0646127 0.026752567 -0.012233966 -0.0041937656 0.014363862 0.059786152
0.03864235 -0.01834958 0.043930847 0.0077879946 -0.08025607 -0.0770613 0.025814723 -0.013136517
0.0036084105 0.0711758 0.04729351 0.051590964 -0.041720174 -0.08068358 0.024581462 0.0047666784
0.032751787 -0.08095281 -0.07008896 -0.06827877 0.0037617201 -0.07000951 0.0024542655 0.05434609
-0.08545462 -0.009562161 -0.06411135 -0.06272637 0.038432397 0.005930698 0.03431299 0.049840096
0.04639432 -0.028878579 0.08365022 -0.07756402 -0.018774638 0.05621913 0.070448734 -0.030829513
-0.039548866 -0.04921534 -0.02451017 0.0816914 0.06570842 0.0036710557 -0.014059391 0.012409673
-0.08043079 -0.0033842705 0.027508136 0.025731837 0.04941844 0.056345664 -0.041480944 0.012746095
-0.0555467 -0.06724364 0.07314921 0.061092757 -0.021176958 0.040898126 -0.0067084506 -0.055101316
00000000: 0ee7 91bd b5d9 cc3c 4222 2e3d 2f71 443b
00000010: f469 0e3d 1fac 90bd 48e6 683d cf3e 22bd
00000020: b326 8b3d 4651 cb3c 7b13 52bd 9f69 abbb
00000030: 2756 21bc 35f9 a2bd ede5 693d ba6d aa3d
00000040: 0761 9b3d 9fc8 013d eb17 273d 2c95 cabb
00000050: 6c16 98bd f951 aebd 2561 47bc 4719 83bd
00000060: 4696 9bbd 7851 b53b 7cae a53d 6dbd 50bd
00000070: 6eeb 90bd 02f2 833c 921e 47bd 229d d63c
00000080: bc25 503b e507 803d 56d9 8d3d e931 5f3d
00000090: 63f3 6ebd b330 9f3c 0281 533b c2cb 433d
000000a0: a98f 8dbd 9542 a2bc eed0 49bd 5e0b 04bd
000000b0: 6ce0 60bd d9a0 cb3c 016f 8abc 70d0 f33c
000000c0: be3b b6bd c543 e13a 3f92 843c cc07 4dbc
000000d0: 57ea 0e3d 4882 163c 1a42 88bd a309 283d
000000e0: 676d fd3c 1083 4cbd 6316 b3bc 360f 38bc
000000f0: f85c 5f3c a6c3 55bd 3b6e e33c 38c8 e83c
00000100: 561b a7bd 2652 52bd 7969 a9bc 248b 7dbb
00000110: f3e8 8bbd c9c4 8cbc 2d02 17bd 8de3 7cbd
00000120: 467a 62bc 06a4 5bbd d8df 853d 45c0 da3c
00000130: bf71 663d 2811 993d 0aa1 213d 9756 bebc
00000140: 2141 a6ba 9b91 a83d 19bb a53d ef2c 4e3d
00000150: cc00 0dbd c246 1b3c 2bce a3bc 769f 223b
00000160: cf8c 8bbd 6918 d83c 1fa3 973d e231 84bd
00000170: 625b 9dbd d9ff af3d 26c4 4b3d 9bd0 913d
00000180: 1392 42bb cabf 7dbd 532f 403d 9b82 1c3d
00000190: 9b0a 0fbd e517 71bd 1970 88bd 1df8 8fbd
000001a0: 76ed 0e3d c4ea 323c 72af d3bb ff44 413c
000001b0: cd4f 9c3d 567e b7bd 05b4 89bd d994 89bc
000001c0: c8f2 023d ce15 a7bc da4b a0bd c3f5 9e3d
000001d0: 01cf a73d 1675 a8bd ed7e c43c bae8 dcbc
000001e0: e5d9 b3bc 3aae 993d 1089 d0bb f8cc 86bd
000001f0: c8e2 2ebd 956b 2b3d 6de6 4a3d aab8 a63d
00000200: d0c4 b9bd 9e82 42bd e58f 03bc e92b 8a3d
00000210: 46af 233d fb56 8e3d 399a 95bc cfc5 8b3d
00000220: c292 3d3d a7f7 153c 9c20 9f3d 462c 943c
00000230: a6af b43d 577a a4bd 0219 ab3d c469 a5bc
00000240: 80f1 7fbd ad65 39bc aa5a 933d f1e8 acbd
00000250: 847c 93bd 2df1 51bd ce56 183d f19d 5a3a
00000260: c420 98bd 7c10 4fbd b033 a03d 8d3a ff3c
00000270: f8b7 113d c0f8 a63d 8195 25bd 8b16 81bc
00000280: 756a 7f3c e8fa 643c 187f 993c 9b86 07bd
00000290: cabd a1bc a73d 913d 6fe4 6bbb 21ea 293c
000002a0: 39f7 93bd 9a83 443c 5a90 6638 54a1 3ebd
000002b0: 814b 54bd 55c9 853c 031a cc3a eaa4 b4bd
000002c0: 2f6a 033d 10f6 77bc 5e1b 1fbd cfd2 b3bc
000002d0: 671c 2e3d 8bc9 97bd 98fc 973d 908c cbbc
000002e0: b387 22bd c8cc bebc aa53 843d 3328 db3c
000002f0: f970 48bc db6b 89bb 6756 6b3c 53e2 743d
00000300: 7147 1e3d dc51 96bc d5f0 333d 6f32 ff3b
00000310: 4b5d a4bd 51d2 9dbd 6679 d33c 8c3a 57bc
00000320: 157b 6c3b 9ec4 913d d7b6 413d 0c51 533d
00000330: c6e2 2abd 6f3d a5bd 105f c93c cc31 9c3b
00000340: bd26 063d 96ca a5bd cd8a 8fbd bdd5 8bbd
00000350: 3187 763b 2561 8fbd bed7 203b 019a 5e3d
00000360: d502 afbd 9caa 1cbc d04c 83bd af76 80bd
00000370: 4a6b 1d3d 4d56 c23b c78b 0c3d 2125 4c3d
00000380: f807 3e3d c592 ecbc ce50 ab3d e3d9 9ebd
00000390: 45cd 99bc 0846 663d 6d47 903d 2d8e fcbc
000003a0: fefd 21bd 0696 49bd 8dc9 c8bc d24d a73d
000003b0: 2392 863d 1896 703b 5c59 66bc f151 4b3c
000003c0: e6b8 a4bd a3ca 5dbb be58 e13c 93cb d23c
000003d0: fd6a 4a3d b6ca 663d ece7 29bd ffd4 503c
000003e0: f084 63bd 09b7 89bd 41cf 953d 663c 7a3d
000003f0: 4d7b adbc cb84 273d 90d2 dbbb ebb1 61bd

1.2.bias f4 [64]
-0.04368411 -0.012234566 0.035283796 0.048812676 -0.11454355 0.08992724 -0.061602697 -0.093959846
-0.0093028275 -0.036450576 -0.12863843 -0.008488659 0.038545333 -0.002543907 -0.030843694 -0.0026011826
-0.059671465 0.013718463 0.009434616 -0.041510187 0.090696275 0.08132898 -0.029393764 0.021387676
-0.08444683 -0.014586751 0.039024305 0.0639166 -0.0907059 0.06008399 0.030211596 -0.042170614
0.045672394 -0.062468693 -0.08411113 -0.063017815 -0.15335646 -0.02624525 0.025947655 0.24748337
0.05089417 -0.09678641 0.06440419 -0.020889565 -0.116188146 0.0068970346 0.069240615 -0.057167154
-0.014956007 0.04526017 -0.021003142 0.05834674 -0.0020723937 0.07169014 -0.083176576 0.07168257
0.056088068 -0.010834359 0.040627845 0.038454305 0.010623534 0.021665258 -0.031664997 -0.083992116
00000000: 1cee 32bd 7d73 48bc be85 103d cdef 473d
00000010: cf95 eabd c62b b83d 1c53 7cbd 056e c0bd
00000020: e36a 18bc 334d 15bd cbb9 03be 0414 0bbc
00000030: b6e1 1d3d adb7 26bb eaab fcbc 9a78 2abb
00000040: 116a 74bd 67c3 603c a693 1a3c 9606 2abd
00000050: f8be b93d cf8f a63d 31cb f0bc 3535 af3c
00000060: 76f2 acbd 45fd 6ebc f3d7 1f3d b5e6 823d
00000070: 04c4 b9bd a11a 763d 4f7e f73c 18bb 2cbd
00000080: fa12 3b3d 2cdf 7fbd 7542 acbd 7c0f 81bd
00000090: 7a09 1dbe 4700 d7bc 2d90 d43c 486c 7d3e
000000a0: 6876 503d f437 c6bd 58e6 833d 9820 abbc
000000b0: 0df4 edbd 8500 e23b 06ce 8d3d 1b28 6abd
000000c0: 0a0a 75bc ba62 393d c80e acbc fefc 6e3d
000000d0: ffd0 07bb 48d2 923d 7b58 aabd 50ce 923d
000000e0: 9abc 653d 9882 31bc 6269 263d 4382 1d3d
000000f0: 550e 2e3c 577b b13c 28b3 01bd 0f04 acbd

1.4.weight f4 [64, 64]
0.044376627 0.0957373 0.11677099 0.13079906 -0.07786799 0.092038706 -0.06971218 -0.080387056
-0.12229863 0.023391863 -0.00705386 0.012422256 -0.014000707 -0.06072948 0.09163245 0.011274109
-0.07568686 -0.039343413 0.09899492 -0.016350098 -0.01851164 -0.041174997 -0.094655894 0.10524442
0.1178816 0.08338869 0.09568698 -0.025142547 0.050122324 0.115682244 0.08405063 -0.072542794
-0.0870018 -0.038474817 0.11482065 -0.12399162 -0.0717048 0.12723535 0.04403373 -0.053823464
-0.06874688 0.07057758 -0.081695415 -0.042920474 0.109938994 0.116950475 0.05212299 -0.01455685
0.10601974 -0.09377296 -0.08398072 -0.12526467 -0.08832037 -0.01030601 0.11328878 -0.10124432
-0.044888776 0.065582246 0.063533805 -0.114831045 0.122152664 -0.034317493 0.10668102 0.051973257
0.041439492 -0.058696054 0.08795935 0.07046669 0.031869147 -0.0847567 -0.08731592 -0.100706
0.09113552 0.06292045 -0.019423507 0.045179088 -0.021329822 -0.049251556 0.05965119 -0.01020966
0.09993284 0.07224864 -0.045105897 0.046797697 0.05144822 0.044029087 0.09319633 -0.12385297
0.07494425 -0.120555855 0.07185977 -0.02736674 -0.06038558 -0.0041716225 0.071111344 -0.097566776
0.062177755 -0.07355001 -0.11399994 -0.01777084 0.034783427 0.06556524 -0.11594413 0.008437833
0.018287253 -0.036405127 0.04313676 0.018928384 -0.0863014 -0.121529154 0.09276987 -0.022507915
-0.025310121 -0.09372124 -0.014136301 0.008570047 0.10161082 -0.009748146 0.10752195 0.057048537
-0.07417265 0.06786879 -0.0064200615 0.0108246645 0.033841155 -0.023856808 -0.07283445 -0.046222076
-0.103590444 -0.08754001 -0.12635718 0.0755063 0.1005809 0.039148435 -0.114197195 -0.113922715
-0.037707515 -0.11398324 -0.022565559 -0.07076745 0.052628484 0.12041795 0.038860593 0.128516
-0.11692313 0.06288985 0.0007294346 0.09418508 0.09274682 0.10355748 0.075318135 -0.11263761
0.001449115 -0.037048236 0.037584797 0.11788965 -0.098523535 -0.050456148 0.021893907 0.04782529
0.083401665 -0.070499785 -0.037029043 0.037770603 0.053699892 0.0871394 0.07801228 -0.050882358
-0.07419684 -0.04429784 0.014735317 -0.06063453 0.108052544 0.068360426 0.0145688355 -0.0031553123
-0.019721277 0.10821966 0.009234794 0.07105639 0.024514632 0.0046239453 0.092993185 0.03424196
0.11804908 0.065801956 0.10015842 0.04355235 -0.037125684 0.07680625 0.026096081 0.046310723
-0.12697607 -0.1251687 -0.0920422 0.08077989 0.0038058853 0.005217866 -0.095639564 -0.025487065
0.015981158 0.035966028 -0.03157159 -0.016430927 0.04940149 0.109313056 -0.09902102 0.07612225
-0.11094077 0.04620718 0.0007159526 -0.021328827 0.004342761 -0.08201339 0.017622577 0.050689805
0.036904696 0.003823123 0.020789333 -0.10759868 0.0911583 0.025486449 -0.09416832 -0.042966433
0.07486728 0.06780025 -0.07406002 -0.037968677 0.07310318 0.1224227 0.10449484 -0.09199642
0.032853235 -0.10346981 0.12096281 -0.1210336 0.03110838 0.057981294 -0.10574832 -0.07456958
-0.004120145 0.03327461 -0.12682301 0.1095166 -0.037821524 0.08982706 0.09015397 -0.03014284
0.0780774 -0.06271547 -0.060158566 0.08459592 -0.017410323 -0.055863623 -0.12748943 0.024467
00000000: 44c4 353d eb11 c43d a125 ef3d 30f0 053e
00000010: 4179 9fbd ca7e bc3d 42c5 8ebd f8a1 a4bd
00000020: b477 fabd 4ba0 bf3c 1124 e7bb b886 4b3c
00000030: 3963 65bc 7abf 78bd cba9 bb3d 0ab7 383c
00000040: b601 9bbd 8f26 21bd d9bd ca3d a4f0 85bc
00000050: b9a5 97bc 1da7 28bd f3da c1bd 638a d73d
00000060: e96b f13d b1c7 aa3d 89f7 c33d bef7 cdbc
00000070: 114d 4d3d d0ea ec3d bd22 ac3d 5191 94bd
00000080: 002e b2bd c597 1dbd 1727 eb3d 52ef fdbd
00000090: f7d9 92bd fc49 023e b65c 343d fe75 5cbd
000000a0: 2acb 8cbd fa8a 903d ed4f a7bd 61cd 2fbd
000000b0: b227 e13d bb83 ef3d eb7e 553d db7f 6ebc
000000c0: e120 d93d 0a0c c0bd 15fe abbd 6245 00be
000000d0: 4fe1 b4bd 8ada 28bc f303 e83d 2f59 cfbd
000000e0: 4bdd 37bd fc4f 863d 031e 823d 8a2c ebbd
000000f0: 2d2b fa3d 8090 0cbd 947b da3d e9e1 543d
00000100: 75bc 293d 466b 70bd 0824 b43d d750 903d
00000110: 3989 023d ec94 adbd b0d2 b2bd f33e cebd
00000120: 42a5 ba3d 70dc 803d 0c1e 9fbc b50d 393d
00000130: e1bb aebc 00bc 49bd ce54 743d 6b46 27bc
00000140: 97a9 cc3d 18f7 933d f6c0 38bd f1ae 3f3d
00000150: 5ebb 523d d857 343d b8dd be3d a0a6 fdbd
00000160: 5f7c 993d fde5 f6bd 372b 933d 3730 e0bc
00000170: df56 77bd 1bb2 88bb d3a2 913d 17d1 c7bd
00000180: 1aae 7e3d 63a1 96bd cd78 e9bd 2794 91bc
00000190: 1179 0e3d 1247 863d 1e74 edbd d63e 0a3c
000001a0: 26cf 953c 8b1d 15bd 2cb0 303d b30f 9b3c
000001b0: cabe b0bd 47e4 f8bd 21fe bd3d 8562 b8bc
000001c0: 2c57 cfbc ecf0 bfbd f29b 67bc 6269 0c3c
000001d0: 5519 d03d b0b6 1fbc 7834 dc3d baab 693d
000001e0: d5e7 97bd cbfe 8a3d 615f d2bb ef59 313c
000001f0: 069d 0a3d 5a6f c3bc 3a2a 95bd 5c53 3dbd
00000200: 3a27 d4bd 2d48 b3bd c763 01be 0ca3 9a3d
00000210: 5cfd cd3d 1c5a 203d 38e0 e9bd 5050 e9bd
00000220: 3273 1abd 0c70 e9bd 68db b8bc 86ee 90bd
00000230: f790 573d b09d f63d 492c 1f3d b399 033e
00000240: 6575 efbd 65cc 803d 8737 3f3a 1be4 c03d
00000250: 0bf2 bd3d f215 d43d 6540 9a3d 8cae e6bd
00000260: 3bf0 bd3a e4bf 17bd 84f2 193d 2170 f13d
00000270: b5c6 c9bd 1bab 4ebd da5a b33c 74e4 433d
00000280: 7ece aa3d 3162 90bd c4ab 17bd 59b5 1a3d
00000290: 6bf4 5b3d 2476 b23d e7c4 9f3d 056a 50bd
000002a0: 83f4 97bd a771 35bd 666c 713c ea5b 78bd
000002b0: a74a dd3d 8d00 8c3d 20b2 6e3c 5bc9 4ebb
000002c0: 848e a1bc 45a2 dd3d 894d 173c 0386 913d
000002d0: e9d2 c83c 7784 973b 3673 be3d 4c41 0c3d
000002e0: b7c3 f13d 2dc3 863d dc1f cd3d f363 323d
000002f0: 1a11 18bd 984c 9d3d 73c7 d53c 50b0 3d3d
00000300: 0406 02be 392c 00be 9f80 bcbd ed6f a53d
00000310: 296c 793b a2fa aa3b adde c3bd 40ca d0bc
00000320: ebea 823c 1d51 133d 3651 01bd 279a 86bc
00000330: 3759 4a3d 86df df3d 88cb cabd fbe5 9b3d
00000340: ea34 e3bd bd43 3d3d c4ae 3b3a cbb9 aebc
00000350: b84d 8e3b a3f6 a7bd 395d 903c 1da0 4f3d
00000360: 6129 173d 5c8d 7a3b 644e aa3c b25c dcbd
00000370: 34b1 ba3d f5c8 d03c 52db c0bd 92fd 2fbd
00000380: 0454 993d dcda 8a3d c8ac 97bd 0b85 1bbd
00000390: 1fb7 953d c1b8 fa3d 6401 d63d 9e68 bcbd
000003a0: 1d91 063d fbe7 d3bd 5abb f73d 77e0 f7bd
000003b0: 00d7 fe3c cb7d 6d3d 9392 d8bd f0b7 98bd
000003c0: 4802 87bb f54a 083d e4dd 01be 3d4a e03d
000003d0: beea 1abd 40f7 b73d a5a2 b83d 1eee f6bc
000003e0: 0be7 9f3d f870 80bd d468 76bd a040 ad3d
000003f0: 18a0 8ebc 41d1 64bd 978c 02be 056f c83c

1.4.bias f4 [64]
0.088722944 -0.11265486 -0.014092691 0.10879084 0.043333024 0.07145136 0.09115944 -0.01384108
-0.035721436 -0.037352446 -0.0981167 -0.0868256 0.025888238 0.068450056 0.045766935 0.034493867
-0.051070265 0.15075476 -0.09241583 0.07954129 0.036327213 0.04392529 -0.086892 0.062220007
-0.062462512 0.05450755 -0.06630377 -0.021641549 0.072401255 0.036250237 -0.0700493 -0.021578034
0.049850825 0.026392968 0.08090584 -0.036040004 0.032016896 0.09309931 -0.102414906 -0.04600056
-0.044104673 -0.0047117746 0.04646265 0.067844674 0.09467203 0.064466834 0.14767094 -0.13088447
-0.04447038 0.059603937 -0.09389943 0.05205941 0.090340845 -0.10290058 -0.090948895 -0.07321355
0.048458423 -0.025069099 -0.0038286494 0.07069219 0.026042324 0.068860665 -0.0012056307 0.12986268
00000000: 60b4 b53d 97b7 e6bd 08e5 66bc bbcd de3d
00000010: f87d 313d 1755 923d cdb1 ba3d b2c5 62bc
00000020: a450 12bd e1fe 18bd 69f1 c8bd 9fd1 b1bd
00000030: 9213 d43c 8b2f 8c3d 1c76 3b3d 7149 0d3d
00000040: 0e2f 51bd 755f 1a3e 8344 bdbd 8be6 a23d
00000050: d8cb 143d 01eb 333d 6ff4 b1bd 68da 7e3d
00000060: b1d8 7fbd 4f43 5f3d 45ca 87bd 9e49 b1bc
00000070: 1c47 943d 217b 143d 0276 8fbd 6bc4 b0bc
00000080: 6130 4c3d 1136 d83c f6b1 a53d af9e 13bd
00000090: 2624 033d daaa be3d e8be d1bd 156b 3cbd
000000a0: 1aa7 34bd 3b65 9abb 9f4f 3e3d 26f2 8a3d
000000b0: 69e3 c13d 3007 843d 0d37 173e 9406 06be
000000c0: 9326 36bd 4223 743d 584e c0bd 3f3c 553d
000000d0: 9f04 b93d 8abd d2bd 6a43 babd fcf0 95bd
000000e0: 577c 463d b65d cdbc 14ea 7abb 11c7 903d
000000f0: b656 d53c d206 8d3d 4106 9eba b9fa 043e

1.6.weight f4 [32, 64]
0.10143333 -0.035409104 0.11969103 0.050758235 0.09608376 0.057095777 0.0136335455 -0.08713996
0.1020361 0.09843023 0.051046256 -0.046583373 -0.076930694 0.10920268 0.12247117 -0.111089416
-0.005634162 0.07718076 0.12482244 0.056045767 0.05342937 -0.032542255 0.030598331 -0.09309162
-0.042214837 -0.053590093 0.044810522 0.10280565 0.047964033 0.096620634 0.04708008 -0.12014703
0.029418997 -0.0770386 -0.0029038296 -0.099243894 0.087958746 0.1121638 -0.101378195 -0.0673796
-0.098914295 -0.07180756 -0.09149136 -0.06403459 0.0025085015 0.0996335 -0.005008744 0.03631722
0.068199195 -0.09360799 -0.06276035 -0.113504246 0.13119704 0.008617642 -0.059547577 -0.04048269
-0.015259902 -0.07535751 -0.056340884 -0.02745816 0.041760918 0.10945223 0.012876219 0.08179356
-0.022873962 -0.06230257 -0.12564282 0.086062916 0.008497703 -0.09923567 0.12040836 -0.11154871
-0.006374496 0.0027653312 0.12747033 -0.016651845 -0.0706429 0.0048867855 -0.06790328 -0.017666684
0.14524715 0.019459736 0.008499794 -0.038955875 -0.16051926 0.034740902 0.07964562 -0.06855074
-0.09055573 -0.08200604 0.024170345 -0.009132235 -0.02786768 0.030797489 -0.08911245 0.009363493
-0.10096775 -0.0038689093 -0.04368325 -0.08483667 -0.0054359073 -0.03855357 0.090682715 0.080710426
-0.11654309 0.09881232 -0.098998986 0.05611544 -0.120162405 -0.016835157 0.046382308 -0.08192407
0.07937863 0.07052527 -0.13085984 0.022565896 -0.05501344 0.049278263 -0.10440799 0.06196787
-0.09008226 -0.06689309 -0.08141616 0.11857644 -0.008953417 -0.07872912 0.03936185 0.09395381
0.08534914 0.039880384 0.05453618 0.03920168 0.106179915 0.02048597 0.042933293 -0.09114008
0.04136705 0.0923308 -0.023462635 -0.12139428 0.02472067 -0.11767539 -0.042168736 -0.08751671
-0.04365694 -0.12698701 -0.073598206 0.12182097 -0.099824026 -0.10883392 0.08014083 -0.10443983
-0.1267632 -0.09907123 0.034888655 -0.10954474 0.02923136 0.00064057304 0.11201524 0.042949952
-0.0011802057 0.046568774 0.08857574 0.1115569 -0.06398255 0.018395852 0.0805416 0.05393669
0.107842505 0.04622386 0.041812506 -0.0343233 -0.029985365 -0.043555897 0.1071401 0.010276384
-0.05462817 0.024999352 -0.09792492 0.08456791 0.037184797 0.066551045 -0.06854217 -0.11173853
0.04720037 -0.063941486 -0.06342927 0.07906152 -0.030903425 -0.015313005 0.08792183 0.0029592188
-0.023926806 0.05726631 -0.05282378 -0.11175586 0.07678494 0.08625041 0.079356596 0.11078273
0.026734615 0.122197695 -0.09335503 -0.1081079 -0.1213891 0.09426176 0.07353534 -0.1118973
-0.06376705 0.123412095 0.007139209 0.10131751 -0.07715031 0.05469468 0.07511298 0.09206385
-0.016781453 0.052355208 -0.091567 0.040881775 -0.10688673 -0.14695601 -0.03231612 0.10204143
0.0013400741 -0.09001116 -0.07693826 0.06788752 0.12679616 -0.108078696 -0.104492925 -0.12969564
-0.03752241 0.08035355 -0.028737752 0.052554853 0.011114679 0.07250397 0.06311609 -0.15584771
-0.008360339 -0.096973196 -0.05980299 0.033335056 -0.109736994 -0.0876333 -0.059934013 -0.082038
-0.09699384 -0.021985158 0.04143809 0.040520124 0.019206995 0.0970748 -0.060164515 -0.028032508
00000000: 47bc cf3d 2309 11bd 9220 f53d dee7 4f3d
00000010: 90c7 c43d 43dd 693d 3c5f 5f3c 6f76 b2bd
00000020: 4ef8 d03d ca95 c93d e115 513d 35ce 3ebd
00000030: d78d 9dbd a8a5 df3d 2ad2 fa3d d982 e3bd
00000040: c79e b8bb f210 9e3d e8a2 ff3d 3f90 653d
00000050: c1d8 5a3d 074b 05bd 5aa9 fa3c d2a6 bebd
00000060: 77e9 2cbd 4981 5bbd 3d8b 373d c58b d23d
00000070: ef75 443d 0ae1 c53d 0bd7 403d a50f f6bd
00000080: 1c00 f13c 6ac6 9dbd 2d4e 3ebb 6240 cbbd
00000090: b723 b43d 22b6 e53d 5f9f cfbd 51fe 89bd
000000a0: 9493 cabd d80f 93bd d25f bbbd 9124 83bd
000000b0: ac65 243b a60c cc3d 6420 a4bb 5ec1 143d
000000c0: 05ac 8b3d 8cb5 bfbd 8088 80bd ea74 e8bd
000000d0: 8458 063e 0331 0d3c 29e8 73bd 2dd1 25bd
000000e0: ab04 7abc 0a55 9abd b3c5 66bd efef e0bc
000000f0: 7f0d 2b3d 7e28 e03d c7f6 523c 6283 a73d
00000100: 2d62 bbbc fb30 7fbd 83a8 00be c141 b03d
00000110: f339 0b3c 123c cbbd a998 f63d a673 e4bd
00000120: 26e1 d0bb 8f3a 353b 9587 023e 7369 88bc
00000130: 3aad 90bd 5421 a03b e010 8bbd b9b9 90bc
00000140: abbb 143e 066a 9f3c b842 0b3c 3290 1fbd
00000150: 295f 24be 7a4c 0e3d 3e1d a33d 5564 8cbd
00000160: 4875 b9bd c8f2 a7bd e300 c63c 5f9f 15bc
00000170: c34a e4bc 044b fc3c 9780 b6bd 5669 193c
00000180: 2ec8 cebd 878d 7dbb 35ed 32bd d9be adbd
00000190: b21f b2bb 59ea 1dbd dcb7 b93d 824b a53d
000001a0: 25ae eebd 1d5e ca3d fbbf cabd 4ed9 653d
000001b0: b517 f6bd e2e9 89bc 60fb 3d3d cfc7 a7bd
000001c0: 4391 a23d 8e6f 903d 1f00 06be 1ddc b83c
000001d0: c655 61bd 01d8 493d dbd3 d5bd 05d2 7d3d
000001e0: 0c7d b8bd 3fff 88bd 84bd a6bd 34d8 f23d
000001f0: 5ab1 12bc bc3c a1bd e439 213d db6a c03d
00000200: 88cb ae3d 9d59 233d 5461 5f3d f191 203d
00000210: db74 d93d 31d2 a73c d2da 2f3d a6a7 babd
00000220: 7f70 293d ee17 bd3d b634 c0bc 909d f8bd
00000230: 0183 ca3c cbff f0bd 20b9 2cbd f63b b3bd
00000240: 9fd1 32bd e208 02be a8ba 96bd 467d f93d
00000250: 8a70 ccbd 51e4 debd e020 a43d 8de4 d5bd
00000260: 36ce 01be dbe5 cabd 68e7 0e3d fe58 e0bd
00000270: 9b76 ef3c 21ec 273a 3f68 e53d 4aec 2f3d
00000280: 22b1 9aba e6be 3e3d 3367 b53d f277 e43d
00000290: 4809 83bd e6b2 963c fff2 a43d b8ec 5c3d
000002a0: 88dc dc3d 3b55 3d3d 9743 2b3d 9796 0cbd
000002b0: dea3 f5bc ab67 32bd 456c db3d 475e 283c
000002c0: cac1 5fbd 71cb cc3c dc8c c8bd f131 ad3d
000002d0: 164f 183d ea4b 883d d65f 8cbd 2cd7 e4bd
000002e0: 2d55 413d c1f3 82bd 35e7 81bd 02eb a13d
000002f0: 2e29 fdbc 66e3 7abc 5c10 b43d 74ef 413b
00000300: 2602 c4bc 1490 6a3d bf5d 58bd 42e0 e4bd
00000310: 6c41 9d3d 0ea4 b03d b685 a23d 0ee2 e23d
00000320: 8d02 db3c c942 fa3d ec30 bfbd ad67 ddbd
00000330: d99a f8bd 4f0c c13d b299 963d 692a e5bd
00000340: 4d98 82bd 7bbf fc3d 07f0 e93b 8e7f cf3d
00000350: fb00 9ebd 8707 603d d6d4 993d f98b bc3d
00000360: 4279 89bc 6a72 563d 7b87 bbbd a673 273d
00000370: 6ee7 dabd a37b 16be e85d 04bd 19fb d03d
00000380: 6da5 af3a c557 b8bd ce91 9dbd 9d08 8b3d
00000390: dad6 013e 5d58 ddbd 6300 d6bd efce 04be
000003a0: 19b1 19bd 6790 a43d 6f6b ebbc c243 573d
000003b0: 581a 363c f67c 943d 0243 813d 8b96 1fbe
000003c0: cef9 08bc e299 c6bd fbf3 74bd 578a 083d
000003d0: cabd e0bd 1679 b3bd 5e7d 75bd 8a03 a8bd
000003e0: b5a4 c6bd 381a b4bc fdba 293d 6ef8 253d
000003f0: fd57 9d3c 27cf c63d 116f 76bd 6ea4 e5bc

1.6.bias f4 [32]
0.044154122 0.0954142 0.09730496 -0.07286434 -0.06700339 0.0829318 0.11733671 0.07040373
-0.10271059 0.06483313 -0.03176504 0.05569574 0.0072274306 -0.036503743 -0.06867102 -0.027130479
0.07362344 0.00286738 -0.08167594 -0.08074259 -0.06538378 0.10718328 -0.06227844 -0.022759207
0.01697066 -0.05348972 0.06513593 0.08149338 0.012816167 0.060378384 -0.11161286 -0.08417343
00000000: f4da 343d 8568 c33d d347 c73d e639 95bd
00000010: 1339 89bd 26d8 a93d 3b4e f03d d52f 903d
00000020: ee59 d2bd 3bc7 843d 0f1c 02bd 3721 643d
00000030: 15d4 ec3b f384 15bd 64a3 8cbd bd40 debc
00000040: e3c7 963d a7ea 3b3b b745 a7bd 5f5c a5bd
00000050: eee7 85bd e882 db3d ad17 7fbd 8471 babc
00000060: 0e06 8b3c 0918 5bbd fd65 853d 00e6 a63d
00000070: e7fa 513c 534f 773d 4895 e4bd 1f63 acbd

1.8.weight f4 [16, 32]
-0.07186945 0.06557336 -0.16476461 0.12928154 -0.1344908 -0.10741159 0.17949653 0.037903767
0.10933656 -0.104170516 0.115076944 -0.04244935 -0.06727729 -0.039840914 0.19106413 -0.15837815
0.08792121 -0.073890544 0.06949568 -0.028083578 -0.0022609138 0.12320795 -0.09678223 0.062677
0.03276712 -0.015728507 0.14583817 -0.11362765 0.017120346 -0.018375771 0.15587065 -0.14943159
0.11951962 -0.009477634 0.094120584 -0.06764379 0.16366047 0.09414051 -0.21894407 0.038748212
-0.13722084 0.1405433 0.11012832 -0.05472277 0.13471514 -0.067488275 0.07109136 -0.043076355
-0.02507074 0.053505316 -0.1484244 -0.07345168 0.04501327 -0.04650615 -0.05212665 -0.16362694
-0.024088634 -0.029361539 -0.12179724 -0.116157785 0.12582447 0.025804058 -0.15802753 -0.06699222
-0.08354848 0.101257995 -0.12938891 0.0983028 -0.10022401 -0.15275323 0.12299653 -0.13062173
0.022942176 -0.15453362 0.10975236 -0.0043887133 0.1820058 -0.12606372 0.055767864 0.1383202
0.107889265 0.10074776 0.12504685 0.18601337 -0.20866984 -0.05425897 0.20171645 0.06436962
-0.044747476 -0.11839667 0.17310645 -0.13903932 -0.15763457 0.07711618 -0.1383504 0.13437983
0.15549365 0.14578092 0.05373704 -0.049797602 0.0682237 -0.09431905 0.0013205938 -0.11774943
0.19560477 -0.19683705 0.23264849 -0.0019435639 0.03154075 -0.07753936 0.05055103 0.017978048
-0.031134611 0.1386207 -0.19718452 -0.023307849 -0.082406096 0.092480145 -0.0164852 0.06457599
-0.08342328 -0.11291345 -0.004056179 -0.017244572 -0.19615515 0.101549804 -0.09604009 0.041561786
-0.1369264 -0.08079691 -0.017019046 -0.013217757 -0.16444959 0.08654853 0.18741378 -0.13944058
-0.041858986 0.07569934 0.09854175 -0.027222585 0.0202527 0.04729894 0.17337002 0.0048471596
-0.04977027 0.05529202 0.008610579 0.10318714 -0.070737764 0.0173398 0.16191077 0.025609829
-0.1416199 0.0156288 -0.08343965 0.04044288 0.015378623 -0.11602442 -0.085760005 -0.15765549
0.033748057 -0.16037741 0.118209414 0.14708206 -0.001984324 0.14185521 -0.103491865 -0.19203833
-0.05840861 0.102061875 -0.07778962 -0.15559523 -0.02693308 -0.03803321 0.13762553 0.14273854
0.17008567 0.12068342 -0.097033024 0.20246759 -0.002678082 -0.13758662 0.11930888 -0.082332864
-0.1701066 0.12278614 -0.11076717 -0.028674936 -0.055958945 -0.060778167 -0.028554427 -0.114734665
0.046169285 -0.106420994 0.1120207 -0.18700722 0.0045310864 0.0022091507 -0.23724806 0.115089744
-0.2218423 0.17638353 -0.16158111 0.11012538 -0.03360386 -0.13216199 -0.16824596 0.124832004
-0.033683967 -0.062281083 0.014447876 -0.1532197 0.07467959 -0.19569759 -0.06948122 0.009834536
0.10699275 0.04185904 -0.017288527 -0.14234582 0.03729124 -0.14595701 -0.11404503 0.18077663
0.08664103 0.14109449 0.15112309 -0.0059193284 0.19852123 0.13575053 0.044903714 0.08909059
0.061707303 0.004547342 -0.061365712 0.107225195 -0.034256447 -0.08803665 -0.05483802 -0.050396807
0.01959412 0.082559004 -0.0660493 0.04342796 0.08310702 0.1189587 -0.18409804 0.067844875
-0.04418635 0.03867681 -0.03840128 -0.19335936 -0.105575055 0.13514654 -0.090777285 0.13832916
00000000: 4a30 93bd 534b 863d 0eb8 28be 6162 043e
00000010: f5b7 09be 9cfa dbbd f0cd 373e fb40 1b3d
00000020: d9eb df3d 5a57 d5bd 76ad eb3d 5fdf 2dbd
00000030: adc8 89bd 3a30 23bd 51a6 433e e22d 22be
00000040: 0910 b43d ed53 97bd c053 8e3d 880f e6bc
00000050: d72b 14bb 7354 fc3d c335 c6bd cd5c 803d
00000060: d136 063d 12d9 80bc 9a56 153e 9db5 e8bd
00000070: f83f 8c3c c988 96bc 8e9c 1f3e 9804 19be
00000080: b4c6 f43d 1448 1bbc 4bc2 c03d d488 8abd
00000090: 9c96 273e bdcc c03d e032 60be 72b6 1e3d
000000a0: 9f83 0cbe 95ea 0f3e f58a e13d fc24 60bd
000000b0: c4f2 093e 4b37 8abd 5998 913d d570 30bd
000000c0: 2761 cdbc 6428 5b3d 91fc 17be d66d 96bd
000000d0: d65f 383d 3c7d 3ebd c182 55bd d28d 27be
000000e0: 8755 c5bc 9c87 f0bc d570 f9bd 22e4 edbd
000000f0: 21d8 003e 0863 d33c f8d1 21be 3833 89bd
00000100: 771b abbd 5a60 cf3d 877e 04be fa52 c93d
00000110: 3f42 cdbd 586b 1cbe 9be5 fb3d b4c1 05be
00000120: 3bf1 bb3c 103e 1ebe d8c5 e03d 32cf 8fbb
00000130: ba5f 3a3e d916 01be d86c 643d cfa3 0d3e
00000140: 0cf5 dc3d d754 ce3d 480c 003e 4a7a 3e3e
00000150: 8cad 55be a73e 5ebd c28e 4e3e 38d4 833d
00000160: 2149 37bd f479 f2bd d142 313e 5360 0ebe
00000170: f56a 21be 16ef 9d3d baab 0dbe de9a 093e
00000180: ba39 1f3e 9847 153e 5f1b 5c3d 92f8 4bbd
00000190: deb8 8b3d 592a c1bd c617 ad3a 9d26 f1bd
000001a0: 9e4c 483e a78f 49be 683b 6e3e 2fbf feba
000001b0: e030 013d f5cc 9ebd 990e 4f3d b346 933c
000001c0: 030e ffbc 96f2 0d3e bdea 49be 1af0 bebc
000001d0: 87c4 a8bd 3b66 bd3d f80b 87bc 6b40 843d
000001e0: d3d9 aabd 2b3f e7bd b2e9 84bb 7d44 8dbc
000001f0: e5dc 48be 58f9 cf3d abb0 c4bd b13c 2a3d
00000200: 6f36 0cbe da78 a5bd 876b 8bbc 4b8f 58bc
00000210: 7965 28be 5b40 b13d 66e9 3f3e 83c9 0ebe
00000220: 5474 2bbd 4108 9b3d 42d0 c93d e601 dfbc
00000230: fee8 a53c 89bc 413d e987 313e ecd4 9e3b
00000240: e9db 4bbd e379 623d 6313 0d3c c753 d33d
00000250: f6de 90bd 320c 8e3c f0cb 253e b4cb d13c
00000260: cf04 11be f807 803c 68e2 aabd 6fa7 253d
00000270: 9ff6 7b3c 369e edbd f1a2 afbd 7170 21be
00000280: 673b 0a3d fa39 24be c717 f23d ae9c 163e
00000290: 6f0b 02bb 7e42 113e 8bf3 d3bd b2a5 44be
000002a0: de3d 6fbd d105 d13d 2a50 9fbd 5b54 1fbe
000002b0: c3a2 dcbc b6c8 1bbd b5ed 0c3e 0d2a 123e
000002c0: f02a 2e3e de28 f73d 40b9 c6bd aa53 4f3e
000002d0: c382 2fbb 82e3 0cbe 3758 f43d 229e a8bd
000002e0: 6d30 2ebe 4d77 fb3d e6d9 e2bd b3e7 eabc
000002f0: 3535 65bd 87f2 78bd f9ea e9bc 02fa eabd
00000300: 011c 3d3d 40f3 d9bd 1c6b e53d d27e 3fbe
00000310: 8279 943b 66c7 103b 28f1 72be 2cb4 eb3d
00000320: a12a 63be e29d 343e 8575 25be 6a89 e13d
00000330: 33a4 09bd 7955 07be ab48 2cbe eca7 ff3d
00000340: 33f8 09bd 731a 7fbd c9b6 6c3c a0e5 1cbe
00000350: 9df1 983d f364 48be 2b4c 8ebd 0921 213c
00000360: 041f db3d 6274 2b3d aba0 8dbc 1ac3 11be
00000370: b3be 183d c175 15be 7190 e9bd 821d 393e
00000380: da70 b13d 137b 103e 03c0 1a3e edf6 c1bb
00000390: 2649 4b3e 3002 0b3e f5ec 373d 2175 b63d
000003a0: ccc0 7c3d df01 953b 9d5a 7bbd e298 db3d
000003b0: 7d50 0cbd 8f4c b4bd d59d 60bd e26c 4ebd
000003c0: d983 a03c b214 a93d db44 87bd 84e1 313d
000003d0: 0334 aa3d 9ea0 f33d 3284 3cbe 41f2 8a3d
000003e0: bffc 34bd 936b 1e3d a94a 1dbd ffff 45be
000003f0: bc37 d8bd db63 0a3e 71e9 b9bd 29a6 0d3e

1.8.bias f4 [16]
-0.07665918 0.14403354 0.01587095 -0.19259419 0.06049756 0.028878117 -0.052992206 -0.1780591
0.091548 0.14075303 -0.026241124 -0.16311637 -0.0884521 -0.087729685 0.0065192287 0.11773775
00000000: 7dff 9cbd 877d 133e cb03 823c 6937 45be
00000010: 4acc 773d cd91 ec3c 5b0e 59bd 2055 36be
00000020: 857d bb3d 9021 103e a0f7 d6bc fa07 27be
00000030: 6026 b5bd 9fab b3bd 419f d53b 7d20 f13d

1.10.weight f4 [8, 16]
-0.30977547 0.06976308 0.074065685 -0.10340543 0.19364421 0.050652135 0.31567875 -0.24813169
0.3711307 -0.12694903 -0.28818932 -0.15727843 -0.13474162 -0.20394234 0.023995975 -0.028320318
0.13523744 -0.18800385 -0.06352609 0.23693517 0.09981914 0.20063204 -0.32442534 0.16604075
-0.14556661 -0.02265769 0.14712393 -0.10657008 -0.028658768 -0.10847235 -0.113048345 -0.20398939
-0.08651124 0.05039777 -0.0635848 0.02345376 0.21417893 0.103722006 0.1081812 0.021298157
-0.17740653 0.045803837 -0.20339696 -0.05383732 0.19084603 -0.13261382 -0.14150769 -0.03550328
0.07653606 0.045528285 0.19040681 0.054379877 0.26895526 0.2302539 -0.11637898 -0.20157075
-0.024404088 -0.008372504 0.22514069 0.16195326 -0.0014361688 0.19379726 0.18845567 -0.32004175
0.20466444 -0.09963806 0.062451243 -0.08502986 0.19321634 0.112872474 -0.011240914 -0.18077537
0.20716901 0.2723572 -0.12726845 0.19841357 0.24242175 -0.0924793 -0.18558007 0.032703064
0.09551306 0.15604126 -0.1504869 -0.2975294 -0.059119407 -0.11337109 0.30271292 -0.033024523
0.30317542 -0.1845031 0.15825488 -0.007088965 -0.29916772 -0.26315054 -0.2297709 0.2706831
0.148993 -0.053520273 -0.34285852 -0.27931976 -0.010797545 -0.11047751 0.32441092 -0.03617937
0.13914269 0.046085678 0.12567803 0.05261738 -0.3153776 -0.22906293 0.15579094 -0.006414999
0.27257472 -0.12451403 0.15121065 0.1898317 0.15890838 -0.19605862 -0.26355347 0.19652382
-0.27186993 -0.115572736 0.2980934 0.062402796 -0.011970199 0.038788866 0.12725791 -0.028194219
00000000: e49a 9ebe f2df 8e3d c0af 973d 3ac6 d3bd
00000010: ab4a 463e 9d78 4f3d a5a0 a13e 3c16 7ebe
00000020: d804 be3e edfe 01be 8d8d 93be 990d 21be
00000030: b5f9 09be 43d6 50be 3593 c43c 0300 e8bc
00000040: af7b 0a3e 1584 40be f719 82bd 229f 723e
00000050: fa6d cc3d 7c72 4d3e 141b a6be 9606 2a3e
00000060: 6a0f 15be 9f9c b9bc a8a7 163e 6a41 dabd
00000070: cbc5 eabc c026 debd e485 e7bd 98e2 50be
00000080: ce2c b1bd e46d 4e3d bf38 82bd 1a22 c03c
00000090: b951 5b3e 346c d43d 1b8e dd3d 7979 ae3c
000000a0: 0faa 35be ce9c 3b3d 4b47 50be 8684 5cbd
000000b0: 246d 433e ebcb 07be 64e7 10be e36b 11bd
000000c0: f0be 9c3d de7b 3a3d 01fa 423e 6fbd 5e3d
000000d0: 81b4 893e aec7 6b3e 1a58 eebd 9068 4ebe
000000e0: 15eb c7bc d42c 09bc 488b 663e 13d7 253e
000000f0: d43d bcba ca72 463e 86fa 403e 83dc a3be
00000100: 8e93 513e 0a0f ccbd e0cc 7f3d 2324 aebd
00000110: 81da 453e af29 e73d d02b 38bc 2e1d 39be
00000120: 1d24 543e 6772 8b3e a952 02be ed2c 4b3e
00000130: 683d 783e ca65 bdbd b408 3ebe a6f3 053d
00000140: 5a9c c33d 48c9 1f3e 3d19 1abe c655 98be
00000150: 3127 72bd 1a2f e8bd 30fd 9a3e b944 07bd
00000160: cf39 9b3e 61ee 3cbe 910d 223e 8c4a e8bb
00000170: 832c 99be abbb 86be 1049 6bbe fa96 8a3e
00000180: 9f91 183e 1338 5bbd 278b afbe 0003 8fbe
00000190: 30e8 30bc 0842 e2bd 3019 a63e d230 14bd
000001a0: 6c7b 0e3e 56c4 3c3d beb1 003e 5285 573d
000001b0: 2c79 a1be 798f 6abe a987 1f3e e934 d2bb
000001c0: ea8e 8b3e 3601 ffbd f7d6 1a3e 3e63 423e
000001d0: e1b8 223e 97c3 48be 7bf0 86be 8a3d 493e
000001e0: 8932 8bbe 66b1 ecbd b39f 983e 139a 7f3d
000001f0: a71e 44bc 13e1 1e3d e64f 023e 90f7 e6bc

1.10.bias f4 [8]
0.44119805 -0.3025689 0.1275376 -0.37640914 -0.081965335 0.08902805 0.58455944 -0.5819884
00000000: b6e4 e13e 50ea 9abe 3799 023e b3b8 c0be
00000010: 71dd a7bd 5754 b63d b0a5 153f 31fd 14bf

1.12.weight f4 [4, 8]
-0.20927748 0.23994349 0.06926869 0.5441985 0.43692854 -0.55574095 -0.8796054 0.6900714
-0.28323236 0.026517836 -0.03630804 0.66665846 0.026303861 -0.19426449 -0.86037755 0.7510205
-0.74675024 0.46454695 0.22384171 0.02924362 -0.20670131 -0.64044195 -0.62133574 0.74359983
-0.7389955 0.49353722 -0.35224724 0.66092694 -0.13057241 -0.44491214 -0.5348529 0.63371325
00000000: d64c 56be bfb3 753e bedc 8d3d 9850 0b3f
00000010: 19b5 df3e 0a45 0ebf d22d 61bf 85a8 303f
00000020: d503 91be ef3b d93c bdb7 14bd 21aa 2a3f
00000030: 327b d73c 45ed 46be b441 5cbf e142 403f
00000040: 062b 3fbf 19d9 ed3e c336 653e 5190 ef3c
00000050: 82a9 53be 01f4 23bf dc0f 1fbf 8f5c 3e3f
00000060: cf2e 3dbf e9b0 fc3e c059 b4be 8232 293f
00000070: c6b4 05be 86cb e3be 1fec 08bf 083b 223f

1.12.bias f4 [4]
-0.93673897 -0.8952947 -0.80415183 -0.7640275
00000000: 20ce 6fbf 0932 65bf e5dc 4dbf 4e97 43bf
