trained_models/TEST_DDQN_rwd3.pt (torch, 247925 bytes, 16 tensors)

0.0.weight f4 [5, 5]
000000 9e a2 80 3f 43 42 82 3f 9e 9a 78 3f 9d 00 80 3f
       1.0049627 1.0176471 0.9711093 1.0000187
000010 87 da 80 3f 96 54 81 3f 41 53 84 3f 87 9a 7d 3f
       1.0066689 1.0103939 1.0337907 0.99063915
000020 08 16 80 3f 5b 05 85 3f 2d 69 80 3f 7f 95 80 3f
       1.0006723 1.0392259 1.0032097 1.0045623
000030 a9 61 79 3f ef c9 80 3f 46 32 83 3f 38 8c 80 3f
       0.9741464 1.0061625 1.0249717 1.0042791
000040 d8 71 82 3f 1e a2 78 3f ba b0 80 3f 6a a2 80 3f
       1.0190992 0.9712237 1.0053933 1.0049565
000050 bf db 80 3f 0e bc 81 3f 61 0d 80 3f af e5 82 3f
       1.0067061 1.0135515 1.0004083 1.0226344
000060 b8 e9 80 3f
       1.0071325

0.0.bias f4 [5, 5]
000000 7a 27 23 bb e9 e3 df 3b d9 49 74 3b fe fb 3d bb
       -0.0024895356 0.006832589 0.0037275462 -0.002898931
000010 e6 57 a9 bb c6 a8 cb 3b 04 41 93 3c 97 fd 4e 3b
       -0.005167949 0.0062151877 0.017975338 0.0031584257
000020 97 ea 06 3c 65 ed c2 bb 40 a7 2b bb d0 e5 66 3b
       0.0082346415 -0.00594871 -0.0026192218 0.0035232194
000030 ac d7 7b bb cc 5b 2c bc 3c 8c 87 3b f8 4a 29 3b
       -0.003842811 -0.010519933 0.0041365903 0.0025832038
000040 62 e4 39 3c a5 1b 08 3c 17 fc fb bb a9 c4 dc bb
       0.011345955 0.008307372 -0.0076899636 -0.006737311
000050 d9 e3 17 bb 27 2e 07 3c 8b 3e 99 bc 24 cc 13 3c
       -0.002317658 0.00825075 -0.01870658 0.009020839
000060 80 75 d4 3a
       0.0016209334

1.0.weight f4 [256, 25]
000000 a8 cd 27 be c0 9f a0 3d 8c f8 05 3e 96 df 2c bd
       -0.16387045 0.0784297 0.13083094 -0.042205416
000010 2e ec 70 bd ef 07 75 bd e9 79 2f bd 3d 52 11 3e
       -0.05881899 -0.05982202 -0.042840872 0.14191528
000020 65 89 d1 3d 37 eb 42 3e 8b 55 f4 3d d9 7c 2e 3e
       0.10231284 0.1903504 0.119303785 0.17039813
000030 35 0d 51 bd 95 57 b7 bc 86 12 19 3e 27 c8 26 be
       -0.051037986 -0.02238063 0.14948472 -0.1628729
000040 36 6d 48 3b c0 c2 49 3e 88 3c 47 be c0 7b 23 be
       0.0030582673 0.19703197 -0.19456685 -0.15965176
000050 ad cd ff 3d 84 a6 05 3d e4 b8 91 3d 43 ec 40 be
       0.124904014 0.032629505 0.07115343 -0.18840127
000060 4d 88 16 be e8 fd d0 3d 9e 1f 8f 3c 77 c6 31 be
       -0.14700432 0.10204679 0.017471131 -0.17360865
000070 dd 95 7f 3d 55 ad 42 be c6 d9 a5 bd e1 ae f6 bd
       0.06239878 -0.19011433 -0.080981776 -0.12045074
000080 e9 ea bb 3b 50 54 66 b9 9f a6 e2 bd 1a 9b 15 3d
       0.0057347906 -0.00021965918 -0.11066937 0.03652487
000090 00 67 49 be 92 b9 66 3d ac 21 37 3e ec 94 f6 3c
       -0.19668198 0.056329317 0.17883939 0.030100308
0000a0 7c 03 9c 3d 75 9c c2 3d e3 18 6e 3d 3d 0b a0 bd
       0.07617852 0.09502498 0.058129203 -0.078146435
0000b0 70 39 45 3e e0 65 38 bd 92 00 d7 bc 59 a2 4b 3e
       0.19260192 -0.04501903 -0.02624539 0.1988615
0000c0 c4 ce a2 3d 0d 22 41 be 86 ab 42 3c 02 c7 04 be
       0.07949594 -0.18860646 0.011881715 -0.1296654
0000d0 4e 77 65 3c fd ae dc bd 9c ab 4b be 44 96 e0 3d
       0.014005495 -0.10775564 -0.19889683 0.10966161
0000e0 86 4e 05 3e ae 0c 29 be c3 0b 04 bd 27 94 86 3c
       0.13018236 -0.16508743 -0.03223778 0.016428066
0000f0 1d 39 d1 bd 8c 23 32 3d 52 a1 0f bd 07 67 2f 3d
       -0.102159716 0.04349093 -0.035065956 0.042822864
000100 a0 4b 36 be 79 3d 1d be 29 ab 4b 3e 37 c9 8d 3d
       -0.17802286 -0.15355481 0.19889511 0.06923144
000110 a3 46 f5 bd cd 49 3f 3e 21 2c 06 3e 1e b1 13 bd
       -0.119763635 0.18680497 0.13102771 -0.036057584
000120 34 e5 d7 bc a2 26 b0 3d 13 7e 77 bd 74 8c e4 3b
       -0.02635441 0.086011186 -0.060422968 0.006974751
000130 53 28 66 3d f5 8f 7f 3d b0 29 dd 3d c3 1d c8 3d
       0.0561908 0.062393147 0.10798967 0.097713016
000140 53 29 f7 39 c5 ba 32 3d fb 03 a3 bd 78 11 c1 3c
       0.000471423 0.04363515 -0.079597436 0.0235679
000150 68 b3 37 be 1e b6 39 3e 94 82 35 3c 82 f2 ef 3d
       -0.17939532 0.18135878 0.0110784955 0.117161766
000160 bd 41 46 be 99 b1 47 be 9a 5c 08 bd 5c 19 28 be
       -0.19361015 -0.19501342 -0.033291437 -0.16415924
000170 47 d8 49 be be 6e 1d 3e 98 ee 48 bd d4 a5 e9 bc
       -0.1971141 0.15374276 -0.049055666 -0.028521456
000180 f7 17 33 3d 21 53 2b be 32 e2 41 3e 7e d5 d5 3d
       0.043724027 -0.1673093 0.18933943 0.10441111
000190 bd cb a4 bd 94 ba 0b bd b8 90 1b 3d a4 40 e2 3b
       -0.080466725 -0.03411348 0.03797981 0.0069046784
0001a0 1b ef f6 bc 37 59 19 3e 05 67 01 3d 39 5b 18 be
       -0.030143311 0.14975439 0.031592388 -0.14878549
0001b0 96 26 0b be 01 c7 42 3e 9b f6 80 3d af 71 4b 3d
       -0.13588938 0.19021226 0.06297036 0.049668964
0001c0 d6 3c 12 3e 10 2c 49 be 53 cc 0c be 8e eb 96 bd
       0.1428102 -0.19645715 -0.13749819 -0.07369147
0001d0 1b dd 0d be 8f 89 15 3e a9 1e 0f be bb e0 2a be
       -0.13853876 0.14603256 -0.1397654 -0.1668729
0001e0 16 92 09 bd 68 e4 7c 3d 70 9a 05 bd 10 95 e7 bc
       -0.033586584 0.061741263 -0.032617986 -0.02826932
0001f0 94 37 72 bd ba 60 10 3e e8 a6 db bd 7f c0 a0 3d
       -0.059135035 0.14099398 -0.10725194 0.07849216
000200 4c 91 2e be 24 16 44 3c a7 e8 07 3e 01 50 21 be
       -0.17047614 0.011968169 0.13272344 -0.15753175
000210 8c 46 b0 3d 5e 75 09 3e 0d da 27 3e d3 76 24 3e
       0.08607206 0.13423678 0.16391774 0.16060953
000220 b7 2d 48 3e 7c 6b 42 3e 50 86 16 be 24 38 16 3e
       0.19548689 0.18986315 -0.14699674 0.14669853
000230 15 a6 23 bd 53 08 c3 3d 53 42 e1 bd bd 79 16 3d
       -0.03995331 0.09523072 -0.109989785 0.036737192
000240 50 78 d1 bd b8 23 f6 bd 2a d2 15 3e 62 0c 84 bd
       -0.10228026 -0.120185316 0.14630952 -0.06447674
000250 4f fe 80 bd 96 0c 14 bd 06 8d 34 3e ca e4 29 3e
       -0.062985055 -0.036144815 0.17631921 0.16591182
000260 4d af c8 3d bd 29 28 3e 28 c6 b0 3d cd 9e 41 3e
       0.09799061 0.16422172 0.08631545 0.18908234
000270 7f 30 bb bd b7 17 14 3e 25 d4 42 be cb 01 fd bd
       -0.09140109 0.14462171 -0.19026239 -0.123538576
000280 c3 9a c6 3b 94 77 85 bc 1d 58 66 3d 19 8c c8 3d
       0.0060609295 -0.01629237 0.056236375 0.097923465
000290 38 90 b6 3c e6 36 48 3e b8 31 8c 3d cd 64 1b be
       0.022285566 0.19552192 0.068454206 -0.15175171
0002a0 be b6 dd bd eb 23 5e bc 1b c2 1c be c5 aa 32 be
       -0.10825871 -0.013558368 -0.1530842 -0.17447956
0002b0 83 6c f9 bd 57 fd a4 bd e0 ab 8b bd 8c 57 10 3d
       -0.121789 -0.08056133 -0.06819892 0.03523974
0002c0 22 9c 13 be b9 77 01 3e c7 94 87 3c c4 8d 4a 3e
       -0.14415029 0.12643327 0.016550435 0.19780642
0002d0 d3 43 29 be d6 cd 2e 3e c2 fb cb 3d 97 30 0c be
       -0.16529779 0.17070708 0.09960128 -0.1369041
0002e0 00 7f dc ba f4 9d 28 3e 73 4f 1f 3d 48 9a 10 be
       -0.0016822517 0.16466504 0.038894128 -0.14121354
0002f0 89 09 c3 3d 03 86 ae bd d6 54 27 bb 9e 1e aa 3c
       0.09523303 -0.085216545 -0.0025532744 0.020766553
000300 a6 ab 77 bd c6 4a fa bc 03 7d 5c 3d e0 f6 41 be
       -0.06046643 -0.030553233 0.053830158 -0.18941832
000310 ff 6e 0d bc 44 7e 8d 3b 6e a3 e3 bc ce 91 e7 bd
       -0.008632421 0.0043180306 -0.02778789 -0.11307107
000320 21 51 38 3e 78 91 0b bd 1c 52 e7 bc ef 00 90 bd
       0.17999698 -0.034074277 -0.028237395 -0.07031428
000330 a8 81 7b 3d 8f 3d e2 bc 38 0c 26 3d b2 9d 7e bd
       0.061402947 -0.027617244 0.040538996 -0.06216211
000340 89 a6 8b 3d eb 05 fc bd 4c 60 47 be 60 2a b2 bd
       0.068188734 -0.12305816 -0.19470328 -0.08699489
000350 41 74 04 be 03 2c fb 3c 4c d0 0c 3e c9 5a e3 3d
       -0.12934972 0.030660635 0.13751334 0.111013
000360 56 e3 42 be 35 4c d9 bd f2 16 a3 3d aa ae db bd
       -0.19032034 -0.106102385 0.07963361 -0.10726674
000370 6c 7f c6 bd 41 31 dc 3d 37 f9 22 be 4f 99 e0 bd
       -0.096922725 0.10751582 -0.1591538 -0.10966741
000380 a1 9b ee bd fa 54 d9 3d 78 68 48 be 97 47 3a 3e
       -0.116507776 0.10611911 -0.19571102 0.18191372
000390 b0 2e 1d bd 71 95 d6 bd 7e 31 31 3e 4e c0 22 be
       -0.038374603 -0.104777224 0.17304036 -0.15893671
0003a0 e6 24 49 bd 3f 8c 40 be 12 13 f5 bc 17 41 40 3e
       -0.049107455 -0.188035 -0.02991632 0.1877483
0003b0 f3 5d 9f 3d b1 42 5e bc d9 e7 ba 3d 10 db 96 bd
       0.07781591 -0.013565705 0.09126253 -0.073660016
0003c0 69 79 81 bd 9d 63 38 3d 9f d8 0b 3e c2 cb 13 be
       -0.06321985 0.045016874 0.13656853 -0.14433196
0003d0 02 36 af 3d 4d 96 7a 3d 58 82 12 3e 11 c2 3d 3e
       0.08555223 0.061178494 0.14307535 0.18531062
0003e0 a0 83 eb 3d 1c ca e6 3d 77 db 2a bd 2a 59 33 3e
       0.11499715 0.11269018 -0.041713204 0.17514482
0003f0 0d 0e 4d bd c2 42 30 be b9 9e 93 3d cf c2 ab bd
       -0.050062228 -0.17212966 0.07208008 -0.08386766

1.0.bias f4 [256]
000000 70 ba 3a 3e 8a 0d 92 bd 5e a8 a6 bd 64 7d 15 be
       0.18235183 -0.071314886 -0.08137582 -0.14598614
000010 1a 30 87 3d d4 94 fd bc 8a 42 4b 3e e9 92 ab 3d
       0.066009715 -0.030954756 0.19849601 0.0837763
000020 cc a2 3d bd d0 4a 31 bd 37 9c b8 3d 40 88 2d be
       -0.046297833 -0.043284237 0.090141706 -0.16946507
000030 fc 90 06 3e 25 ad 1e be 59 46 12 3e 9b 7a 80 bd
       0.13141245 -0.15495737 0.14284648 -0.06273385
000040 b3 37 a5 3d de 00 4e 3e 56 a5 ca bc 08 b1 25 bc
       0.080672644 0.20117518 -0.024737041 -0.010113008
000050 4e 55 0c be c9 83 a6 3d 94 b6 fb bd 04 36 c4 bb
       -0.13704416 0.08130605 -0.122906834 -0.0059878845
000060 d0 13 e9 3d 92 f2 c6 3d 8e 96 2a 3e 71 17 dc bd
       0.11380732 0.09714235 0.16658995 -0.107466586
000070 88 26 e5 3d 73 c0 23 be 64 9f 0c 3c 25 29 fa bd
       0.1118899 -0.15991382 0.008582924 -0.12214879
000080 e3 b2 22 3e 04 66 04 be 5f fe af bc 42 86 46 be
       0.15888552 -0.12929541 -0.021483598 -0.19387153
000090 c9 84 94 3d 53 81 3c bb 35 26 2c 3e 4b f1 29 be
       0.07251889 -0.0028763607 0.1681145 -0.16595952
0000a0 44 c3 aa bc f9 52 0b be 08 a2 60 3d 3a 9f b7 3d
       -0.020845063 -0.1360587 0.054842025 0.08965917
0000b0 64 b3 18 3e e3 4d 18 be 09 ce cf 3d a7 fc 08 3e
       0.14912182 -0.14873461 0.1014672 0.13377629
0000c0 ac eb 28 3d 75 85 05 3e 80 2f aa 3d 76 0f fc ba
       0.04124038 0.13039191 0.08309841 -0.0019230682
0000d0 c5 f9 a1 3d 88 2c 88 3d be 5a 1a 3e ac 4c 39 be
       0.07908968 0.06649119 0.15073678 -0.18095654
0000e0 7a 2f 2c be e8 24 2d 3e 09 e6 30 be 1b e5 e7 bd
       -0.16814986 0.1690861 -0.17275251 -0.11322995
0000f0 0a 52 9c bd b7 35 02 3e 56 fa 16 be a3 21 25 be
       -0.07632835 0.12715803 -0.14743933 -0.16126113
000100 db 9f e5 3d b1 4a 18 be 74 8d 1b 3e 1d 63 46 be
       0.11212131 -0.14872243 0.15190679 -0.19373746
000110 aa 87 3b 3e 41 46 09 3e af a0 23 bc 9d 3e 8b bd
       0.1831347 0.13405706 -0.00998704 -0.06799052
000120 81 56 a1 bd 9c 86 3f 3e f1 4c 3f bd df a5 f3 bc
       -0.078778274 0.18703693 -0.046704236 -0.02974218
000130 7d 6a 95 3d be 81 13 3d 52 ae f4 3d 80 78 c5 bd
       0.07295702 0.036012404 0.119473115 -0.09642124
000140 c8 7c 08 be 14 b8 38 3e d5 62 a2 bb 1e 92 6f bd
       -0.1332885 0.1803897 -0.0049556294 -0.058488958
000150 b1 e5 0d be e4 a7 88 bd 27 9c 16 be 88 2c 8e bc
       -0.13857152 -0.066726476 -0.14708005 -0.017355219
000160 9c 8b 2e be bc 1e 19 3c 4e 2e f4 3d 8c 7c 03 3e
       -0.17045444 0.009345707 0.119228944 0.1284048
000170 24 39 da 3c 84 d2 45 bd ad 83 e6 3d 8c ff 0a be
       0.026638575 -0.048296466 0.11255584 -0.13574046
000180 f0 4e 29 bd 66 dc d5 bb 6a 3c 40 3e c0 e6 a8 bd
       -0.041335046 -0.0065265177 0.18773046 -0.08247137
000190 78 ee 11 be 96 0d 54 3d 12 9e ea bd 0b 9b 33 be
       -0.14251125 0.05177077 -0.11455931 -0.17539613
0001a0 1b 84 34 3d 32 fb cc 3b 72 eb 7d 3d f2 d8 2b 3e
       0.044071298 0.0062555308 0.061992116 0.16781977
0001b0 e9 e6 43 bd ca 24 31 be 7b e7 dc 3d d1 77 31 3e
       -0.047827635 -0.1729919 0.10786339 0.17330863
0001c0 cb 14 04 bd 35 8f 0b be 3d 68 94 bd 8f 17 81 3d
       -0.032246392 -0.13628848 -0.072464444 0.063033216
0001d0 d2 85 fb bc 80 08 13 3e c9 9b 18 be 55 56 60 bd
       -0.030703459 0.14358711 -0.14903177 -0.054769833
0001e0 0e c5 49 be 01 ee eb 3d c8 b3 85 3d 5a fe 03 be
       -0.19704077 0.11520005 0.06528431 -0.12889996
0001f0 33 14 99 bd c7 39 2d 3e 1f 6c 19 3e ac ba 81 bd
       -0.07474556 0.16916572 0.14982651 -0.06334433
000200 cc 8d cc 3d f1 9d 53 be 96 ff 84 3d f7 2c 0d bd
       0.09987983 -0.20665719 0.06494062 -0.03446671
000210 76 9f 8d bd 9d 23 f4 3d f9 60 db bd 51 a1 61 3d
       -0.069151804 0.11920855 -0.107118554 0.055085484
000220 9f da 24 3e e2 59 0f 3d 6b d9 0f be ca f1 46 3e
       0.16099022 0.03499783 -0.14047782 0.19428173
000230 ee 5b 05 3e 40 af 00 be 86 4c 3d 3d cc cf 2a be
       0.1302335 -0.12566853 0.046215557 -0.1668083
000240 5b a1 43 be 56 68 cd bd c3 ac 32 be 97 04 56 3d
       -0.19104521 -0.10029666 -0.17448716 0.05225047
000250 ce 92 1d be f4 73 13 3e a9 9c dc bd de d8 01 be
       -0.15388033 0.14399701 -0.10772068 -0.12680385
000260 db 48 25 be 04 b5 a3 3c 4a 72 f5 bd b1 39 1b 3e
       -0.16141073 0.019983776 -0.119846895 0.15158726
000270 6b a5 a1 bd 24 2e 05 3e 9c bd 42 be 70 25 70 bd
       -0.07892879 0.13005883 -0.19017643 -0.058629453
000280 37 b2 b9 bd b3 16 01 be 3e ee d0 3d ce 0d 40 be
       -0.09067195 -0.12606315 0.10201691 -0.18755266
000290 fb fa 85 bd d4 b0 78 3d 46 cd c1 3d 07 1c 5d bd
       -0.06542011 0.06071551 0.09462981 -0.053981807
0002a0 34 e4 1a 3e aa 3b 3c 3e 14 8e 2f 3e c0 73 ef 3d
       0.15126115 0.18382135 0.17144042 0.116919994
0002b0 91 e8 be 3d e7 0b 02 3e 89 75 76 bd 34 6b ae 3d
       0.09321702 0.12699853 -0.060170684 0.08516541
0002c0 4e 6c df bd 57 9b 06 3e a2 6e df 3d 53 46 3c 3e
       -0.10909329 0.13145195 0.109097734 0.18386202
0002d0 fd 1a cb 3d 98 98 18 be 11 5f 48 3e d9 5c b5 3d
       0.09917257 -0.1490196 0.19567515 0.088556
0002e0 35 07 2b be 8b fb b2 bd 3d ea 06 be 2d a9 98 bd
       -0.16701968 -0.08739384 -0.13175292 -0.07454143
0002f0 b6 6f 24 bd c6 e3 a9 bd 9f 21 d4 bd bd b5 20 3e
       -0.0401456 -0.082953975 -0.10357975 0.15694328
000300 6f d9 c9 bd d6 63 9e ba 31 48 0c be 3f 1b 64 bd
       -0.09855925 -0.0012084197 -0.13699414 -0.055690046
000310 a7 49 32 be b8 71 31 be 47 aa 12 be c6 a5 aa 3c
       -0.17410909 -0.17328537 -0.14322768 0.020831
000320 2c 19 24 be 05 a3 fa 3d 08 32 1a 3d e6 59 24 be
       -0.16025227 0.12238125 0.03764537 -0.16049919
000330 7e 3f 36 3c 88 e2 50 bc 11 20 5d 3d 5e c9 ae bc
       0.011123536 -0.012749322 0.05398566 -0.021336254
000340 1f 12 47 bd b0 bc 5d bb a7 95 ee bd b4 19 3b be
       -0.048601266 -0.003383439 -0.11649638 -0.18271524
000350 e6 59 46 be 17 75 5c bd c8 4e 98 bd d0 a3 08 be
       -0.19370231 -0.053822603 -0.07436901 -0.1334374
000360 0f 81 e4 3d 73 2b a0 3d ca 7b 5a 3d 41 99 11 be
       0.111574285 0.07820787 0.05334071 -0.14218618
000370 76 bb 2a 3e a0 75 f7 3d 84 c6 4a 3e b0 20 41 3e
       0.16673073 0.12082982 0.1980229 0.18860126
000380 04 55 46 3e 84 b2 54 3d e6 c7 b8 bd 13 10 2f 3e
       0.19368368 0.05192806 -0.090225026 0.17095976
000390 64 a1 e4 3d bd ed 1d 3e 30 08 04 3d 24 59 a2 bd
       0.11163595 0.15422721 0.03223437 -0.079271585
0003a0 dc 41 09 3d 3d 74 1a be 4e 2a ee 3c f6 51 37 3d
       0.033510074 -0.15083404 0.029072907 0.0447559
0003b0 48 7f f7 bc 76 dd 30 bd 31 93 0b 3e 41 67 4c 3e
       -0.03021206 -0.04317995 0.13630368 0.19961263
0003c0 c8 ac c4 3d be 24 64 3d 17 07 b9 3b ac 77 81 bd
       0.09603268 0.055699103 0.005646597 -0.06321654
0003d0 56 99 92 3d d5 69 11 3c f6 e0 b8 bd ac 8f 17 3e
       0.07158153 0.00887533 -0.09027283 0.148009
0003e0 34 d7 18 3e e6 6d 1a be 14 1a 2b 3e b1 e6 30 3e
       0.14925843 -0.15080985 0.16709167 0.17275502
0003f0 2e 7a 13 be e9 a1 b3 3d a8 83 41 3e 98 f8 5b 3d
       -0.14402077 0.08771116 0.18897879 0.053703874

1.2.weight f4 [128, 256]
000000 50 12 cb 3b c1 8b 6f 3d 48 ba 0e bd 76 b2 cc 3c
       0.0061972514 0.05848289 -0.03484562 0.02498744
000010 98 02 88 3c 21 55 31 3c 6a 28 42 bc 6a 3a 28 bd
       0.0166028 0.010823519 -0.011850456 -0.041071333
000020 14 90 ae bc 65 fe 22 3c da 61 82 3b 1d d8 cc 3c
       -0.021308936 0.009948348 0.00397895 0.025005395
000030 4f 98 cc 3b bc 93 70 3a f1 af 31 3d a9 cf 54 bd
       0.0062437425 0.00091772876 0.04338068 -0.051955853
000040 d1 21 40 3d 27 b9 41 bd b7 d5 18 3d dc 12 1c 3c
       0.04690725 -0.047295716 0.03731319 0.009525981
000050 3c 12 5b bd f5 f3 65 bd e4 c3 94 3b 74 3e 03 3c
       -0.053484187 -0.05614086 0.0045399535 0.008010495
000060 16 e3 6e bd 96 9b 0d bd 2a c3 fe 3c 22 ef 8a bc
       -0.058322035 -0.034572206 0.03109892 -0.01695973
000070 de c2 06 bd 5d 94 f0 bc ed 56 a4 3c 72 2e d0 3c
       -0.032900684 -0.02936762 0.02006098 0.025412772
000080 ce 36 4f bd 3a aa e3 bc 98 84 94 ba 53 a0 9c 3c
       -0.050589375 -0.027791131 -0.001133102 0.019119417
000090 6d 0f b9 3c 87 11 df 3c 10 70 42 bc 96 4b a5 3c
       0.022590363 0.027230037 -0.011867538 0.020177644
0000a0 80 91 1d 3d 5b 56 41 bd dc 80 92 3c 3b d0 71 3d
       0.038468838 -0.047201496 0.01788371 0.059036475
0000b0 61 e3 79 3c 54 de 80 3c ae 2c ca bc 08 74 04 bc
       0.015251965 0.015731014 -0.024679508 -0.008084305
0000c0 44 ea 20 3c 6c 7f 53 3d 43 39 77 3d 55 b4 1e 3c
       0.009821478 0.05163519 0.060357343 0.009686549
0000d0 a6 07 1e bd 1d e7 37 bd 4a 6a 37 3c c0 da 4f 3d
       -0.038581513 -0.04489814 0.011194775 0.050745726
0000e0 40 25 3b 3d f7 ed f2 bc ae 55 a3 bb f3 ec 29 3d
       0.04568982 -0.029654486 -0.004984579 0.041485738
0000f0 db cf 3f 3d bc 7d 24 bd d0 3a 49 3d eb a8 1f bd
       0.046829086 -0.040158972 0.049128354 -0.038979452
000100 39 b3 2f bc 26 ff 83 bd d5 cc 81 bd 06 30 a7 3b
       -0.010723882 -0.0644515 -0.06337897 0.0051021604
000110 4e 30 04 3c d5 24 dc bc a8 fb 6a bc c5 12 09 bd
       0.008068157 -0.026873032 -0.014342226 -0.033465166
000120 a7 b6 7f 3d 57 5b 2e 3d dc 78 46 bd 39 dd ee 3c
       0.06243005 0.042567577 -0.048455104 0.029158222
000130 e7 7d de bc 4f 5d 1a bd 50 36 3f bd df 04 43 bd
       -0.027159644 -0.037686642 -0.046682656 -0.047612067
000140 c2 15 ee 3c 71 98 30 3d 9b 83 80 3d 33 69 f3 bb
       0.02906311 0.04311413 0.06275102 -0.007428312
000150 0e 14 07 3d 02 0e 84 3c f8 05 5f bd 3f d1 35 3d
       0.03297811 0.01611996 -0.05444905 0.044389006
000160 71 c4 97 3c 78 e1 59 bd e8 4e 12 3c c9 b4 62 bd
       0.018526288 -0.05319354 0.0089299455 -0.05534819
000170 cc ad 5b bc e9 5b be bc 52 68 61 3d b5 64 80 ba
       -0.013408136 -0.023237186 0.05503113 -0.0009795638
000180 83 4e 0f bd 76 66 f8 3c 95 8e 9e bc 76 6f 2e bd
       -0.034986984 0.030322295 -0.019355098 -0.042586766
000190 00 00 aa bc d1 68 43 3d 7b 03 57 3d fd 80 06 bd
       -0.020751953 0.047707383 0.052493554 -0.032837857
0001a0 2c d5 04 bd 85 48 0c 3d c7 b1 bc bc df d8 1d 3d
       -0.03242986 0.034248848 -0.02303399 0.038536903
0001b0 c4 74 db bc 1a 34 61 3d 75 8e 2e bd 58 5d 19 bd
       -0.026789077 0.05498133 -0.042616326 -0.037442535
0001c0 54 a0 b6 bc 60 93 9a bc f9 01 91 3b b9 13 02 bd
       -0.022293247 -0.018869102 0.004425284 -0.03175709
0001d0 47 33 33 bd ee f5 33 3c b5 ae 73 bd 26 79 2f bd
       -0.043750074 0.010983927 -0.059492785 -0.042840146
0001e0 b5 3c a0 3c f9 66 26 bd 24 80 f5 bc 0d f7 2b 3d
       0.019560197 -0.040625546 -0.029968329 0.041983653
0001f0 36 18 be 3c b6 de 34 bc 2d d5 5b 3c 2a 5b 3d bd
       0.023204904 -0.011039427 0.013417524 -0.04622952
000200 af 80 3f 3d 9d 9c 22 3d 5b 45 be bc bf 12 2b bd
       0.04675358 0.03970014 -0.02322643 -0.041765925
000210 4e a3 65 3c c2 1e 70 3d c8 53 16 bd a8 07 6a 3d
       0.014015986 0.058623083 -0.036700994 0.057136208
000220 de 39 1a 3d a8 71 a1 bb c7 57 87 3c 49 e5 73 3d
       0.037652843 -0.004926879 0.016521348 0.059544835
000230 74 e3 70 bd 36 25 43 bd 27 4c 0d 3d 82 b9 71 3c
       -0.058810666 -0.04764291 0.034496453 0.014753701
000240 e5 e0 12 bd 2d f6 0e 3d 90 ac 08 3d 78 a4 da bc
       -0.035859007 0.03490274 0.033367693 -0.026689753
000250 51 c3 e0 3c 52 42 8c 3c ce 87 a9 bb 4b b1 30 ba
       0.027436884 0.017121468 -0.00517366 -0.0006740286
000260 0d 07 17 3d e6 a9 60 3d 64 7e 3f bd f0 fd 81 bc
       0.03687196 0.054849528 -0.046751395 -0.015868157
000270 7a 99 32 bc 36 42 d8 bc ea 60 5d 3d b6 64 77 bd
       -0.0109008495 -0.02639876 0.054047503 -0.06039878
000280 4d b6 50 bc b2 80 34 3d ec 72 d5 3c e8 bf 9a bc
       -0.012738776 0.044068046 0.026055776 -0.018890336
000290 4e 9e 08 bc 7e 20 43 3d 63 49 6e ba 50 5b 79 3d
       -0.008338524 0.04763841 -0.0009089915 0.060878098
0002a0 5a 95 3e bd 22 af 4a bb 27 a4 61 bd 69 f2 5f bc
       -0.04652915 -0.0030927141 -0.05508819 -0.013668635
0002b0 31 a6 63 3d cd e9 53 3d 8d 62 f5 bc 81 17 35 3d
       0.055578414 0.05173664 -0.02995422 0.04421187
0002c0 45 71 63 bd 7e 71 52 3d ca 26 75 bd 09 63 36 bd
       -0.055527944 0.051377766 -0.059851445 -0.04452804
0002d0 0f f6 69 bd 71 af 06 bd 6b bc e6 bc eb ad 94 3b
       -0.057119425 -0.032882158 -0.028166017 0.004537334
0002e0 be 73 03 bc 2a 6b 4a 3d 64 6c 63 3d 58 65 e4 3c
       -0.008023201 0.049418606 0.05552329 0.027880356
0002f0 df 31 f8 bc 42 79 99 3c 1d b4 bd 3c 16 01 58 bd
       -0.030297218 0.018734578 0.023157174 -0.05273541
000300 ca 8a 13 bd 19 45 3f bd e3 54 83 3b e2 f4 89 bc
       -0.03602103 -0.046696756 0.004007922 -0.016840402
000310 51 23 01 3d 0c 9c 23 3d de d6 82 b9 85 f1 68 bd
       0.03152782 0.03994374 -0.0002495562 -0.056870956
000320 e7 22 ec 3c 1e d3 6a bd 92 1f eb 3c f4 41 54 bd
       0.028825236 -0.057330243 0.028701577 -0.05182071
000330 2d 23 5e 3d e6 d0 9b 3c 68 08 a8 ba f4 e2 bf 3b
       0.054232765 0.019020509 -0.0012819888 0.0058559123
000340 66 e5 fd bc 61 b3 0f 3c a5 dc 11 bc 88 b5 71 3d
       -0.030993175 0.008770795 -0.008902703 0.059011012
000350 b0 34 10 bc 51 bc 4b 3d d5 e7 2b bd b8 a4 39 3c
       -0.008801624 0.04974014 -0.04196914 0.011330776
000360 87 5d ff 3c 24 48 41 3d b7 49 ff bb 8b ca ac bb
       0.031172527 0.04718794 -0.00779077 -0.0052731684
000370 52 3c 5e bd 5a 99 54 bd a4 bf 52 3b 9b 31 76 3d
       -0.054256745 -0.05190406 0.0032157684 0.0601059
000380 b6 3b 7c 3c 40 10 e4 3c ef e3 f6 bc 38 ef 5d 3d
       0.015395096 0.02783978 -0.030137984 0.054183215
000390 22 40 07 3c 63 ee 1f bc 23 88 5b bd 49 3e 44 bd
       0.008255037 -0.009761426 -0.053596627 -0.047910962
0003a0 b8 2c 56 3c 69 d7 63 3d 67 80 d4 bb 54 d8 e1 ba
       0.013072185 0.055625353 -0.0064850333 -0.0017230609
0003b0 9e 4c 3f bc d1 43 a0 bc 8b c0 2d 3d d7 0a 7c 3d
       -0.011675982 -0.019563587 0.04241995 0.061533775
0003c0 39 ea 7b bd 9f e1 77 bc c7 bf d8 bc 70 77 03 bd
       -0.06150267 -0.015129476 -0.026458634 -0.032096326
0003d0 e8 18 08 bc 00 7a 7a bd 35 8a 76 bb dd e6 1c bc
       -0.008306719 -0.061151505 -0.0037619 -0.0095765265
0003e0 f6 79 90 bc dd eb 94 bb a4 ca 67 3d cc 4e 46 bc
       -0.01763628 -0.0045447187 0.056589738 -0.012103748
0003f0 23 f9 2d bd a8 e5 1d 3d ec 83 8f bc 0a 02 fa ba
       -0.042473923 0.038549095 -0.01751896 -0.0019074094

1.2.bias f4 [128]
000000 9f 74 e6 bc a4 ab 63 bd 79 01 03 3c 77 c5 50 bd
       -0.028131781 -0.05558361 0.007995957 -0.050969567
000010 c2 9b 82 bd e4 2e 69 ba 34 b5 47 3d fb 2c 75 bd
       -0.06377365 -0.0008895232 0.048756793 -0.05985735
000020 f1 5d bb bc 0b fd 43 bd 8a 50 82 bb 06 31 74 bc
       -0.022871943 -0.047848742 -0.003976886 -0.014904266
000030 a6 8d 8e bc a5 37 98 bc 55 cd 00 bd 2e fd 1b 3d
       -0.017401528 -0.01858122 -0.03144582 0.038083248
000040 f2 60 80 3c 5f ca fb 3c 59 e2 41 bd 2d 8d 48 3d
       0.015671227 0.030736146 -0.047335003 0.04896276
000050 89 8f 09 bb c3 12 e6 bc f7 19 82 bd 8c 69 6f bd
       -0.0020990095 -0.028085118 -0.06352609 -0.058450267
000060 39 2f 14 3d 36 c8 4f bd b9 9e 3a 3d 76 43 1a bc
       0.036177848 -0.050728045 0.045561526 -0.009415498
000070 2d 9e 6e 3d 23 5f 3c 3d 89 26 03 bd 9b a4 0b 3d
       0.058256317 0.045989167 -0.032019172 0.034092527
000080 5f a1 8a 3c 6d 05 80 3c 15 e7 93 3b 8c eb 9a 3c
       0.01692265 0.015627587 0.004513631 0.018911146
000090 ef 66 17 bd 08 2b 32 3d 8e d8 63 bd 3e 12 2e bd
       -0.0369634 0.04349807 -0.055626445 -0.042497866
0000a0 66 bc 45 3d 09 0c 12 bc 45 0f 0f 3d 8f 74 06 bd
       0.048275374 -0.008914002 0.03492667 -0.032826003
0000b0 39 90 6e bd 3f df 0d bd bf 8b e1 bc 79 99 9c 3c
       -0.05824301 -0.034636732 -0.027532456 0.01911615
0000c0 b2 69 78 3d 92 b1 01 bd 26 1e 40 bc 62 b7 d9 bc
       0.060647674 -0.031663485 -0.011725938 -0.026576702
0000d0 1c b0 51 3d 3f f7 08 3c d6 a9 a2 bc be d3 8e bc
       0.05119334 0.008359729 -0.019856375 -0.01743495
0000e0 2f 8b d8 bb a2 7f 0d 3d 35 c6 3e 3d 7d 19 5d bd
       -0.006608389 0.03454555 0.046575744 -0.053979386
0000f0 af 1e 0a 3d 4c 87 ab bc 38 1e 9c bd ff 8e 74 bd
       0.03372067 -0.020938538 -0.07622951 -0.059706684
000100 50 90 0b bd 27 8a ae ba dc db 32 bd 84 88 6e 3d
       -0.034073174 -0.0013316319 -0.043666705 0.05823566
000110 17 1b 82 3d 88 b6 53 bd d5 36 5a bc b6 73 31 3d
       0.06352823 -0.051687747 -0.013318737 0.04332324
000120 c9 b9 21 bd 99 fe ad 3a ba 93 46 38 32 01 9d bc
       -0.03948382 0.0013274729 4.734446e-05 -0.019165609
000130 24 e4 cc 3b 22 79 54 3d d9 cd 83 3d 09 cf 4e 3d
       0.0062527824 0.051873334 0.06435747 0.050490413
000140 16 ae 38 bc 18 c9 c4 bb 3a f2 82 bd 33 df 1b bb
       -0.011271974 -0.0060054176 -0.06393857 -0.002378416
000150 69 26 69 3d ac 8a 1a bd 04 67 27 bd dd 51 4f bd
       0.056921396 -0.037729904 -0.040869728 -0.05061518
000160 80 3c ba 3c e3 3d 76 bd 3b 73 e4 bb 6e d7 e4 3c
       0.022733927 -0.060117614 -0.0069717444 0.027934756
000170 55 65 05 bd 7d 8c d7 bc 8f 47 92 bc 75 e9 b9 3c
       -0.03256734 -0.026312107 -0.017856387 0.022694329
000180 e1 9e 52 3d 65 63 c1 3c 34 2d 2e 3d 44 40 10 bc
       0.05142105 0.023606965 0.042523578 -0.008804385
000190 2f 29 65 bb 63 1a 5d bd 6d 13 e5 3c 27 d6 82 bd
       -0.0034967174 -0.053980242 0.027963364 -0.063885026
0001a0 4a dc ca 3a 1e 22 3e bd 06 f5 5c 3d 1a 80 46 3c
       0.0015477028 -0.046419255 0.05394461 0.012115503
0001b0 9f 34 06 3d 60 c1 5a bc 72 ea 1e 3d 69 93 34 3d
       0.032765027 -0.013351768 0.038797803 0.044085894
0001c0 c7 65 12 3d 6d 48 c6 3c b8 8e 83 bc c5 e0 5d bc
       0.035741594 0.024204457 -0.016059265 -0.013542359
0001d0 f4 b7 54 3d e4 80 59 bd 32 90 24 3d 5f ab 3f 3c
       0.051933244 -0.053101435 0.040176578 0.011698573
0001e0 5c fc 83 bd 7f 8b 24 bd b5 c3 1f bd 47 00 33 3d
       -0.06444618 -0.040172096 -0.039005 0.043701436
0001f0 65 7a 1c bd b2 81 67 bc 07 5e f1 3c 2e e4 30 3d
       -0.038202662 -0.014130043 0.029463781 0.04318636

1.4.weight f4 [96, 128]
000000 4a 9e 35 3d fb 21 85 bd 7b 2b f3 bc 97 c5 8a 3d
       0.04434041 -0.06500622 -0.029683819 0.067759685
000010 cc af c6 3d 3e 96 97 bd 9b 87 a4 bd 42 a1 bb 3d
       0.09701499 -0.07401703 -0.08033677 0.09161617
000020 3a f1 a5 3d 5c 7a 95 bd ec 1e 94 bd 0b c2 6e bd
       0.08102651 -0.07298729 -0.072324604 -0.058290523
000030 d7 7b 1b 3d 66 b3 af 3d 79 08 49 bc 09 00 14 3d
       0.0379599 0.085791394 -0.012270086 0.036132846
000040 a8 d9 ad bc c5 b0 e5 bc 25 d4 eb 3c 3e 8d aa 3d
       -0.02122195 -0.028038392 0.028787682 0.08327721
000050 35 dc 89 3d db 79 47 bd eb c0 4f 3d 30 81 70 bc
       0.06731454 -0.048700195 0.05072109 -0.014679238
000060 7f b5 92 bc b4 3b 14 bc 3b 93 ec bc bd 95 f4 3c
       -0.01790881 -0.009047437 -0.028878799 0.029856557
000070 40 96 74 bc a2 f6 1c 3d 79 a3 58 3d 2e 50 29 3d
       -0.0149284005 0.038321145 0.052890275 0.04133623
000080 57 3c a6 3d 46 97 8f bd e6 44 ca 38 9d ba 82 3d
       0.08116978 -0.07011275 9.644944e-05 0.0638325
000090 87 b9 a5 bb a3 eb b0 3d c8 ba e4 bc 20 07 7c 3d
       -0.005057517 0.08638694 -0.027921095 0.061530232
0000a0 a1 dc 8a bd 8a 4c cd bc d3 f5 7c 3d a9 86 77 bd
       -0.06780363 -0.02506091 0.061757874 -0.060431156
0000b0 bd 2b 22 3d 70 2f 5b 3d 25 28 c5 3d 67 00 5f 3d
       0.039592493 0.053512037 0.096267976 0.054443743
0000c0 f1 a2 95 3d b9 5c da 3c 84 84 36 3c b7 0b 8a bd
       0.07306469 0.026655542 0.011139993 -0.06740516
0000d0 1b 57 9a 3d 2b b6 a7 bd 63 1b 60 bd 42 72 ac 3c
       0.07536145 -0.08189043 -0.054713618 0.021050576
0000e0 f3 1e 61 3d fa 0e ae 3d 85 3b 47 3c 2b 90 88 bd
       0.054961156 0.0849895 0.012160187 -0.06668123
0000f0 ff 90 88 bd be 87 59 bd 05 c0 9b 3d 20 02 e6 bb
       -0.06668281 -0.05310797 0.07604984 -0.0070192963
000100 b2 c1 90 3d 56 de e8 bc 27 bb 4b 3d a9 93 70 3d
       0.070681944 -0.02842633 0.04973903 0.05873457
000110 cd cd 30 3d 38 16 64 3b b4 91 0e 3d 22 7c 9f bd
       0.043165017 0.0034803282 0.034806922 -0.07787348
000120 8d a6 ef bc 79 c9 51 bd 20 82 66 bd 97 38 8e bd
       -0.029254222 -0.05121753 -0.05627644 -0.069443874
000130 40 63 30 3c 6e 2e a6 bd b9 a6 9f 3d 6d b2 6e 3d
       0.010765851 -0.081143245 0.07795472 0.05827563
000140 0c 8c 0d 3d e5 b1 4a bd 27 92 9f bd f6 74 c4 3c
       0.034557387 -0.04948606 -0.07791548 0.023981553
000150 27 d3 87 3c e0 0e 62 3d 11 ab 78 3d 48 37 76 3d
       0.016580177 0.055189967 0.060710017 0.060111314
000160 45 76 e0 bc bd 3c 7e 3d ad 14 54 bb 92 8f 77 bc
       -0.027400145 0.062069643 -0.0032360957 -0.015109913
000170 c7 e5 c4 bc 39 39 30 3d 2b 70 88 3d cb 58 33 3d
       -0.024035348 0.04302332 0.06662019 0.04378585
000180 22 93 05 bc b8 c8 39 bc 31 49 0a bd 09 d2 ba bd
       -0.008152755 -0.011339359 -0.033761207 -0.09122092
000190 79 40 12 bd c4 07 28 bd 04 d4 39 3b 3f 4a 9c 3d
       -0.035706017 -0.04102303 0.002835513 0.07631349
0001a0 ad 56 0f bd ed 86 45 bb d5 d6 6b bd 52 00 83 3d
       -0.03499477 -0.0030140236 -0.057577927 0.063965455
0001b0 ce 74 a1 bd 61 c1 82 bc 4a 2c b9 bc 1c ad fc bc
       -0.07883607 -0.01596135 -0.022604126 -0.030844264
0001c0 1c 82 a0 bd a3 2f 15 3d fe 83 12 3d 56 91 84 bd
       -0.078373164 0.036422383 0.03577041 -0.06473033
0001d0 ad 2f a8 bb ae f2 d2 3c 2f 64 f4 bb 57 d6 78 bc
       -0.0051326365 0.025750484 -0.007458232 -0.015187821
0001e0 78 1c ce 3c 19 55 46 ba 2f 8d 2a 3d d2 43 78 3d
       0.02516006 -0.0007565781 0.04163855 0.060611553
0001f0 04 35 cc 3c 0a fc a2 bd 3f a7 57 bb 27 16 53 bd
       0.024927624 -0.07958229 -0.0032906083 -0.051534798
000200 b1 be 33 3d 4c 40 a2 bd 5b b4 9a 3d d5 9d 9f 3c
       0.04388303 -0.0792242 0.07553931 0.01948444
000210 c8 4b 4a 3b 4d a3 0e 3d 6f 4c 78 3d a8 7c 0e 3c
       0.0030867923 0.034823705 0.060619768 0.008696713
000220 12 6f 5c 3d 94 3b af bd b5 e1 fb 3c f3 45 14 3c
       0.053816862 -0.085562855 0.030747274 0.00904988
000230 fc 7d a0 3d d8 e2 94 bd ea f2 8a bd a6 8a 6a 3b
       0.078365296 -0.072698295 -0.067846134 0.0035788207
000240 e1 4f 36 bd 3d e1 94 3c f7 d6 97 3d 75 ed 3b 3d
       -0.044509772 0.018173808 0.07414048 0.045880754
000250 d6 50 a9 3d ba c6 5b bd bb 2f 7b bd db 85 18 bb
       0.08267371 -0.053656317 -0.061324816 -0.0023273143
000260 ef 31 61 bd 28 ef 91 3d 05 14 a5 bd a3 f3 03 3d
       -0.05497926 0.071256936 -0.08060459 0.032214772
000270 31 33 45 3d 82 1a 8a bd 1b 82 50 bd 0e 57 e4 3b
       0.048144523 -0.06743337 -0.05090533 0.0069683855
000280 63 ef 3f 3d f6 21 93 bd 76 7a 85 3d 18 ce 1b 3d
       0.046859156 -0.07184212 0.06517498 0.038038343
000290 a3 20 32 3d 3d 19 bd bb 4b a8 21 bd 55 8c 3b 3b
       0.043488156 -0.005770831 -0.039467137 0.002861758
0002a0 5e 7a 71 3d 89 8f 90 3c b5 3a 3b bb f1 23 9f 3c
       0.05895459 0.017646568 -0.0028568928 0.019426318
0002b0 c6 fd 3c 3b 38 80 84 bd 3e 63 81 bd 86 04 a0 bd
       0.0028837784 -0.06469768 -0.06317757 -0.07813363
0002c0 8e 52 2a bd f6 cc cb bb ea c0 9d 3d af 5c 86 3d
       -0.041582637 -0.0062195016 0.07702811 0.06560647
0002d0 89 07 b9 bc 95 ca 82 bd fe 07 80 bc 62 51 25 bd
       -0.0225866 -0.06386296 -0.015628811 -0.040360816
0002e0 b9 ad d4 bc ee b4 98 3d ed dc 7e 3d b9 6f 32 bb
       -0.025961744 0.074563846 0.06222241 -0.0027227236
0002f0 11 ab ef bc de dd 6b bd 26 78 e8 3c cc b1 87 3d
       -0.029256376 -0.057584636 0.028377604 0.06625709
000300 1f ba 0f bd 73 91 81 3d 17 d9 8c bd e2 53 c9 bc
       -0.03508961 0.0632657 -0.06877344 -0.024576131
000310 02 c8 93 bd b1 d9 8c bd 19 e5 89 bd 6a 3f 01 bd
       -0.07215883 -0.06877459 -0.0673315 -0.031554617
000320 34 12 24 3d 27 24 bc 3c 60 cb 96 bd 1b 49 8e bd
       0.040056422 0.022966458 -0.073630095 -0.069475375
000330 89 e8 aa bd f5 56 92 3d 70 6d a3 3d a3 76 ab bc
       -0.08345134 0.07145492 0.07979858 -0.020930594
000340 90 7c 99 3c fd ee 83 bd 65 0f ae 3d 55 59 a3 bd
       0.018736154 -0.06442068 0.0849903 -0.07976023
000350 b3 fb 5a bd 5b 0f 87 bd 2d e3 6a 3d bf 78 3c 3d
       -0.053462695 -0.06594726 0.057345558 0.04601359
000360 aa f7 a5 bd fa d4 05 3d 8c ab 22 bd 1b 37 60 3d
       -0.08103879 0.032673813 -0.03971438 0.054740053
000370 fd f5 fc 3b f6 c7 44 bc 62 da ca ba 7b 15 08 3b
       0.007719754 -0.012010565 -0.001547646 0.0020764756
000380 58 df 6e bd 26 49 eb bc 9f eb 12 bc 17 df a2 bc
       -0.058318466 -0.028721403 -0.008967309 -0.019881768
000390 41 75 bf 3c 1d 88 80 3d b0 b1 b2 bd ed a0 ca 3b
       0.02337134 0.062759615 -0.087252975 0.0061837346
0003a0 ec 87 9c bd b6 14 5d 3d 7e a3 a7 bd 82 3a f8 3c
       -0.076431125 0.05397483 -0.081854805 0.030301336
0003b0 23 8f 8c 3d c2 a7 1e bd 9d e7 4f bd 4a 9f a4 bd
       0.06863239 -0.038734205 -0.050757993 -0.080381945
0003c0 3a 93 45 3d 4f 05 87 3d e3 a6 9c bd f9 98 5c bc
       0.04823611 0.065928094 -0.076490186 -0.013464206
0003d0 46 4d 94 bd aa 72 61 3c b1 ce a5 3c 5b 14 5c 3c
       -0.07241301 0.013760248 0.02024016 0.0134325875
0003e0 d4 e9 55 bd d7 99 24 bd e2 d8 af bd af 80 6a bd
       -0.05222495 -0.040185776 -0.08586289 -0.05725163
0003f0 9d fa b4 bd 2f 5d 77 3d ee 3c 8f 3d d9 c9 8c bd
       -0.08836863 0.0603916 0.06994043 -0.06874437

1.4.bias f4 [96]
000000 8c 55 89 bd 32 3c 87 bd 54 4c 5c 3a e0 c1 35 bc
       -0.0670577 -0.06603278 0.0008403708 -0.011093587
000010 60 4d 91 bd 3b 6e 36 bd 32 ba 63 3c a9 8f ee 3c
       -0.07094836 -0.044538718 0.013899373 0.029121237
000020 2c eb 04 3d 91 60 b9 3b 24 a2 00 3d 8b 90 ad 3c
       0.03245084 0.0056572636 0.03140463 0.021187088
000030 68 76 63 3c 4d 27 5f 3d 29 72 8f bd fd c2 4c bb
       0.013883211 0.05448084 -0.07004196 -0.0031244152
000040 96 5c 47 3d e2 08 36 bd 11 b1 68 3c 2a 05 5b 3d
       0.04867228 -0.044442065 0.014202372 0.05347172
000050 8b 92 ae bd 77 98 86 3d 9e de b0 bd 34 be ea 3c
       -0.085240446 0.06572049 -0.08636211 0.028655149
000060 02 46 0a bd 65 c9 67 bd ea e5 d2 3c ce 49 62 bc
       -0.03375817 -0.05658855 0.025744397 -0.013811542
000070 43 ca b4 bd 75 d8 7a bd 69 81 1c bd ee 7b 1e bc
       -0.08827641 -0.061241586 -0.038209353 -0.009673102
000080 c0 c6 87 bc 3b dc 71 3d 8a d3 90 bd f7 35 8f bd
       -0.016574264 0.05904792 -0.07071598 -0.06992715
000090 0f a3 66 bc 12 06 98 3c d2 9c 6b 3c c2 98 89 3d
       -0.014076962 0.018557582 0.014380651 0.06718589
0000a0 c9 ff 8a 3c 28 88 8e bd f9 a9 91 3d 23 4c 71 3d
       0.016967671 -0.069595635 0.07112498 0.0589105
0000b0 58 a7 7f bd b6 99 08 bd 00 5a 55 3d 9e db 9f 3d
       -0.06241545 -0.033349715 0.052087784 0.078055605
0000c0 9a 3f 85 3b 6d 6e cc bd c5 c3 da bc 18 eb 7a 3d
       0.00406642 -0.099819995 -0.026704678 0.06125936
0000d0 2c 16 72 3d de 99 1f bd 91 f0 d5 3c 0e ac 94 bb
       0.059103176 -0.0389651 0.026115688 -0.004537112
0000e0 b2 1a c3 ba 5d 85 a6 bd 7b ae 94 bd d3 10 07 3a
       -0.0014885275 -0.08130906 -0.07259842 0.00051523483
0000f0 91 0c cb 3c 59 92 00 bd be cf 86 3d 29 21 56 3d
       0.024786266 -0.031389568 0.065825924 0.052277718
000100 ff cf 2b bd f8 aa ec bb f8 cc bc bd 86 18 7a 3d
       -0.041946407 -0.0072225295 -0.09218782 0.061058544
000110 4d 9b 77 bd 08 2d 4d bd aa ec b5 3d d9 7f 56 3d
       -0.06045084 -0.050091773 0.08883031 0.05236802
000120 e6 98 f0 3c 2a 91 72 3d 62 e7 be 3c 95 4f 79 bd
       0.029369783 0.05922047 0.023303691 -0.06086691
000130 dc e7 56 bd 0c 78 8f 3d 40 a7 87 bd 3f 12 c2 bc
       -0.052467212 0.07005319 -0.06623697 -0.023690341
000140 58 1e a9 bd 2b d7 39 3d ef d5 79 3d 8e 51 a1 3c
       -0.08257741 0.045371216 0.06099504 0.019692209
000150 bf 21 80 bd 9d 0e 3e 3c 67 ad e3 bc 4b de 1d 3c
       -0.062564366 0.011600164 -0.027792646 0.009635518
000160 97 16 80 bb c3 7b 26 bd e1 ff e2 bc e7 ee 89 bd
       -0.003908943 -0.040645372 -0.027709903 -0.0673502
000170 0d 0d 6e bd bc 81 ab bd 93 47 f9 3c ed 67 2d bd
       -0.058117915 -0.08374354 0.030429637 -0.04233544

1.6.weight f4 [64, 96]
000000 a7 8d 98 3c d1 a4 f2 3c d9 4a b5 bd fe 34 a3 bd
       0.018622233 0.029619606 -0.08852167 -0.07969092
000010 e0 15 3b 3d e9 04 70 3c ac de c9 bd 5a 0d bd bb
       0.04567516 0.014649608 -0.098569244 -0.005769414
000020 32 29 a3 bd c6 0d 92 bd c6 53 25 bd 39 96 16 bc
       -0.07966842 -0.07131533 -0.040363096 -0.009191089
000030 af e7 a7 3d 99 0b 25 3d c8 82 83 3d e7 7b b9 3d
       0.08198487 0.040294264 0.06421429 0.090568356
000040 da 52 df bd fd 81 a6 bd 4d 0f 5a 3c 8c ef 52 bd
       -0.109044746 -0.08130262 0.013309312 -0.05149798
000050 55 16 0f 3d 07 3f 0d bd 8f ab f7 bc ac 67 79 bd
       0.034933407 -0.034483936 -0.030233173 -0.060889885
000060 64 1e 8a 3d 13 0c 0e bd a5 e4 b3 bc af 1e 4e bd
       0.06744078 -0.034679484 -0.021959612 -0.05032223
000070 f2 52 6f 3d 1f 42 13 3d 9e 48 76 3d bf 65 70 3d
       0.058428712 0.03595173 0.060127847 0.058690783
000080 7c 46 27 bd 02 54 54 3d be 24 cd 3d 5a d6 0e 3d
       -0.040838704 0.05183793 0.10016774 0.03487239
000090 87 48 9d bd 4b a2 73 bd 3d 0d 1e 3b df ef 31 bd
       -0.07679849 -0.059480947 0.0024116777 -0.04344165
0000a0 8c dc 16 3d 51 29 b9 bc 51 1d eb bc f8 af 8d 3d
       0.036831424 -0.022602709 -0.028700503 0.06918329
0000b0 bd fd a7 3d 07 b7 1d ba a0 6e 36 bd b2 02 9a bd
       0.082026936 -0.0006016348 -0.044539094 -0.07520045
0000c0 c3 95 b9 3d 28 64 ad bd 72 2c b3 bb 4d c3 62 3d
       0.09061768 -0.08466369 -0.005467945 0.055362035
0000d0 04 db be bc b8 61 2f 3d 6b 6b 3d bd a6 c7 61 3d
       -0.023297794 0.0428178 -0.04624502 0.05512204
0000e0 99 14 24 bd 6c d0 95 3c 7a 12 ac bd ca af 5c 3d
       -0.040058706 0.01828786 -0.084019616 0.053878583
0000f0 7e a8 e8 ba dc 67 10 bd f9 9b 84 3d 17 e1 1c bc
       -0.001775041 -0.035255298 0.06475062 -0.00957515
000100 a6 63 b7 3d a9 34 1c bb 73 56 52 bd f4 80 4d 3d
       0.08954553 -0.00238351 -0.051351976 0.050171807
000110 ac 01 cc 3c e9 36 c8 bd 7f 43 1e 3d 25 fa 9c 3b
       0.024903141 -0.09776098 0.038638588 0.0047905617
000120 78 d5 62 bd fd 9c 25 3c 6e 97 20 bd bd 10 f7 bc
       -0.05537936 0.01010823 -0.039206915 -0.030159349
000130 7d 7e 63 bc ff 2f ac bd 5f 98 69 3d 61 d5 b1 bd
       -0.013885138 -0.08407592 0.057030078 -0.08683277
000140 54 8b 60 3d a2 03 c3 3d eb 3d bb 3d 9b da 72 3c
       0.054820374 0.09522177 0.09142669 0.014822627
000150 ba 07 ff bd dd d3 bb 3a 70 68 3d 3d cc 60 21 bb
       -0.124526456 0.0014330108 0.046242177 -0.0024624346
000160 ec 4c 26 bc f5 22 57 bd 6f ba 8f 3d e2 6b 2b 3d
       -0.010150176 -0.052523572 0.07017981 0.041850932
000170 35 34 af 3c b7 7e eb bc 1d 77 b4 bd eb bb 82 3c
       0.021387199 -0.028746946 -0.088117816 0.015958747
000180 cb 02 ab bd 2e 15 c9 3d 17 70 4f bd 37 29 c2 bd
       -0.08350142 0.09818493 -0.050644007 -0.09480517
000190 59 86 af 3c 44 82 96 bd c4 4b 1a 3d 37 e9 37 3d
       0.021426367 -0.07349065 0.037669912 0.044900145
0001a0 0f 37 83 3d 6d 1f 96 bd 31 f6 3d 3d c9 03 ae bd
       0.06406986 -0.07330213 0.046377365 -0.08496816
0001b0 40 9a 95 3d 33 e9 91 3d 07 0b cc bd f0 0c 83 bd
       0.073048115 0.07124557 -0.09963041 -0.06398952
0001c0 dc 66 ba 3c 4e 57 b4 bd f1 b7 be bc 7d f6 d1 3d
       0.022754125 -0.088057145 -0.02328107 0.10252092
0001d0 cc d0 0f bd 11 b0 33 3d 15 73 82 3d 84 98 c8 bc
       -0.035111234 0.043869082 0.063696064 -0.024486788
0001e0 ba 0b a4 3d 63 82 7e bd 9e b8 7c 3d 90 6b a5 bd
       0.08010049 -0.062136065 0.061699502 -0.080771565
0001f0 0a d6 a2 3d 9a 3f b8 bc 0a fc 26 bd 39 9d 52 3c
       0.07950981 -0.022491265 -0.040767707 0.012854868
000200 d8 08 6e 3d 55 52 73 3d fe 90 4b 3d f1 97 57 bb
       0.058113903 0.05940469 0.049698822 -0.003289696
000210 e6 69 d8 3c 36 3b 3d 3d 1e 83 45 3c e8 37 53 3d
       0.026417684 0.046199046 0.012055187 0.05156699
000220 e3 1d 29 3b ab 7f 75 bd 1c 1d 8a bd 7b a5 0d 3c
       0.0025805167 -0.059936207 -0.067438334 0.008645411
000230 dd 1b 5f bd f2 c8 64 3d 22 d1 9a 3d 2b e6 d1 3d
       -0.054469932 0.0558557 0.0755942 0.10248979
000240 e6 76 50 3d 0c c7 29 3d f7 41 c1 3d dc d3 8b 3d
       0.05089464 0.04144959 0.0943641 0.06827518
000250 e2 08 d3 bd 82 a7 46 bd f9 6f 82 bd 65 84 4f 3c
       -0.10304429 -0.04849959 -0.06369013 0.012665843
000260 c8 f7 2f bd 70 aa de 3b 87 48 ae bd 63 9c 89 bd
       -0.042960912 0.00679522 -0.08509927 -0.067192815
000270 7c 2b 51 3d a7 65 67 3d 2c 70 4d bd a8 7d d4 bd
       0.05106686 0.056493428 -0.050155804 -0.103755295
000280 3a fa 87 3d f6 e9 22 bd 46 30 a5 bc 55 af 3d 3d
       0.06639524 -0.039773904 -0.02016462 0.046309788
000290 6b 34 d2 3c f2 34 c8 bd 9f c4 20 bd 8e da a0 bd
       0.02565976 -0.097757235 -0.039250012 -0.07854186
0002a0 7d 1f 64 3c d4 1e c2 bd 98 4a 74 3d 7b 46 31 3d
       0.013923523 -0.09478536 0.05964145 0.043280106
0002b0 00 3f be bd 9e 6b d2 3d 49 9f 26 3d b5 5e a9 bd
       -0.0928936 0.102744326 0.04067925 -0.08270017
0002c0 1f 1c cc 3d db 58 a9 bd 09 3d 0d bd 9c dd b4 3d
       0.09966301 -0.08268901 -0.034482036 0.08831331
0002d0 c9 a3 cd 3d d1 24 c8 3d 9c 1b bc 3d 65 bf 6c bd
       0.10041005 0.09772647 0.091849536 -0.057799716
0002e0 c1 4d 9e bd ee 0d 98 3d 2f 8b 2d bc 5d 33 71 3d
       -0.07729674 0.07424532 -0.010592266 0.058886874
0002f0 d6 9d 96 bd 1b 20 b1 bc 50 17 76 bd d8 e4 bc bd
       -0.073543236 -0.021621754 -0.060080826 -0.09223336
000300 e8 0c 7d bd e8 b9 a2 bd d9 68 bd bc 79 ef 43 3d
       -0.061779886 -0.07945615 -0.023121284 0.0478358
000310 4e 19 5f bd a1 3e d5 bd fc 17 b7 3d e3 c1 ae bd
       -0.05446749 -0.10412336 0.089401215 -0.08533075
000320 a5 09 a8 3b 77 2e 26 3c 20 f1 b1 3d 9c 91 d0 3d
       0.005128103 0.010142914 0.08688569 0.10184023
000330 c5 78 4c 3d 41 6e 36 3d 8b 08 cd bc c5 5d 3b 3d
       0.049919862 0.04453874 -0.025028488 0.045743722
000340 a9 65 9a bd 92 de af bd 1a 03 47 bd 2e fb 08 3c
       -0.075389214 -0.08587374 -0.048586942 0.008360667
000350 8f 33 7c bd cb 84 bd 3d de 37 ce bd 29 f5 c5 3c
       -0.061572608 0.09253844 -0.100692496 0.024164753
000360 03 13 78 bd d5 25 9d 3d 27 6b 8a 3d 6a f3 23 3c
       -0.060565006 0.076732315 0.06758719 0.010006765
000370 e2 36 11 bd 94 08 91 bb 41 51 ec 3c c3 1d 95 3d
       -0.03545273 -0.0044260714 0.028847339 0.07281067
000380 26 4a 95 bd 97 18 99 bd 22 04 5c 3d 29 47 bf 3d
       -0.07289533 -0.07475393 0.05371488 0.093397446
000390 98 de 9c 3b a6 3d 30 3d e8 a8 17 3b b3 6e 1a bd
       0.0047872774 0.043027543 0.0023141447 -0.037703227
0003a0 7c 94 9b bd 9a a4 b8 bd 28 d2 89 bd 43 18 b8 3b
       -0.075966805 -0.0901577 -0.06729537 0.0056181266
0003b0 5c 2c 97 3c 20 41 0d 3d a0 23 28 bd c5 5a 4c 3d
       0.01845377 0.034485936 -0.0410496 0.049891252
0003c0 68 17 aa 3d 3f c2 82 bc 17 dd 89 bd b4 51 b0 bd
       0.08305246 -0.015961764 -0.06731623 -0.08609334
0003d0 c5 c7 d0 3d c9 26 a0 bd b6 32 13 bb 93 11 c6 bc
       0.10194353 -0.07819898 -0.0022460646 -0.024178302
0003e0 8c 64 66 3d f6 4f bd 3a 0a b0 53 3c 43 fd cb bc
       0.056248233 0.0014443386 0.012920389 -0.024901038
0003f0 fb 87 bd 3d 44 2a 3d 3c 4a 7d 36 3d 15 42 43 ba
       0.09254452 0.011545721 0.04455308 -0.00074485067

1.6.bias f4 [64]
000000 aa f6 08 3e ef 08 66 bc 14 ac a8 3c 4b 88 4e bc
       0.13375345 -0.014040216 0.020589866 -0.012605737
000010 7f 50 ba 3c a0 1c 67 bd 52 cf 8e bd 58 d7 8e bd
       0.022743462 -0.056423783 -0.06973137 -0.06974667
000020 cc 7c b7 3c 12 9e 9f 3d 1d dd bf bd fa a2 56 bc
       0.022398375 0.077938214 -0.09368346 -0.01310038
000030 2b f2 5c 3c 89 e8 97 3d 97 89 63 bd 35 c4 0c be
       0.013485472 0.074173994 -0.055551138 -0.13746722
000040 17 89 c6 3c 87 24 b5 bb 69 d9 e1 bd 83 10 39 bc
       0.024235291 -0.005528036 -0.11027796 -0.011295441
000050 ba fe 4a 3b 70 2f 8b bd c7 90 76 bc 8d 34 8c 3c
       0.0030974583 -0.06796157 -0.015049166 0.017114902
000060 07 b4 bb bd b2 7d a8 3c 16 73 71 3d 09 9d ad bd
       -0.09165197 0.020567749 0.058947645 -0.08477218
000070 24 97 07 be 8a 9a a7 bd 57 c9 ce bc f2 61 85 bd
       -0.1324125 -0.08183773 -0.02524249 -0.06512822
000080 77 7d 26 bb ce 14 52 bc ea c6 15 bd 71 a2 96 bc
       -0.0025404373 -0.012822343 -0.036566652 -0.018388005
000090 16 e7 ae bd 8e ed f3 bc 38 7f 63 3d 66 8d d9 bd
       -0.0854017 -0.02977636 0.055541247 -0.10622673
0000a0 41 d7 e9 3d 6d c4 92 bc 81 b0 03 bd 44 b4 99 bd
       0.114180095 -0.017915929 -0.03215075 -0.07505086
0000b0 f7 b5 d9 3c e5 7f 50 3d fb ed 84 3d 47 b5 96 bd
       0.026576025 0.05090322 0.06490704 -0.07358795
0000c0 e2 49 ea bd 6b 7a a4 bd 9a 6e 45 bc 94 3b 37 3b
       -0.11439873 -0.08031162 -0.012050295 0.0027959095
0000d0 32 2c ae bd 5c b7 d0 3b 2b 5d 39 3c 62 f9 1f 3d
       -0.08504523 0.0063695144 0.011313717 0.03905619
0000e0 34 85 86 3d 79 cb 8f 3b 27 d8 9e 3d bf 05 07 be
       0.06568375 0.0043882695 0.077560715 -0.13185786
0000f0 cd 83 1f 3d 11 20 92 3d db 46 90 bd f9 8d 8a 3d
       0.038944054 0.071350224 -0.070447646 0.067653604
