trained_models/TEST_DDQN_rwd4.pt (torch, 188789 bytes, 16 tensors)

0.0.weight f4 [5, 5]
0	0x3f84837c	1.0352626
1	0x3f8e93f3	1.11389
2	0x3f72ee7f	0.94895166
3	0x3f7fc5d4	0.99911237
4	0x3f8c0ef8	1.0942068
5	0x3f8a11d6	1.0786693
6	0x3f93e2c5	1.155358
7	0x3f8194ba	1.0123513
8	0x3f81e354	1.01475
9	0x3f9133d1	1.1343938
10	0x3f820aec	1.0159583
11	0x3f932e0b	1.1498426
12	0x3f866b06	1.0501411
13	0x3f81f27e	1.0152128
14	0x3f83b33f	1.0289077
15	0x3f86555e	1.0494802
16	0x3f8a7a8b	1.0818647
17	0x3f6763a2	0.903864
18	0x3f824f81	1.0180513
19	0x3f844b18	1.0335417
20	0x3f862c1c	1.0482211
21	0x3f86ce83	1.0531772
22	0x3f803cf2	1.0018599
23	0x3f8e2786	1.1105812
24	0x3f8fc4c8	1.1231928

0.0.bias f4 [5, 5]
0	0x3c749d53	0.014930087
1	0x3e0570b7	0.13031279
2	0xbd0fb261	-0.035082225
3	0x3d9cd7ed	0.07658372
4	0xbd95f73a	-0.07322545
5	0x3d9168ab	0.07100042
6	0x3e2ff5e0	0.17183638
7	0x3d904206	0.07043843
8	0xbc790838	-0.015199713
9	0xbd4e1f45	-0.05032279
10	0x3d8897e8	0.06669599
11	0x3e4580ad	0.19287367
12	0x3cba3653	0.022730982
13	0xbd632738	-0.055457324
14	0xbdcc09d5	-0.09962813
15	0xbc62ae2b	-0.01383547
16	0x3db1f1f1	0.08688725
17	0x3d0ff247	0.035143163
18	0xbd865817	-0.065597706
19	0xbd445043	-0.047928106
20	0xbd2e6f28	-0.042586476
21	0x3d5eb807	0.05437472
22	0x3bc289dc	0.0059368443
23	0xbd6631ae	-0.056199722
24	0xbd8113cf	-0.06302606

1.0.weight f4 [160, 25]
0	0x3d1727dd	0.03690325
1	0x3e45c21e	0.19312331
2	0xbe1922c0	-0.14954662
3	0x3d9a946d	0.07547841
4	0x3de6e8f1	0.11274899
5	0xbe32447b	-0.17408936
6	0x3df3922b	0.11893114
7	0x3d301289	0.042986427
8	0xbdf10fab	-0.117705666
9	0xbe5adb91	-0.2137282
10	0x3cb379a6	0.021908592
11	0x3dc01b8c	0.09380254
12	0xbe2b69c2	-0.16739562
13	0xbe0ab355	-0.13544972
14	0xbe4e4731	-0.20144345
15	0xbe3b66a5	-0.18300875
16	0x3caa1351	0.020761164
17	0x3e1a954a	0.15096012
18	0xbc892fb8	-0.016746387
19	0x3ced22c7	0.028947247
20	0x3db7136c	0.08939251
21	0xbdbcb83b	-0.09214827
22	0xbe31ce03	-0.17363743
23	0x3e015c70	0.12632918
24	0x3d9e42ef	0.0772761
25	0xbcf665a1	-0.030077757
26	0x3b93d14b	0.0045110337
27	0x3da82c8a	0.0821162
28	0xbe30d705	-0.17269523
29	0x3e42643a	0.18983546
30	0x3e006e87	0.12542163
31	0x3d291ee1	0.041289214
32	0xbdc1c695	-0.09461705
33	0x3e074cbc	0.13212866
34	0xbda1cc8c	-0.07900342
35	0x3dca5124	0.098787576
36	0x3d69ed9f	0.05711138
37	0xbe20962d	-0.15682288
38	0x3e0fa815	0.14028962
39	0xbdb22e34	-0.08700219
40	0x3e086ddc	0.13323158
41	0xbd5fe943	-0.054665815
42	0xbd4d7335	-0.050158698
43	0x3ddf345d	0.108986594
44	0xbdcb90d6	-0.09939735
45	0x3a96a851	0.0011494254
46	0x3de654bb	0.1124663
47	0x3d31ef6c	0.04344122
48	0xba80d9da	-0.000983055
49	0x3e4eb9a2	0.20188001
50	0xbe50c415	-0.203873
51	0x3e13b75c	0.14425415
52	0xbc6d9b67	-0.014502383
53	0x3e342cc5	0.17595203
54	0x3e2a5fc6	0.16638097
55	0x3cfee122	0.031113211
56	0x3e4577b8	0.1928395
57	0xbe5bbddd	-0.21459146
58	0x3bfddaa5	0.0077470117
59	0xbdd0962f	-0.10184895
60	0x3d7ce60f	0.06174284
61	0x3d839560	0.064249754
62	0x3d9c6e74	0.07638255
63	0xbdd27260	-0.102757215
64	0x3e23267c	0.1593265
65	0x3d9318d4	0.0718247
66	0x3d4f1bea	0.05056373
67	0xbd8ac8ad	-0.06776557
68	0x3d6002fc	0.054690346
69	0x3d519f4b	0.051177304
70	0xbda80a9e	-0.0820515
71	0xbda0e11d	-0.07855437
72	0xbe0afc9d	-0.13572927
73	0x3c44fe5a	0.012023533
74	0x3d0ae04c	0.033905312
75	0x3e130214	0.14356261
76	0xbcd00ce6	-0.025396775
77	0x3dc6d78d	0.09709082
78	0xbddbc117	-0.10730188
79	0xbd82e258	-0.06390828
80	0x3cbed590	0.023295194
81	0x3e2d23ad	0.1690814
82	0x3cfa962e	0.03058919
83	0x3e277496	0.16353068
84	0x3dcd6414	0.10028854
85	0xbd55cd3b	-0.052197676
86	0xbdd05178	-0.10171789
87	0x3d116701	0.035498623
88	0x3e0704c6	0.13185415
89	0x3e11c4c5	0.14235218
90	0x3d8996df	0.067182295
91	0x3da4d1d1	0.08047832
92	0xbdfafb7a	-0.122549966
93	0xbe303567	-0.17207871
94	0x3baeb0d1	0.0053311368
95	0x3db64cff	0.089014046
96	0x3e26ee4f	0.16301845
97	0xbe46565a	-0.19368878
98	0x3cdf5eb0	0.02726683
99	0xbe116f62	-0.14202645
100	0xbe20dd10	-0.15709329
101	0xbdf9f8e0	-0.12205672
102	0xbce83345	-0.02834476
103	0xbe0a2330	-0.13489985
104	0xbdf1e830	-0.118118644
105	0x3e37a8bb	0.1793546
106	0x3dab405d	0.08361886
107	0xbe3a9c9d	-0.18223806
108	0xbd21925f	-0.03944623
109	0xbe6663c8	-0.22499001
110	0x3d00d424	0.031452313
111	0x3d8495e7	0.06473904
112	0xbd3c970a	-0.04604248
113	0x3dc51a95	0.09624211
114	0xbda02175	-0.078188814
115	0x3e416064	0.18884426
116	0x3dcd6d0d	0.100305654
117	0xbdd14838	-0.10218853
118	0x3d83d898	0.06437796
119	0x3d501106	0.050797485
120	0xbda08b84	-0.078391105
121	0x3dba705d	0.09103463
122	0xbe2fbfb6	-0.17162976
123	0x3e1b85c6	0.1518775
124	0xbd1cda7c	-0.0382943
125	0x3e0aec4a	0.135667
126	0x3d755ed5	0.059904892
127	0x3dca6c54	0.09883943
128	0x3d149714	0.03627689
129	0xbb3841a7	-0.0028115304
130	0x3dc5b476	0.09653561
131	0x3d69a6dc	0.057043895
132	0xbd5654ea	-0.052327074
133	0xbd8ad4dd	-0.06778882
134	0xbe12c745	-0.14333828
135	0xbd364e73	-0.04450841
136	0xbde14634	-0.10999718
137	0x3d09e41a	0.0336648
138	0x3db83450	0.08994353
139	0x3d5e56f0	0.05428213
140	0x3e0a381b	0.13497965
141	0x3e24e240	0.16101933
142	0xbdef56e0	-0.11686492
143	0x3e4801fc	0.19532007
144	0x3dae5a12	0.08513273
145	0xbe4c7706	-0.19967279
146	0xbe49e196	-0.1971496
147	0xbdf8d897	-0.12150686
148	0xbd772a18	-0.060342878
149	0xbdd5f147	-0.104464106
150	0xbe18f05e	-0.14935443
151	0xbdacb04f	-0.08432066
152	0x3d118b1b	0.035533052
153	0x3dc9758b	0.09836873
154	0x3daee32a	0.08539422
155	0xbe27f8bc	-0.16403478
156	0xbd1a6532	-0.037694164
157	0xbca59966	-0.020214748
158	0x3e46a3e1	0.19398452
159	0xbdd8f8e4	-0.10594347
160	0xbe5d5ea1	-0.2161813
161	0x3e25f0d1	0.16205145
162	0x3c8cbb50	0.017179161
163	0x3de76195	0.11297909
164	0x3d94bd1f	0.072626345
165	0xbe2cc751	-0.16872908
166	0x3e5944f6	0.21217713
167	0x3e16d43d	0.147294
168	0xbe38dbd5	-0.1805261
169	0x3d5170e6	0.05113306
170	0xbe0a3ca8	-0.13499701
171	0xbe5a8608	-0.21340191
172	0xbda3d7ca	-0.08000143
173	0x3e878208	0.26466393
174	0xbe1f8ba1	-0.15580608
175	0xbdf44f2f	-0.119291656
176	0xbdfdebea	-0.12398513
177	0x3d4f77f8	0.05065152
178	0xbe0ae016	-0.13562045
179	0x3d8de50f	0.06928455
180	0x3e24c7da	0.16091862
181	0xbe079b83	-0.13242917
182	0x3c247067	0.010036564
183	0xbc7ac812	-0.01530649
184	0x3e118f7f	0.14214896
185	0x3e01c9cf	0.1267464
186	0xbdba05de	-0.0908315
187	0xbe39746b	-0.18110816
188	0xbdf59b10	-0.119924664
189	0x3d4d31b5	0.050096232
190	0xbd2e3b8e	-0.042537265
191	0x3d86a74d	0.06574879
192	0x3e4f90a0	0.20270014
193	0xbd94d142	-0.07266475
194	0x3cf8129c	0.030282311
195	0xbe1ae81f	-0.1512761
196	0x3e3e98b3	0.18612938
197	0x3d8e0aa4	0.06935623
198	0xbdb0643d	-0.08612869
199	0xbe0fb585	-0.14034088
200	0xbbe3b14f	-0.006948627
201	0xbd26a7a7	-0.04068723
202	0x3e022300	0.12708664
203	0x3daa43a2	0.08313681
204	0xbdcaea63	-0.09907987
205	0xbe34d12d	-0.17657919
206	0xbdcc00a8	-0.09961063
207	0x3da35c73	0.07976618
208	0xbe1469aa	-0.14493433
209	0x3d38f851	0.045158688
210	0x3d8c896e	0.0686215
211	0x3d70e66b	0.058813494
212	0xbdce9433	-0.100868605
213	0xbe3ab812	-0.1823428
214	0xbd0d9387	-0.03456452
215	0x39a0962c	0.00030629465
216	0xbe27faae	-0.1640422
217	0x3dbbfd03	0.091791175
218	0xbe0bf829	-0.13668884
219	0x3c84980c	0.016185783
220	0x3e0bea2f	0.13663553
221	0xbd979c6a	-0.074028805
222	0xbc94458a	-0.018099565
223	0xbcef547c	-0.02921509
224	0xbde61226	-0.1123393
225	0xbe249edd	-0.16076227
226	0xbd8fcc69	-0.0702141
227	0xbd15d47c	-0.036579594
228	0xbd42db5e	-0.047572486
229	0x3e2071ff	0.15668486
230	0xbd6fd966	-0.058556937
231	0x3dc0d676	0.09415905
232	0xbdcd8b1a	-0.10036297
233	0xbe3126dd	-0.17299981
234	0xbdb16ceb	-0.086633526
235	0x3d3fa1b9	0.04678509
236	0xbdfe5ccc	-0.12420043
237	0xbe5334d5	-0.20625623
238	0xbdb56284	-0.08856681
239	0x3dff5fe5	0.12469462
240	0x3dfecf86	0.12441926
241	0xbd735a72	-0.059412427
242	0x3ddf866a	0.10914309
243	0xbe23fb74	-0.1601389
244	0xbdea4687	-0.11439233
245	0xbe171ad8	-0.14756334
246	0xbdd29b8e	-0.10283576
247	0x3e13dbc6	0.14439306
248	0xbdd1dd2d	-0.10247264
249	0x3e42c976	0.19022164
250	0x3e3a06a7	0.181666
251	0xbdb80732	-0.089857474
252	0xbe33157c	-0.17488664
253	0xbdd5bf56	-0.10436885
254	0x3e5642b1	0.20923878
255	0x3d453cdd	0.048153747

1.0.bias f4 [160]
0	0x3dbabbd6	0.09117858
1	0x3d9dbec0	0.07702398
2	0xbccb87e1	-0.024845066
3	0x3c156a15	0.00911953
4	0x3dfe5ffe	0.12420653
5	0xbc485555	-0.012227376
6	0x3e27b5dc	0.16377968
7	0xbe32308f	-0.17401336
8	0x3ae0436a	0.0017109935
9	0x3da8254b	0.08210238
10	0xbe331d46	-0.17491636
11	0xbce5d503	-0.028055673
12	0xbdab9b02	-0.08379175
13	0x3dffbd0e	0.12487231
14	0xbe0e765b	-0.13912337
15	0x3e865a6e	0.26240867
16	0x3d5d020a	0.053957023
17	0x3e288d60	0.1646018
18	0x3dc9203e	0.09820603
19	0xbcf39106	-0.029732239
20	0xbd05ac2f	-0.03263491
21	0xbcbf5faa	-0.023361046
22	0xbe805716	-0.2506644
23	0xbd708556	-0.05872091
24	0xbd6a97ea	-0.057273783
25	0x3c5e60b1	0.013572858
26	0x3e2c5a09	0.1683122
27	0xbd20679b	-0.039161306
28	0xbde97e65	-0.11401061
29	0xbd26b9c7	-0.040704515
30	0xbde99321	-0.11405016
31	0xbbac10d6	-0.0052510304
32	0xbdd03154	-0.101656586
33	0xbceaa0c2	-0.028641108
34	0xbd828292	-0.063725606
35	0x3d544571	0.051824037
36	0xbd553749	-0.052054677
37	0x3c591e5d	0.013251868
38	0x3d271a11	0.040796343
39	0xbdac7663	-0.08421018
40	0x3dae57a1	0.08512808
41	0x3e337bd0	0.175277
42	0xbdfedbf1	-0.12444294
43	0x3e3fe14e	0.1873829
44	0x3e02341f	0.12715195
45	0xbd3ed774	-0.04659219
46	0x3e1b1b3d	0.1514711
47	0x3e3d51d1	0.18488242
48	0xbd7e6962	-0.06211222
49	0xbe4d7a23	-0.20066123
50	0xbdd02664	-0.101635724
51	0xbd04d834	-0.03243275
52	0xbe247e03	-0.16063695
53	0xbe3317df	-0.17489575
54	0x3dfc0c15	0.12306992
55	0xbe6c45f8	-0.23073566
56	0x3e49fb51	0.19724776
57	0x3d356f7d	0.044295777
58	0x3d444ae0	0.04792297
59	0xbbba73d4	-0.0056900773
60	0xbdbf8525	-0.09351567
61	0xbe3d9cea	-0.18516889
62	0x3c0f80e9	0.008758762
63	0xbd454fd9	-0.04817185
64	0x3dc5f0c4	0.09665063
65	0x3c72402f	0.01478581
66	0x3de18595	0.11011807
67	0x3dcea034	0.1008915
68	0xbe0d64d6	-0.13807997
69	0xbd300b24	-0.042979375
70	0xbe564162	-0.20923379
71	0xba51d42b	-0.0008004333
72	0xbd81510a	-0.06314285
73	0x3e1668f9	0.14688481
74	0xbdcd1956	-0.10014598
75	0xbcb17c10	-0.021665603
76	0x3e4ed926	0.20200023
77	0xbd86a01b	-0.065735064
78	0xbc6688b5	-0.014070679
79	0x3d5d3385	0.05400421
80	0x3e3c61c3	0.18396668
81	0x3e080090	0.13281465
82	0x3e37159f	0.17879342
83	0xbdf28cc1	-0.11843253
84	0x3c4182f5	0.011811008
85	0x3e29d951	0.16586806
86	0x3e39d6aa	0.18148294
87	0x3e1e517e	0.15460774
88	0x3d87b038	0.06625408
89	0x3b7c1e09	0.003847005
90	0xbca048fe	-0.019566055
91	0xbdfc8f4c	-0.12332019
92	0xbc8a669f	-0.016894637
93	0x3e304270	0.17212844
94	0x3e2df027	0.16986142
95	0x3d40a32a	0.047030605
96	0xbd9d5498	-0.076821506
97	0x3d953f39	0.072874494
98	0xbe26a651	-0.16274382
99	0xbda37fdf	-0.07983374
100	0xbd87be7a	-0.066281274
101	0x3d1559da	0.036462642
102	0xbe15a2e3	-0.14612918
103	0x3d8819a3	0.06645515
104	0xbdd2762b	-0.10276445
105	0x3e24a45c	0.16078323
106	0xbe0bed5a	-0.13664761
107	0x3e4c6171	0.19959046
108	0x3e1f4016	0.1555179
109	0x37f0d45b	2.8709115e-05
110	0x3e3a007a	0.18164244
111	0xbe069e28	-0.1314627
112	0x3d8ecf87	0.069731764
113	0xbe174aae	-0.14774582
114	0x3d27772f	0.040885147
115	0xbccdfac6	-0.025143992
116	0xbde2d21b	-0.11075231
117	0x3db0deb8	0.0863623
118	0xbd742291	-0.059603278
119	0x3e0dbadc	0.13840812
120	0x3dfc19a6	0.123095796
121	0xbe42d949	-0.190282
122	0xbe5f45de	-0.21803996
123	0x3e0aae54	0.13543063
124	0x3d87b096	0.06625478
125	0xbd7543fc	-0.059879288
126	0xbe4bcaa5	-0.19901522
127	0x3d2bf770	0.04198402
128	0x3e624c20	0.22099352
129	0x3e375d71	0.17906739
130	0x3e0aee19	0.1356739
131	0xbb1c41d0	-0.0023842938
132	0x3e0ca435	0.13734515
133	0xbc767286	-0.015041953
134	0xbe0bb917	-0.13644825
135	0xbcfa0df7	-0.030524237
136	0x3e3379ff	0.17527007
137	0x3e81f3e1	0.25381377
138	0xbd5ac466	-0.053409956
139	0xbe34b61e	-0.17647597
140	0xbc63f24d	-0.0139127495
141	0xbd9764e0	-0.07392287
142	0xbe25bc96	-0.16185221
143	0x3d78d53f	0.060750242
144	0x3d64ae1d	0.05583011
145	0x3e21e628	0.15810454
146	0xbda053f2	-0.07828511
147	0xbe23bd17	-0.15990101
148	0xbe535fae	-0.20641968
149	0x3e4bf8d4	0.19919139
150	0x3e21d940	0.1580553
151	0xbdca97b5	-0.09892217
152	0x3dfc6517	0.12323969
153	0xbe6487f5	-0.22317488
154	0x3ddcd987	0.107836775
155	0xbda8c3b3	-0.08240452
156	0xbe460bd4	-0.1934045
157	0xbd0ea3fa	-0.03482435
158	0x3df1c79f	0.11805653
159	0xbe62f031	-0.22161938

1.2.weight f4 [128, 160]
0	0xbceca4dc	-0.028887205
1	0xbd0e758d	-0.034780074
2	0xbd3f57c2	-0.04671455
3	0xbd866b71	-0.065634616
4	0x3cd88343	0.026429778
5	0x3d93f162	0.072237745
6	0xbdc73517	-0.09726923
7	0xbd4dbab4	-0.050226882
8	0x3ce91782	0.028453592
9	0x3db3e52a	0.08783944
10	0xbcada538	-0.021196947
11	0x3d954286	0.07288079
12	0x3d45adad	0.048261333
13	0xbcd455f0	-0.025919884
14	0xbd41402e	-0.047180347
15	0xbc5e545b	-0.013569917
16	0xbda93f91	-0.082640775
17	0xbcb0179e	-0.021495637
18	0x3da4782d	0.08030734
19	0xbd2a0c0a	-0.041515388
20	0xbc2b8ddf	-0.010470836
21	0xbd5559bf	-0.05208754
22	0x3d942536	0.0723366
23	0x3d405b4c	0.046962067
24	0xbd0f5368	-0.03499165
25	0x3b364fc5	0.0027818542
26	0xbd61527e	-0.05501031
27	0x3dc9e0f9	0.09857363
28	0x3d88ba02	0.06676103
29	0xbd8f2bb9	-0.06990761
30	0xbcc7be05	-0.0243826
31	0x3cad2ec7	0.02114047
32	0xb9c1f8b9	-0.0003699714
33	0x3d5ab983	0.053399574
34	0x3d4243d9	0.047427986
35	0xbbc01962	-0.005862401
36	0xbd2033fb	-0.039112072
37	0xbd8c1b89	-0.068411894
38	0xbd710ffe	-0.058853142
39	0x3d84d990	0.06486809
40	0x3d84202e	0.0645145
41	0xbb0cf401	-0.0021507742
42	0x3d88a4d5	0.06672064
43	0x3d9ff5ec	0.07810578
44	0xbd242503	-0.04007436
45	0xbd1bdc76	-0.038052045
46	0x3d8f793e	0.07005547
47	0x3c69ea3c	0.014277037
48	0xbd0fd774	-0.03511758
49	0xbc8c7a66	-0.017148208
50	0x3d6973e8	0.056995302
51	0xbca1ae98	-0.019736573
52	0xbd2129af	-0.039346393
53	0xbbae3c99	-0.0053172824
54	0xbd2f53d3	-0.04280455
55	0xbd89ab45	-0.0672212
56	0xbd0faeb4	-0.03507872
57	0x3d65d4fd	0.056111325
58	0x3cc28d01	0.023748877
59	0xbd82b785	-0.0638266
60	0x3cd4e1d2	0.025986586
61	0xbc91d095	-0.017799655
62	0x3c96ffd0	0.018432528
63	0x3c752030	0.014961287
64	0xbd10cec8	-0.035353452
65	0x3bebc823	0.007195489
66	0xbc02a0fd	-0.007972953
67	0x3d8fcd49	0.07021577
68	0xbcfefb3e	-0.031125661
69	0x3cf878fd	0.03033113
70	0x3cf57fe2	0.029968206
71	0xbda2abae	-0.079429016
72	0xbd1eb997	-0.03875121
73	0x3d39cb7a	0.045360066
74	0x3d7e0b2b	0.06202237
75	0x3d329ac1	0.043604616
76	0x3cd072d8	0.025445387
77	0xbd86af8f	-0.06576454
78	0xbd4d304a	-0.05009488
79	0xbb6b8bda	-0.0035941512
80	0xbd895979	-0.06706519
81	0xbce1d483	-0.027567154
82	0xbd34b654	-0.044119194
83	0x3d406901	0.04697514
84	0xbd19e006	-0.03756716
85	0x3c92ae7f	0.017905472
86	0xbd259988	-0.040429622
87	0xba73e94c	-0.00093044783
88	0x3d34d8d7	0.044152107
89	0xbd3f7422	-0.046741612
90	0x3c34f040	0.011043608
91	0xbd3faa9e	-0.046793573
92	0xbc8e865a	-0.017398048
93	0x3c015d05	0.007895713
94	0xbbdee6c5	-0.006802412
95	0xbd51b584	-0.051198497
96	0xba58fdf9	-0.0008277591
97	0xbc48cf6d	-0.012256485
98	0xbd7261d4	-0.059175327
99	0x3d66ebaa	0.05637709
100	0xbbf76550	-0.007549919
101	0xbcd5389e	-0.026027974
102	0x3d434c44	0.047680154
103	0x3d6d62a2	0.05795539
104	0x3d63f9a3	0.055657994
105	0xbd8f3b26	-0.069937035
106	0xbd5fc088	-0.05462697
107	0xbc20b155	-0.009807904
108	0xbb80082d	-0.0039072246
109	0xbd87b516	-0.06626336
110	0xbc6672c4	-0.014065448
111	0xbd9670ea	-0.073457554
112	0xbd38b63d	-0.04509567
113	0xbdb8faa2	-0.090321794
114	0xbc1ea803	-0.009683612
115	0x3c80622d	0.015671814
116	0xbc8b5306	-0.017007362
117	0x3d89a5bf	0.06721067
118	0xbd8702ec	-0.06592354
119	0xbd5da646	-0.05411365
120	0x3d07cc9f	0.033154126
121	0x3b92cd0b	0.0044800094
122	0x3c3cbae3	0.011519167
123	0x3d27b807	0.040946987
124	0x3d6e0b25	0.058116097
125	0xbc49427d	-0.012283918
126	0x3d376080	0.044769764
127	0x3d70206c	0.05862467
128	0xbd7afcb5	-0.061276156
129	0xbcde4fdd	-0.027137691
130	0xbd13f403	-0.03612138
131	0xbd54f3eb	-0.05199043
132	0x3d181489	0.03712896
133	0xbdb5a159	-0.08868665
134	0xbc664731	-0.014055059
135	0xbd63fbb1	-0.055659954
136	0xbd51470a	-0.05109314
137	0x3d8e8500	0.069589615
138	0xbd916096	-0.070985004
139	0x3c510afe	0.012758968
140	0xbccf58ab	-0.025310835
141	0xbd97858c	-0.07398519
142	0x3c3c069a	0.011476183
143	0x3cb713fe	0.0223484
144	0x3d95d33c	0.073156804
145	0xbd282684	-0.041052356
146	0x3d04e2ad	0.032442737
147	0xbd87c914	-0.066301495
148	0xbda2401d	-0.07922385
149	0x3b777d84	0.0037764022
150	0xbd90ff45	-0.07079939
151	0xbc035020	-0.008014709
152	0x3d8be7a8	0.06831294
153	0x3d202993	0.03910215
154	0xbd369879	-0.044579003
155	0x3d5d1313	0.05397327
156	0x3ca620f4	0.020279385
157	0x3d8fc64c	0.07020244
158	0x3c716b14	0.014735002
159	0x3c724ad1	0.014788345
160	0x3be4e34c	0.0069851037
161	0x3d8082ea	0.0627497
162	0xbd66af2a	-0.056319393
163	0x3d806a04	0.06270221
164	0x3d34d3c7	0.04414728
165	0x3da9d1b7	0.08291953
166	0xbc70a057	-0.0146866655
167	0x3d6786c4	0.056525007
168	0x3c9308ba	0.017948497
169	0x3c8a7929	0.016903477
170	0xbd5eef18	-0.054427236
171	0x3ce1d1c7	0.02756585
172	0xbc94e4ea	-0.018175561
173	0xbd38bcb6	-0.045101844
174	0x3cccb42d	0.024988258
175	0x3d859789	0.06523044
176	0x3d363d27	0.044491913
177	0xbd5939be	-0.053033583
178	0xbb64c99c	-0.0034910208
179	0xbc10efaa	-0.008846203
180	0x3db64668	0.08900148
181	0x3d8dfc4d	0.06932888
182	0x3da89c63	0.082329534
183	0x3cf2c223	0.029633587
184	0x3c0b19d2	0.008490043
185	0x3d831bcc	0.06401786
186	0xbd325122	-0.043534406
187	0xbcc38eeb	-0.02387186
188	0x3d0d3e15	0.034483034
189	0xbbd51583	-0.0065028085
190	0x3c06f104	0.008236174
191	0x3d0ad0e9	0.03389064
192	0xbd07c303	-0.033144962
193	0x3c7a0d49	0.0152619565
194	0x3d112a40	0.035440683
195	0xbd4a334b	-0.049365323
196	0x3c2d28db	0.010568823
197	0xbc42eea8	-0.01189772
198	0x3c43c1b1	0.011948035
199	0x3d94f41c	0.07273123
200	0x3c6b320e	0.014355196
201	0xbd33ad6e	-0.043866567
202	0x3d92e6a7	0.071729
203	0xbc84e985	-0.016224632
204	0x3da9e7f9	0.082961984
205	0xbdb3d1d7	-0.08780258
206	0xbd61ab56	-0.05509504
207	0xbd83e4c4	-0.06440118
208	0xbc9478f0	-0.018124074
209	0x3d949943	0.07255795
210	0x3da3111c	0.07962248
211	0x3d9c01c0	0.07617521
212	0xbd7b018a	-0.061280765
213	0x3d58cc9b	0.052929502
214	0xbd0d5765	-0.034507174
215	0x3d8dcd86	0.06923966
216	0x3c5e5797	0.013570688
217	0xbd56f58f	-0.052480277
218	0x3d5995a4	0.053121224
219	0xbb593f9a	-0.0033149482
220	0xbcfbb2e6	-0.030724954
221	0xbc8f765c	-0.017512493
222	0x3acc120e	0.0015569346
223	0xbc9be571	-0.019030305
224	0xbd7ccfa3	-0.061721455
225	0xbc78f2f1	-0.0151946405
226	0xbd6809fc	-0.056650147
227	0x3d845926	0.06462316
228	0x3bf6a21c	0.007526649
229	0xbd512816	-0.05106362
230	0x3d4f9fca	0.050689496
231	0xbd18d873	-0.037315797
232	0x3d35aa91	0.044352118
233	0xbd713b1b	-0.058894258
234	0x3c8d18bb	0.017223706
235	0x3d4438e5	0.04790582
236	0xbdb1561a	-0.08659001
237	0xbc89b53a	-0.016810048
238	0xbce1d167	-0.027565671
239	0xbb98b71b	-0.0046604997
240	0x3cd824f6	0.026384812
241	0x3c8908b3	0.01672778
242	0xbd86b861	-0.06578136
243	0x3d71be5e	0.05901944
244	0xbd40fff6	-0.047119103
245	0xbb76c523	-0.0037654124
246	0xbd07cb24	-0.033152714
247	0x3cc8da5e	0.024518188
248	0x3d1bb3ab	0.03801314
249	0x3d3c96bd	0.046042193
250	0xbd285518	-0.041096777
251	0x3daee52b	0.08539804
252	0xbd8a6487	-0.06757455
253	0xbc99e01f	-0.018783627
254	0xbc9e5c3c	-0.01933109
255	0xbbbecae6	-0.005822527

1.2.bias f4 [128]
0	0xbacd6314	-0.0015669786
1	0x3c983c72	0.01858351
2	0xbcab4059	-0.020904707
3	0x3d687eab	0.056761425
4	0xbd9e512f	-0.07730328
5	0x3cf231fb	0.029564848
6	0x3c099587	0.0083974665
7	0xbdbeb932	-0.09312667
8	0x3cf5fbb0	0.03002724
9	0x3c791436	0.015202573
10	0x3c164cf8	0.009173624
11	0xbd9944d6	-0.074838325
12	0x3dacc889	0.084366865
13	0xbc62b0f4	-0.013836134
14	0xbda44f95	-0.080229916
15	0xbd9564fa	-0.072946504
16	0x3ba4d0ba	0.005029765
17	0xbd14ce66	-0.03632965
18	0xbd1bb8e8	-0.038018137
19	0xbcb394cf	-0.021921543
20	0x3e1d9d27	0.1539198
21	0x3d871377	0.065955095
22	0x3da1ac1e	0.07894157
23	0xba8dd6f8	-0.0010821512
24	0xbd95388a	-0.072861746
25	0xbddd3b64	-0.108023435
26	0xb9eb6984	-0.00044901308
27	0xb790940c	-1.7235077e-05
28	0x3d49e0fb	0.049286824
29	0x3d8e45ee	0.06946932
30	0xbda17771	-0.0788411
31	0xbd37cf27	-0.04487529
32	0xbd8ed54f	-0.06974279
33	0x3d8db601	0.0691948
34	0x3cad6948	0.021168366
35	0xbd275cdc	-0.040860042
36	0x3d8bd7f4	0.06828299
37	0x3d897a56	0.06712787
38	0xbd397b2f	-0.045283493
39	0x3d741941	0.059594397
40	0xbd4e456c	-0.050359175
41	0x3d634aeb	0.05549137
42	0xbc8bb744	-0.017055161
43	0x3d1b7cb5	0.037960727
44	0xbc8abade	-0.016934808
45	0xbd5c9238	-0.053850383
46	0x3d165c10	0.03670889
47	0xbd0b8c2a	-0.034069218
48	0x3cb94a0d	0.022618318
49	0x3cff78da	0.031185556
50	0xbd79f7dc	-0.061027393
51	0xbd61f5e3	-0.055166136
52	0x3cd65543	0.026163703
53	0xbce526a5	-0.027972529
54	0xbd936437	-0.07196849
55	0xbc07dd35	-0.008292486
56	0xbc809788	-0.015697256
57	0x3c5a8ebb	0.013339694
58	0xbd1b68af	-0.03794163
59	0x3c1afbae	0.009459419
60	0xbd67596b	-0.05648176
61	0xbd3bdaf2	-0.0458631
62	0xbd06fe55	-0.032957394
63	0x3caf7bc5	0.021421323
64	0x3d00afc0	0.03141761
65	0xbdaf7694	-0.08567539
66	0x3e0d7fd0	0.13818288
67	0x3d2e2aa2	0.042521127
68	0x3e297a8d	0.16550656
69	0x3d24d126	0.040238522
70	0xbd2d1e37	-0.042265143
71	0xbdd5269d	-0.104077555
72	0x3d920a1a	0.07130833
73	0xbd20a086	-0.039215587
74	0x3dbe7c9e	0.093011126
75	0xbcd42f4f	-0.025901465
76	0xbd13fd36	-0.036130153
77	0x3d54d086	0.051956676
78	0xbc163c37	-0.00916963
79	0x3dc469fa	0.09590526
80	0x3d002e4a	0.031294145
81	0xbc364e5b	-0.01112708
82	0xbba2d81c	-0.00496961
83	0x3be31beb	0.0069308183
84	0x3d114602	0.035467155
85	0x3c083072	0.0083123315
86	0x3d837edd	0.064206816
87	0x3d1c0b37	0.038096633
88	0x3c952f0a	0.018210907
89	0xbd087818	-0.033317655
90	0xbdab1370	-0.08353317
91	0xbd44f027	-0.04808059
92	0xbd3bb793	-0.045829367
93	0xbde2e3b7	-0.110785894
94	0xbd0d7add	-0.034541
95	0x3c8f94ca	0.017527003
96	0x3daf3aa9	0.085561104
97	0xbc33a57b	-0.010964747
98	0x3d49bdf3	0.049253415
99	0x3c09318a	0.008373627
100	0xbca58815	-0.02020649
101	0xbd0eafbe	-0.03483557
102	0x3dca4ae0	0.098775625
103	0xbd3ad4df	-0.045613166
104	0xbcd10ed2	-0.025519762
105	0xbcd2dd87	-0.025740398
106	0x3a980548	0.0011598254
107	0x3d108ab9	0.035288546
108	0xbb74ab03	-0.0037333376
109	0x3c8d77ae	0.017268982
110	0x3d26505d	0.040603984
111	0xbd89e908	-0.067339
112	0xbd0eaa81	-0.034830574
113	0x3cd185f5	0.025576571
114	0x3d874198	0.06604308
115	0xbd49234d	-0.04910593
116	0x3c146ad0	0.009058669
117	0xbd42b1dc	-0.0475329
118	0x3d3cdae7	0.0461072
119	0xbbe3c75b	-0.0069512553
120	0x3cf07dc7	0.02935685
121	0x3bd1ce51	0.0064027687
122	0xbd545cbc	-0.05184625
123	0x3da3f187	0.08005052
124	0x3dc3d4f0	0.09562099
125	0x3d70b4de	0.05876624
126	0xbc9c1963	-0.019055074
127	0xbcdbfce2	-0.026853982

1.4.weight f4 [96, 128]
0	0x3db52c2a	0.08846314
1	0xbd2c73c4	-0.04210259
2	0x3d1848e7	0.0371789
3	0x3d391871	0.045189325
4	0xbcafd6dd	-0.02146476
5	0xbd0a4702	-0.033759125
6	0xbcebea81	-0.028798344
7	0xbc805475	-0.015665272
8	0x3d43da78	0.04781577
9	0xbda2ee30	-0.07955587
10	0xbd84b69b	-0.06480142
11	0x3c93ee1d	0.018057877
12	0x3c1a3973	0.009413111
13	0xbc9e3542	-0.019312505
14	0xbd7b86fe	-0.061408035
15	0x3d7a926d	0.0611748
16	0xbccf4750	-0.02530256
17	0x3d057b3e	0.032588236
18	0x3ceaaa9a	0.028645802
19	0xbd1b6afb	-0.03794382
20	0x3d0bec8e	0.034161143
21	0x3ce2c4ff	0.027681826
22	0xbda39f00	-0.07989311
23	0x3d58949b	0.052876096
24	0x3d4a6ea7	0.049421933
25	0xbd399e08	-0.045316726
26	0xbcb3af46	-0.021934163
27	0x3d4a4d43	0.04939009
28	0x3d7a6036	0.06112691
29	0x3d49ccaf	0.049267467
30	0xba6263f1	-0.0008636108
31	0xbd6998f4	-0.057030633
32	0xbc800ba4	-0.01563055
33	0x3d0a8940	0.033822298
34	0x3b908abc	0.0044110697
35	0xbd5663ee	-0.052341394
36	0xbdafff94	-0.085936695
37	0xbcb6d147	-0.022316588
38	0x3c99b3eb	0.01876255
39	0x3c3af17d	0.011410114
40	0xbcd00e45	-0.02539743
41	0xbd2fe807	-0.042945888
42	0xbd9df195	-0.07712094
43	0xbdab7692	-0.08372225
44	0xbcbb9570	-0.022898406
45	0xbd4500c8	-0.04809645
46	0xbc1597e4	-0.009130452
47	0xbd32b7b3	-0.04363222
48	0x3c2d0900	0.010561228
49	0x3d9733b1	0.07382906
50	0x3d814a56	0.063130066
51	0xba4c95b1	-0.0007804288
52	0xbce06406	-0.027391445
53	0xbd8aebed	-0.067832805
54	0xbb180b71	-0.002320018
55	0x3ce6b032	0.028160188
56	0x3d0836b9	0.033255313
57	0xbb988d44	-0.004655512
58	0xbcdaf715	-0.026729146
59	0xbdb19587	-0.08671098
60	0x3d8acb5c	0.06777069
61	0x3ad773b9	0.0016437686
62	0x3cd2d407	0.025735868
63	0x3d4d2231	0.050081436
64	0xbdae51d6	-0.08511703
65	0x3bbe50e2	0.005807982
66	0x3c8781bd	0.016541356
67	0x3d1369ce	0.035989575
68	0x3c91511f	0.017738877
69	0x3d6374dd	0.05553137
70	0x3d360636	0.044439517
71	0xbd0a7989	-0.03380731
72	0xbcc772da	-0.024346758
73	0x3d816a3e	0.06319092
74	0x3d9ea494	0.077462345
75	0xbd0a1bd3	-0.03371794
76	0x3cd1e9fb	0.025624266
77	0x3d9aa6e2	0.075513616
78	0xbbcc7206	-0.0062391786
79	0xba551b92	-0.00081294135
80	0xbd12b6cf	-0.03581887
81	0x3d4d08eb	0.050057333
82	0xbcd65bfa	-0.026166905
83	0xbd7f66cf	-0.062353905
84	0x3d8aa561	0.06769825
85	0xbd4f6919	-0.05063734
86	0xbd968695	-0.07349888
87	0x3ccd1b6d	0.025037492
88	0xbd9462ac	-0.07245383
89	0xbb511ef5	-0.003190932
90	0x3d8291c6	0.0637546
91	0x3c9ee745	0.019397387
92	0x3cfc2ab0	0.030782074
93	0xbd78e101	-0.060761455
94	0x3ca5c860	0.020237148
95	0x3d063bd2	0.032771893
96	0x3d1bcc13	0.038036417
97	0xbd966773	-0.0734395
98	0x3d066ae9	0.0328168
99	0x3d8717c6	0.06596331
100	0x3d92affb	0.07162472
101	0x3d6e39d4	0.058160618
102	0x3b3d77d6	0.002891054
103	0xbd6b682d	-0.057472397
104	0x3dabc4f8	0.08387178
105	0x3dba84db	0.091073714
106	0x3d447d80	0.04797125
107	0xbcb8c89a	-0.022556592
108	0x3d398e3b	0.045301657
109	0xbc671833	-0.014104891
110	0x3d961be9	0.07329542
111	0xbd563978	-0.0523009
112	0x3d141925	0.036156792
113	0xbd90351d	-0.070413806
114	0xbc644655	-0.013932784
115	0x3d668185	0.056275863
116	0x3d3daa9f	0.046305295
117	0xbd2a69d6	-0.04160484
118	0x3d9a379d	0.07530139
119	0x3da06353	0.078314446
120	0xbd920c64	-0.071312696
121	0xbc8fc985	-0.017552147
122	0x3d5cfd49	0.05395249
123	0x3d3dc2b2	0.046328254
124	0xbd97c093	-0.074097775
125	0x3bbfa93e	0.0058490327
126	0x3d27ea3e	0.040994875
127	0xbd2b36c9	-0.041800294
128	0x3d35e3a1	0.044406537
129	0xbc0f04c0	-0.00872916
130	0xbd8508be	-0.06495808
131	0x3bdfc5e9	0.0068290127
132	0xbdb17340	-0.0866456
133	0xbd3376e4	-0.043814555
134	0x3d7a5bd7	0.06112274
135	0x3d8198f5	0.06328002
136	0x3cbed385	0.02329422
137	0xbd994b4a	-0.074850634
138	0xbd106108	-0.035248786
139	0x3d1529a6	0.036416672
140	0xbd35738e	-0.044299655
141	0xbd8de429	-0.06928284
142	0xbd3f4b30	-0.046702564
143	0xbd4e72b4	-0.05040236
144	0x3d8453f3	0.064613245
145	0x3d4eae09	0.05045894
146	0xbda1f0ab	-0.07907232
147	0xbcc7d8a6	-0.024395298
148	0x3d64a215	0.055818636
149	0x3d85d9bd	0.06535671
150	0xbdb1d438	-0.08683056
151	0xbd22e48f	-0.03976875
152	0xbdae5050	-0.08511412
153	0xbcb9f190	-0.022698194
154	0x3d26e2ea	0.040743746
155	0xbd53fb8e	-0.051753573
156	0xbdaec99b	-0.08534547
157	0x3db4828c	0.08813962
158	0x3cea9ada	0.028638292
159	0x3d17a029	0.037017975
160	0xbcae1cfe	-0.021254059
161	0xbd54706f	-0.051865038
162	0x3ce8720b	0.028374692
163	0x3d298612	0.041387625
164	0xbcb5eb0d	-0.022206808
165	0x3da7ec7c	0.08199403
166	0x3d35f614	0.04442413
167	0xbdaa50bd	-0.08316181
168	0x3d59dc5f	0.053188678
169	0xbd3f9ffb	-0.04678343
170	0x3d763bd2	0.060115643
171	0xbd964aa5	-0.07338456
172	0x3d99c64c	0.07508525
173	0x3d2051dc	0.039140567
174	0x3d22ca76	0.039743863
175	0x3d2862c2	0.041109808
176	0x3d1d6996	0.038430773
177	0xbd88d651	-0.066815026
178	0xbd474b98	-0.048656076
179	0xbc076883	-0.008264664
180	0xbdb2adc6	-0.08724551
181	0xbcbe6c09	-0.023244875
182	0x3d6447b4	0.055732444
183	0xbda5f585	-0.0810347
184	0xbc131858	-0.008977972
185	0xbcc0131f	-0.023446618
186	0x3d25d6c1	0.04048801
187	0xbc4b8488	-0.012421735
188	0x3dad6cef	0.08468043
189	0x3dac665a	0.084179595
190	0xbd811055	-0.06301943
191	0xbd6e6877	-0.058205094
192	0xbbe525d7	-0.0069930363
193	0xbda16840	-0.07881212
194	0x3c6ce48f	0.0144587895
195	0x3ca33413	0.019922292
196	0x3d50ad80	0.050946712
197	0x3db3ee2e	0.087856635
198	0xbd1c74c0	-0.03819728
199	0xbc3a21af	-0.01136057
200	0xbb9b8605	-0.004746201
201	0x3d527018	0.051376432
202	0xbdaa1dc7	-0.08306461
203	0x3c8c6dce	0.017142203
204	0xbd8f7fe5	-0.07006816
205	0x3da649ed	0.08119569
206	0xbc2c0ab0	-0.010500595
207	0xbc5525e9	-0.013009527
208	0x3c129414	0.008946437
209	0x3c9d1c63	0.019178575
210	0x3d8ce4b4	0.06879559
211	0x3c4e90de	0.012607781
212	0x3d566be6	0.052348994
213	0x3d9e3e0b	0.077266775
214	0x3d9ebf18	0.07751292
215	0xbc3d86ae	-0.011567755
216	0xbd1f2cb8	-0.038861006
217	0xbd8e600d	-0.06951914
218	0xbd028d4f	-0.031873044
219	0x3d014ca4	0.03156723
220	0x3c8f08d9	0.017460274
221	0x3d32da44	0.043665186
222	0xbd144f8d	-0.036208678
223	0xbdabfd38	-0.08397907
224	0xbd981b53	-0.07427087
225	0x3d7efdb0	0.062253654
226	0x3d95e71a	0.0731947
227	0x3d7f06b5	0.062262256
228	0xbb844914	-0.004037032
229	0xbd6a2735	-0.057166297
230	0x3d58c6d6	0.052924
231	0x396c7940	0.00022551883
232	0xbc7617f8	-0.015020363
233	0xbda28611	-0.079357274
234	0xbc93df7e	-0.018050905
235	0xbd4f7d88	-0.050656825
236	0xbcef737f	-0.029229878
237	0xbcd87bbd	-0.02642619
238	0x3b681dd5	0.0035418172
239	0x3d983573	0.0743207
240	0x3c2efd9d	0.010680583
241	0x3d313b5a	0.043269493
242	0x3d939664	0.07206419
243	0xbd04effc	-0.03245543
244	0xbdabe69d	-0.08393595
245	0xbd881cb9	-0.066461034
246	0xbd74cfb6	-0.0597684
247	0xbbbb4fde	-0.005716308
248	0xbd390486	-0.04517033
249	0x3d12ed4b	0.03587083
250	0x3c140cbe	0.009036241
251	0x3c11e0a6	0.008903658
252	0xbd53ed21	-0.051739816
253	0xbd070d6f	-0.032971796
254	0x3c2915e4	0.010320161
255	0xbc5b14a0	-0.013371617

1.4.bias f4 [96]
0	0x3d700e8e	0.05860763
1	0x3cdf8f44	0.027289994
2	0x3d6b1537	0.05739328
3	0xbd96214b	-0.07330569
4	0x3d5f8adc	0.054575786
5	0xbd2c2122	-0.042023785
6	0xbb9a26f5	-0.004704351
7	0xbd8c063a	-0.06837125
8	0x3d93a1c6	0.0720859
9	0xbacc6707	-0.0015594669
10	0xbd44acc4	-0.048016325
11	0x3d44704e	0.047958665
12	0x3dccf1d6	0.10007064
13	0x3d383b1d	0.04497825
14	0x3d89a0bf	0.06720113
15	0x3c3ce06d	0.011528117
16	0x3d34196c	0.043969557
17	0xbddf1a05	-0.10893635
18	0x3d81f63a	0.06345792
19	0x3d995ad9	0.07488031
20	0x3cfef7fb	0.031124106
21	0xbc9d3374	-0.019189574
22	0x3c2ea7c4	0.010660116
23	0xbc3fd43c	-0.011708315
24	0x3c8c0974	0.017094351
25	0x3d31b1c9	0.04338244
26	0x3d314b4e	0.043284707
27	0xbdc6df31	-0.09710539
28	0x3cd885ce	0.02643099
29	0xbd06be62	-0.032896407
30	0x3d53db53	0.051722836
31	0x3cf125fb	0.029437056
32	0x3d99f0fd	0.07516668
33	0xbc25ea5a	-0.010126675
34	0x3cb56fc9	0.02214803
35	0x3dd84361	0.105597265
36	0xbd546080	-0.051849842
37	0x3da384ef	0.079843394
38	0xbc13e543	-0.009026828
39	0x3d4fc8c4	0.050728574
40	0x3d881de4	0.06646326
41	0x3d407ad3	0.046992134
42	0x3e35a332	0.17738035
43	0x3cf0c77a	0.029391993
44	0xbda2981c	-0.07939169
45	0xbcd0d14c	-0.025490426
46	0x3d064566	0.032781027
47	0xbcba49fe	-0.02274036
48	0xbab0d44b	-0.0013491003
49	0xbd229fb8	-0.0397031
50	0x3d7286f3	0.05921073
51	0xbc09f053	-0.008419114
52	0x3d36e660	0.044653296
53	0xbcab1432	-0.020883653
54	0x3d3b203f	0.04568505
55	0x3d472a5d	0.048624385
56	0xbb5218f8	-0.003205834
57	0xbaae83c2	-0.0013314413
58	0xbcc63fff	-0.024200438
59	0x3d8302c5	0.063970126
60	0x3cbc7ed3	0.023009693
61	0xbd551f9b	-0.052032094
62	0x3dbf52be	0.09341954
63	0xbdb23733	-0.08701935
64	0x3d6545fa	0.055974938
65	0x3db15f17	0.08660715
66	0x3c50af13	0.012737053
67	0xbb9eb5b6	-0.004843439
68	0x3d794018	0.06085214
69	0x3c55907c	0.013034936
70	0x3cc43081	0.02394891
71	0xbd10664e	-0.035253815
72	0xbd89b74e	-0.06724416
73	0xbcef9365	-0.029245088
74	0x3d1aaa86	0.03776028
75	0xbb82de08	-0.0039937533
76	0x3d5289db	0.051401
77	0xbd34b912	-0.04412181
78	0xbbff7498	-0.0077958815
79	0x3ce7a40f	0.028276471
80	0x3c940283	0.018067604
81	0xbd1bc625	-0.038030762
82	0x3d508167	0.050904658
83	0x3d3d8a4a	0.04627446
84	0x3cc70773	0.024295544
85	0xbd4fd3aa	-0.050738968
86	0x3ae18168	0.0017204704
87	0xbd84b544	-0.06479886
88	0xbce3620c	-0.027756713
89	0x3c962faa	0.018333275
90	0x3d957f23	0.0729964
91	0x3d07219f	0.032991048
92	0x3ca3a20c	0.01997473
93	0x3d145da1	0.036222104
94	0xbba60380	-0.005066335
95	0x3ce84a3e	0.028355714

1.6.weight f4 [64, 96]
0	0x3d3e9982	0.046533115
1	0xbda230b0	-0.07919443
2	0xbd60ee4b	-0.054914754
3	0xbd51f3e7	-0.051257994
4	0xbd1dad81	-0.038495544
5	0xbd9475a1	-0.072489984
6	0x3d0bdc40	0.034145594
7	0xbd190142	-0.037354715
8	0x3b22ae89	0.002482327
9	0x3db1ea3b	0.08687254
10	0xbd8f6d69	-0.0700329
11	0x3d6f522d	0.05842798
12	0x3d05f875	0.03270765
13	0x3d2bb900	0.041924477
14	0xbdcefd13	-0.10106864
15	0x3d4d6cc9	0.050152574
16	0x3d5d5ec2	0.054045446
17	0xbd893c95	-0.06701008
18	0xbd45c182	-0.048280247
19	0xbd75e341	-0.06003118
20	0xbcf4153c	-0.029795282
21	0x3c5da1b3	0.013527322
22	0x3db4bed4	0.0882546
23	0xbd86181e	-0.06547569
24	0x3d899455	0.06717745
25	0x3c4186be	0.01181191
26	0xbdc3016d	-0.09521756
27	0x3d5d900a	0.054092444
28	0x3ba56b29	0.005048175
29	0xbd9e8729	-0.077406235
30	0x3dbdfd33	0.092768095
31	0xbb0122dd	-0.0019704618
32	0xbaa31474	-0.0012442009
33	0x3dc5546a	0.09635241
34	0x3cd8fc03	0.026487356
35	0xbd2913c3	-0.041278612
36	0x3d7a62d0	0.06112939
37	0x3d02c57d	0.03192662
38	0xbdb42fdc	-0.08798191
39	0xbd8a5b0d	-0.06755648
40	0xbda9b11b	-0.08285733
41	0xbdb37f04	-0.08764461
42	0xbdd1eee9	-0.102506466
43	0xbd8aa8f3	-0.06770506
44	0x3c781e58	0.015143953
45	0xbd9f3072	-0.07772912
46	0x3cade98a	0.021229524
47	0x3d1bd7f3	0.038047742
48	0xbdb1492b	-0.08656534
49	0xbd4bec54	-0.049785927
50	0x3d9d7b14	0.07689491
51	0xbd17b481	-0.037037376
52	0x3da692ef	0.08133494
53	0xbc4e283c	-0.012582835
54	0xbcf7c420	-0.030244887
55	0xbd61f852	-0.055168457
56	0xbd0648e7	-0.03278437
57	0xbd289e1a	-0.041166402
58	0x3d484569	0.04889432
59	0xbdb4b2aa	-0.0882314
60	0x3cb852be	0.022500392
61	0xbb0f4865	-0.002186322
62	0xbd160103	-0.03662206
63	0xbcc18b9a	-0.023626138
64	0x3d7f4762	0.062323935
65	0xbd5e4548	-0.05426529
66	0xbdbeaea7	-0.09310656
67	0x3d827f4a	0.06371935
68	0xbcb6eda1	-0.022330107
69	0x3d9c78e1	0.07640243
70	0x3d9f1d32	0.077692404
71	0x3c32f6c8	0.010923095
72	0x3cceec99	0.025259303
73	0xbd97614a	-0.07391603
74	0xbdb00db1	-0.085963614
75	0xbd138a17	-0.036020365
76	0x3d1a922c	0.037737057
77	0x3cb81809	0.022472398
78	0x3d88a828	0.06672698
79	0x3cfdf871	0.031002255
80	0x3c758f94	0.014987845
81	0x3d81ba06	0.06334309
82	0x3d16de16	0.03683289
83	0xbd46a717	-0.048499193
84	0xbca98bf4	-0.020696618
85	0xbc451878	-0.01202976
86	0x3cdff5ee	0.027338948
87	0x3c01966e	0.0079094
88	0x3d8719c3	0.065967105
89	0x3d40bbba	0.04705403
90	0x3ccf4282	0.025300268
91	0xbdbce49d	-0.09223292
92	0x3d45503d	0.048172224
93	0x3d9d8d4e	0.07692967
94	0xbd9dd9e3	-0.07707574
95	0x3d3250ab	0.043533962
96	0xbc88fcbd	-0.016722078
97	0x3dcceaa1	0.100056894
98	0xba935153	-0.0011239446
99	0x3c9d2ff7	0.01918791
100	0x3d82ce1a	0.06386967
101	0x3dd2b17c	0.10287759
102	0xbd956a40	-0.07295656
103	0xbce95cd3	-0.028486645
104	0xbd063025	-0.032760758
105	0xbc62f2ba	-0.013851816
106	0x3dc592c9	0.09647138
107	0xbc787d29	-0.015166559
108	0x3d12b205	0.035814304
109	0x3d8c8ccb	0.06862792
110	0x3db9d4f9	0.090738244
111	0xbdcd924d	-0.1003767
112	0x3c9a6fcd	0.018852139
113	0x3d384c26	0.044994496
114	0x3cd1d2e4	0.025613256
115	0x3ce851bc	0.028359286
116	0xbd8bb2c5	-0.06821207
117	0x3d903734	0.07041779
118	0xbd99c0d2	-0.07507481
119	0xbd7fa77d	-0.06241559
120	0xbdc8bd6c	-0.09801754
121	0xbd79fa2a	-0.06102959
122	0x3c8e3da7	0.017363383
123	0xbc46aceb	-0.012126188
124	0xbd9dde04	-0.07708362
125	0xbd987c97	-0.074456386
126	0xbc9c9334	-0.01911316
127	0x3ddc71b3	0.10763874
128	0xbb47a2eb	-0.0030462097
129	0x3da6fa1a	0.08153172
130	0xbdbe06e2	-0.092786565
131	0xbda3e7ba	-0.08003183
132	0xbd641569	-0.05568448
133	0xbd1c5bd5	-0.038173515
134	0x3c0b64a7	0.008507884
135	0x3d426fea	0.04747001
136	0x3c5441c9	0.0129551375
137	0x3d99b697	0.075055294
138	0xbc292ce2	-0.010325642
139	0x3cebed69	0.02879973
140	0x3db75b6b	0.089529835
141	0x3c46f5f2	0.012143599
142	0xbd713fb9	-0.05889866
143	0xbdcbf508	-0.099588454
144	0x3c2f0fba	0.010684902
145	0x3ce16ed0	0.02751866
146	0xbdc4f711	-0.09617437
147	0xbd90dbf0	-0.070732
148	0x3d153090	0.036423266
149	0xbd94a7eb	-0.0725859
150	0x3d713d11	0.058896128
151	0xbd7295c9	-0.059224878
152	0x3cda5dbe	0.026656028
153	0x3b11e635	0.0022262458
154	0x3dc70af3	0.09718885
155	0x3d85bfc0	0.06530714
156	0xbd5e7f24	-0.05432047
157	0xbd893459	-0.06699438
158	0xbdcd8b7f	-0.100363724
159	0xbd1937b4	-0.03740664
160	0x3d543446	0.051807664
161	0xbd165407	-0.03670123
162	0x3d847fef	0.06469714
163	0x3c15d81c	0.009145763
164	0xbdaa71d6	-0.08322494
165	0xbd4ca7cc	-0.04996471
166	0x3c57bf28	0.013168134
167	0x3c2ed91b	0.010671879
168	0xbd8f883e	-0.07008408
169	0x3dbfa11f	0.09356903
170	0xbd13fc18	-0.036129087
171	0xbdc10191	-0.09424127
172	0xbdc38846	-0.095474765
173	0xbdaca360	-0.08429599
174	0xbc3135f7	-0.010816089
175	0xbdcdd14a	-0.10049684
176	0xbd74b262	-0.05974043
177	0xbc8dbeb6	-0.017302852
178	0xbc6be74a	-0.014398405
179	0xbcaa2b9e	-0.020772751
180	0xbdb71fff	-0.0894165
181	0xbdba48d9	-0.09095926
182	0xbddd7457	-0.10813206
183	0x3dcaaa83	0.09895804
184	0x3d914250	0.07092726
185	0xbd52451e	-0.051335447
186	0xbce8260e	-0.028338458
187	0x3dbc1607	0.09183889
188	0x3b005b70	0.001958575
189	0x3d976ee4	0.073941976
190	0x3dca77c7	0.09886127
191	0xbd0fd832	-0.03511829
192	0x3d50ec48	0.051006585
193	0xbd353fed	-0.044250418
194	0x3d41a3a4	0.0472752
195	0xbca60ea6	-0.020270657
196	0x3d4f7ea8	0.0506579
197	0x3d54f659	0.051992748
198	0x3d29664c	0.041357324
199	0x3c8a8124	0.016907282
200	0x3dbf9049	0.09353692
201	0x3d5c75bf	0.05382323
202	0xbce4e8c0	-0.027943015
203	0x3b71e9d5	0.0036913056
204	0x3d04f84b	0.032463353
205	0xbd6641b3	-0.056215
206	0xbd502ac6	-0.050822042
207	0xbc140306	-0.009033924
208	0xbd85b962	-0.065294996
209	0x3dc33587	0.09531694
210	0xbdb4742b	-0.0881122
211	0xbd6ea57b	-0.058263283
212	0x3d1c3a05	0.03814127
213	0x3a0b1caa	0.00053067005
214	0xbd823fef	-0.063598506
215	0x3d6e977f	0.058249947
216	0x3af8805a	0.001895915
217	0xbd8605bf	-0.06544065
218	0x3dbb4c83	0.09145453
219	0xbdc78cab	-0.09743627
220	0xbd571684	-0.052511707
221	0xbdcb68b6	-0.099320814
222	0x3d538b24	0.051646367
223	0xbd9e9d32	-0.077448264
224	0x3dc9a63f	0.09846162
225	0xbdc563e8	-0.09638196
226	0xbdaf1eed	-0.085508205
227	0x3b9297dc	0.0044736695
228	0xbd514e3c	-0.0511
229	0xbd663975	-0.05620714
230	0xbdc4cf46	-0.09609847
231	0xba5f3eae	-0.0008516115
232	0x3d14c6f0	0.036322534
233	0x3db62095	0.08892933
234	0xbd9f25d0	-0.07770884
235	0xbd916aa8	-0.07100421
236	0x3cd76ed2	0.02629796
237	0xbd98a042	-0.07452442
238	0x3da64bb7	0.0811991
239	0xbd57a4b0	-0.052647293
240	0x3bc68939	0.0060588387
241	0xbd02fb0b	-0.031977694
242	0x3dd5230f	0.104070775
243	0xbd329da4	-0.04360737
244	0x3dc859e5	0.09782771
245	0x3d97fbb5	0.07421056
246	0xbd85d1a0	-0.065341234
247	0xbc914816	-0.017734569
248	0x3d922208	0.07135397
249	0xbd84e32f	-0.06488644
250	0xbc9eba8f	-0.019376067
251	0xbd2fe4c5	-0.04294278
252	0xbd90dd84	-0.07073501
253	0xbdbd336a	-0.09238322
254	0xbb6dae8b	-0.0036267366
255	0xbdd842e1	-0.10559631

1.6.bias f4 [64]
0	0xbdbf9611	-0.09354795
1	0xbda8c9d7	-0.08241623
2	0x3cf0d568	0.029398635
3	0xbdcfc28e	-0.1014453
4	0xbc3851fc	-0.011250015
5	0x3d72f790	0.059318125
6	0x3d85ef85	0.06539825
7	0x3b9d5367	0.004801202
8	0xbdc716ad	-0.09721122
9	0x3d6b5880	0.057457447
10	0x3bef8717	0.007309805
11	0xbc7da2b4	-0.015480686
12	0xbd56e113	-0.05246074
13	0x3cff15eb	0.031138381
14	0x3db6653c	0.08906028
15	0xbdae7d9f	-0.08520054
16	0xb83549df	-4.322256e-05
17	0x3cf46cb7	0.029836996
18	0x3dc1b0c5	0.09457544
19	0xbd293b59	-0.041316364
20	0xbdc540b8	-0.09631485
21	0xbdea5f06	-0.114439055
22	0x3dd58ae5	0.10426883
23	0x3d8c03e2	0.06836678
24	0x3d29693a	0.041360117
25	0xbd07ac52	-0.03312332
26	0x3dc54577	0.0963239
27	0x3d752c1c	0.05985652
28	0x3d95cf58	0.07314938
29	0x3c87a188	0.016556516
30	0x3b2a0b6a	0.0025946745
31	0x3dd01893	0.10160937
32	0xbae111cc	-0.0017171442
33	0xbc4b3d16	-0.012404701
34	0x3c80eecc	0.015738867
35	0xbc215274	-0.0098463185
36	0x3c9e05ca	0.01928987
37	0xbe2b501a	-0.16729775
38	0x3a64f700	0.00087343156
39	0xbd66ff9a	-0.056396104
40	0x3d9fa6f1	0.077955134
41	0x3dc3d6e7	0.09562474
42	0x3aa914d5	0.0012899885
43	0xbd1785c3	-0.0369928
44	0xbb5fa933	-0.003412795
45	0xbd125d17	-0.03573331
46	0x3c810c29	0.015752869
47	0xbd03da06	-0.032190345
48	0xbd6a54ae	-0.057209663
49	0x3d3ae76a	0.04563085
50	0x3d4715f6	0.048604928
51	0x3c16cd7d	0.009204266
52	0xbd8048fb	-0.0626392
53	0xbd21e0cc	-0.039521024
54	0x3ddd9e89	0.10821254
55	0xbc774e9d	-0.015094426
56	0x3dcb04f8	0.09913057
57	0xbd13706a	-0.03599588
58	0x3ca3522e	0.019936647
59	0xbd37eb16	-0.04490193
60	0xbd91737f	-0.07102107
61	0x3d40fd25	0.047116417
62	0x3c1df528	0.009640969
63	0x3d06205b	0.0327457

1.8.weight f4 [32, 64]
0	0xbda7741f	-0.08176445
1	0x3ddeae1c	0.108730525
2	0x3de2f1ad	0.11081252
3	0x3dcec6fa	0.100965455
4	0xbd80ba8d	-0.06285582
5	0xbbda1518	-0.0066553466
6	0x3d016aec	0.03159611
7	0x3d51fa61	0.05126417
8	0x3d338266	0.04382553
9	0x3dd2b79c	0.10288927
10	0xbde86321	-0.11347032
11	0xbba441cb	-0.005012726
12	0xbd14d1ee	-0.036333017
13	0xbdfd26aa	-0.1236089
14	0x3b803458	0.00391249
15	0xbbde8416	-0.006790648
16	0xbd07ee4f	-0.033186253
17	0x3d0124a8	0.0315291
18	0x3d912c22	0.07088496
19	0x3dd1a473	0.10236444
20	0xbdd64e26	-0.104641244
21	0xbb1ab43f	-0.002360597
22	0xbc724edb	-0.014789308
23	0xbd0159c8	-0.031579763
24	0x3cb7a89f	0.022419272
25	0x3dc1c191	0.09460748
26	0x3df6ceef	0.12051188
27	0x3ae6f7a2	0.0017621408
28	0xbd291701	-0.041281704
29	0xbd8ecebe	-0.06973027
30	0xbcb7fffa	-0.022460926
31	0x3c93200c	0.017959617
32	0xbd096174	-0.033540204
33	0x3cb3d93e	0.021954175
34	0xbd99812f	-0.07495343
35	0xbdade5ca	-0.084910944
36	0xbc4cea2a	-0.012507001
37	0xbe14419c	-0.14478153
38	0x3dbd5658	0.092449844
39	0x3c5f4db1	0.013629363
40	0xbe06bb69	-0.13157429
41	0x3d663078	0.056198567
42	0xbd929e3a	-0.071590856
43	0x3d0d7d41	0.03454328
44	0xbd37a31a	-0.04483328
45	0x3e036bba	0.12834063
46	0x3de2ed9c	0.11080477
47	0x3db971bb	0.090548955
48	0x3d21273c	0.039344057
49	0x3de3d640	0.11124849
50	0x3d036308	0.032076865
51	0x3d8a39af	0.067492835
52	0xbd170cb8	-0.036877364
53	0xbdadbe59	-0.084835716
54	0xbd6f7ea2	-0.058470376
55	0xbbbd2be2	-0.0057730535
56	0xbddab546	-0.106791064
57	0xbdf99782	-0.12187101
58	0xbccbb55b	-0.02486675
59	0x3d80d86d	0.0629128
60	0xbd99eaff	-0.07515525
61	0xbd2eb57c	-0.042653546
62	0xbda2011f	-0.0791037
63	0x3dcc769d	0.09983561
64	0x3cb73a5e	0.022366699
65	0xbb548789	-0.0032429418
66	0xbd862d70	-0.06551635
67	0x3be7ccf4	0.007073993
68	0xbd9e9204	-0.07742694
69	0x3dfaedc8	0.122523844
70	0x3a2af08a	0.00065208285
71	0x3e375ad5	0.17905743
72	0xbda43873	-0.08018579
73	0x3e198bb9	0.14994706
74	0x3da49154	0.08035532
75	0x3dcb8565	0.09937552
76	0x3c610d4d	0.013736081
77	0x3d9e5e3e	0.07732819
78	0x3de120f3	0.10992613
79	0xbde6d9c5	-0.11272005
80	0xbb8cbb60	-0.004294798
81	0x3d531ae9	0.051539335
82	0x3cc40fd8	0.023933336
83	0xbd082c45	-0.033245344
84	0x3d44b5b5	0.04802485
85	0x3d6581a8	0.056031853
86	0x3d864d5a	0.065577224
87	0x3db7c5de	0.08973287
88	0xbc1150f7	-0.008869401
89	0xbd78a127	-0.06070056
90	0xbe02630e	-0.12733099
91	0xbd8e94cd	-0.06961975
92	0x3daf8c64	0.08571699
93	0xbd38e7a7	-0.045142796
94	0xbdb9f1c4	-0.09079316
95	0x3d16eb7a	0.03684566
96	0x3d7ed954	0.06221898
97	0x3dc4bfe2	0.09606911
98	0xbe1c07b4	-0.15237314
99	0x3cc7936e	0.024362292
100	0xbdf9114b	-0.121615015
101	0x3e3f0b5d	0.18656678
102	0xbdcf0990	-0.10109246
103	0x3e3dd93d	0.18539901
104	0x3db7d9f9	0.08977122
105	0xbde860d0	-0.113465905
106	0x3e02c85d	0.12771745
107	0x3b6eb756	0.0036425195
108	0x3d3c34e3	0.045948874
109	0xbde0965d	-0.109661795
110	0xbd06dc01	-0.032924656
111	0xbb988db3	-0.0046555637
112	0xbc94b85b	-0.018154314
113	0x3d46017b	0.048341256
114	0x3d856bca	0.065147
115	0x3c95a452	0.01826683
116	0x3c94e9c2	0.01817787
117	0xbe0d6b26	-0.13810405
118	0xbc11a2a5	-0.008888875
119	0x3d64a161	0.055817965
120	0xbc64cbc2	-0.013964595
121	0x3d7ab0b7	0.061203685
122	0xbc242ae0	-0.010019988
123	0xbd7ce566	-0.06174221
124	0x3d9e23ff	0.077217095
125	0xbd33ede3	-0.04392804
126	0x3e04ce2c	0.12969273
127	0x3e149081	0.14508249
128	0xbcdc6f6b	-0.026908597
129	0x3d9af9aa	0.07567151
130	0x3bd2d0ce	0.006433583
131	0x3cb45f2c	0.022018038
132	0x3d9ecde2	0.07754113
133	0x3cd19a26	0.025586199
134	0x3d7288da	0.059212543
135	0xbd74585b	-0.059654575
136	0x3e040dc0	0.1289587
137	0x3d2206e3	0.03955735
138	0xbdc0b1e6	-0.094089314
139	0xbd9c8b95	-0.07643811
140	0x3dd34698	0.10316199
141	0x3c121def	0.00891827
142	0x3d873cbe	0.066033825
143	0xbdecdd8b	-0.115656935
144	0xbd6dc70d	-0.058051158
145	0xbe07512b	-0.13214557
146	0xbc5b9756	-0.0134027805
147	0xbd68650e	-0.056737
148	0x3d38d5d0	0.045125782
149	0x3c765854	0.0150357075
150	0xbc6a618f	-0.014305486
151	0x3cf3103c	0.029670827
152	0xbdb79425	-0.08963803
153	0xbdd31def	-0.10308444
154	0xbdec48b2	-0.11537303
155	0x3d725f89	0.05917314
156	0x3db63d10	0.088983655
157	0x3d07ab69	0.033122454
158	0xbdea7f5e	-0.114500746
159	0x3c4ccac7	0.012499518
160	0xbdb03cf1	-0.08605374
161	0xbd854ea2	-0.06509139
162	0x3e05f6f7	0.13082491
163	0x3d094aed	0.03351872
164	0xbd9bfcc1	-0.07616568
165	0xbe2fe9bc	-0.17179006
166	0x3de95e95	0.11394993
167	0x3d39864e	0.0452941
168	0xbde2300c	-0.110443205
169	0xbe05f2ff	-0.13080977
170	0xbd26e235	-0.04074307
171	0x3d98bd49	0.07457978
172	0xbe01e38e	-0.12684461
173	0x3c563d0d	0.013076079
174	0xbdb9a245	-0.090641536
175	0x3dab3a53	0.08360734
176	0xbdab4330	-0.083624244
177	0x3da57294	0.08078495
178	0xbd482a28	-0.04886833
179	0xbd1a5efd	-0.037688244
180	0x3dcacca4	0.09902313
181	0x3db894b1	0.09012736
182	0xbdf6b5b6	-0.12046377
183	0x3dad70c5	0.08468775
184	0x3d9f3642	0.07774021
185	0x3c8d4f59	0.01724975
186	0x3e00ac71	0.12565781
187	0x3dc361ad	0.095401146
188	0xbdb9aa3e	-0.09065674
189	0xbdf114e3	-0.11771562
190	0xbdd69243	-0.10477116
191	0x3da16d5f	0.07882189
192	0x3d3fa793	0.04679067
193	0xbde14df2	-0.11001195
194	0xbd55201d	-0.05203258
195	0xbd9e9f84	-0.07745269
196	0xbd29d6a8	-0.041464478
197	0x3ca57ffb	0.020202627
198	0xbc0ec527	-0.008713997
199	0x3d406234	0.046968654
200	0xbd910873	-0.0708169
201	0x3df63dc4	0.120234996
202	0x3de07f53	0.10961785
203	0x3dd58eb3	0.10427608
204	0x3d25d22c	0.04048364
205	0x3c884a9d	0.01663714
206	0xbd3453f5	-0.04402538
207	0xbc23b1d5	-0.009991129
208	0xbdff3467	-0.12461167
209	0xbd7ca5db	-0.06168161
210	0x3bfff0e4	0.007810699
211	0xbca74ea7	-0.020423247
212	0xbddf46d5	-0.10902182
213	0xbd60beab	-0.054869335
214	0xbd7a77fe	-0.06114959
215	0xbddff579	-0.10935492
216	0xbd39b75a	-0.045340873
217	0xbc616286	-0.0137564
218	0x3a6ba53f	0.0008989162
219	0x3d9d5b6a	0.076834515
220	0xbd9ae05f	-0.07562327
221	0xbce521a1	-0.027970137
222	0xbdccf5ad	-0.100077964
223	0x3d658d64	0.056043044
224	0xbc799be2	-0.015234919
225	0xbd1de0ca	-0.038544454
226	0xbd7b0136	-0.06128045
227	0xbc3507a5	-0.011049186
228	0xbcdf0203	-0.027222639
229	0xbd8a5289	-0.067540236
230	0x3d832081	0.06402684
231	0xbd45fb53	-0.048335385
232	0xbe015801	-0.12631227
233	0xbd415167	-0.047196772
234	0xbdcde37c	-0.10053155
235	0x3d06cf89	0.032912765
236	0xbde9af4b	-0.114103876
237	0x3d8f0aec	0.06984505
238	0x3dc98ee8	0.0984171
239	0xbd0e3437	-0.034717765
240	0x3d222241	0.03958345
241	0xbd400017	-0.046875086
242	0xbd406986	-0.046975635
243	0x3d099411	0.033588473
244	0x3d96d0c6	0.07364039
245	0x3d8f5391	0.06998361
246	0xbdcfeaa9	-0.1015218
247	0x3da55bc8	0.080741465
248	0x3ceb93c7	0.02875699
249	0xbe0904ac	-0.13380688
250	0xbdbda30f	-0.092596166
251	0xbda8b251	-0.08237136
252	0xbdb737cb	-0.089461885
253	0xbe0797de	-0.13241526
254	0xbdfb23f7	-0.12262719
255	0x3d30edab	0.043195408

1.8.bias f4 [32]
0	0x3d20025b	0.039064746
1	0xbd37364b	-0.044729512
2	0xbde7b29b	-0.11313363
3	0x3d41a499	0.047276113
4	0xbd865daa	-0.06560834
5	0xbdd342b2	-0.103154555
6	0x37ef1ca8	2.8504364e-05
7	0x3d703c7a	0.058651425
8	0x3d60b646	0.05486133
9	0x3b9451df	0.0045263614
10	0x3d7bb693	0.061453413
11	0xba3c525c	-0.00071839034
12	0x3d0907ca	0.033454694
13	0x3d8528a7	0.065018944
14	0x3d84d674	0.06486216
15	0xbda6b6a1	-0.081403024
16	0xbd134f29	-0.035964165
17	0x3c55eb03	0.013056519
18	0x3d0a606d	0.033783365
19	0xbd37df86	-0.044890903
20	0x3db0be78	0.08630079
21	0xbbb9ef6b	-0.005674293
22	0xbde78d9e	-0.11306308
23	0xbd95958f	-0.07303917
24	0x3e03f95f	0.12888096
25	0x3d950129	0.07275612
26	0xbcd0567c	-0.025431864
27	0xbd84abed	-0.06478105
28	0x3dabfd48	0.08397919
29	0x3e22f745	0.15914638
30	0x3dc68018	0.09692401
31	0xbd83d900	-0.06437874
